results/size-5000000_lossv0_bs-30/basic_lossv0_model_4.pth (torch_old, 328601 bytes, 8 tensors)

model.0.weight f4 [100, 3]
-0.40254852 0.37852988 0.44658402 -0.47361553 0.16889414 -0.24419509 -0.5194188 0.42623687
0.5024992 -0.4384436 -0.34790102 -0.4498777 0.17721601 -0.11692399 0.27638042 -0.3806546
0.3257808 0.06973253 0.18152077 0.14300492 0.029645478 -0.11574481 -0.5836336 0.39711297
-0.13086279 -0.17803082 0.093179174 0.13802771 0.29592904 0.046819996 -0.21684667 0.39587077
0.13058849 0.23598634 -0.034522355 -0.1733734 -0.16261956 -0.03260107 0.5610941 -0.21671636
-0.42009658 0.36609432 -0.023545176 -0.15725954 -0.26165405 -0.50344855 -0.31876445 0.3380296
0.23775142 -0.51410985 -0.11586451 -0.08888836 -0.021807132 -0.40937617 0.2197381 -0.20748451
-0.58675086 0.3100143 0.083106905 0.038922522 -0.5537904 0.3474127 0.0010550326 -0.33423492
-0.21116315 -0.4056771 -0.36529595 -0.33803448 0.005601781 0.3671651 0.0033881038 0.005679414
0.15931244 -0.237047 -0.17342913 0.089758925 0.48718262 -0.31326073 0.49732238 -0.31964588
0.30131823 -0.3882703 -0.15257885 0.08809294 0.22427934 0.101684116 -0.0070584607 -0.2432352
-0.25505507 0.27579573 0.18449932 -0.5531995 0.26703647 -0.4350187 0.23989594 0.0466728
0.12808226 -0.55630857 -0.2281631 0.3439842 -0.047542 0.3785683 0.07658091 0.56459725
0.44300586 0.09681018 0.0027862904 0.52923465 0.33037758 -0.38708138 0.42361605 -0.014342212
-0.42103657 0.55595136 -0.40668818 0.2179393 0.29431927 -0.035475973 -0.3648489 0.017538598
0.31230876 -0.27573678 -0.48688024 0.11169278 -0.48655182 0.2814443 -0.13847098 0.27471882
-0.6149057 -0.32047784 -0.48051587 0.27446696 0.37759098 -0.53734 0.5705491 0.41027558
-0.19079557 -0.0104478635 0.24345131 -0.44546762 -0.07888618 -0.14513862 -0.5539986 -0.45527518
-0.34486774 0.17224497 0.009608604 -0.10710631 0.3199724 0.23541956 -0.19706224 -0.235187
-0.13300543 -0.5342504 -0.1734368 -0.19559857 0.17242433 0.3221971 0.12427246 0.3669406
0.2880245 -0.24148765 0.52026767 0.16520596 0.26983896 -0.5323439 0.45880243 0.5223582
0.22775853 0.4343077 -0.39285 0.41447848 -0.19045505 -0.15910242 0.2556838 -0.47797054
0.21322632 0.56864184 0.52197045 -0.4770814 0.16060235 -0.14606248 0.01081033 -0.10960263
0.11271303 0.4423329 0.11283813 -0.4244958 0.14398089 0.09699992 -0.09696741 0.40214375
0.4870391 0.43348357 -0.38425165 0.009859232 -0.067448184 0.48005578 -0.31524557 -0.4066909
-0.40925455 -0.48174667 -0.3138836 0.32451954 -0.32740462 0.55331916 -0.2073458 -0.45642313
0.09745218 0.49701032 -0.045976095 0.48602426 -0.51904976 -0.41278744 0.16471243 -0.149177
0.26232085 -0.32930806 -0.531285 -0.11645184 0.017432772 -0.5615842 0.42863354 0.34214965
0.27743888 0.32338032 0.38077018 0.4041778 0.16093951 0.18915063 0.054858398 -0.101723514
0.2277221 0.44215077 0.32025802 0.11723527 -0.32373828 0.42435962 0.38799632 0.545837
0.40811652 -0.37991062 0.080308475 0.33805317 -0.42183584 -0.3052095 -0.5152635 0.1421106
0.11255559 0.3883844 0.24583727 0.47800314 0.49911794 -0.41481778 0.038061384 0.106102414
00000000: d71a cebe abce c13e a9a6 e43e bc7d f2be
00000010: 96f2 2c3e 470e 7abe a1f8 04bf b83b da3e
00000020: caa3 003f ae7b e0be 1520 b2be 5f56 e6be
00000030: 1d78 353e d875 efbd bc81 8d3e 29e5 c2be
00000040: becc a63e eecf 8e3d 95e0 393e e26f 123e
00000050: 13db f23c 9d0b edbd 0369 15bf 6452 cb3e
00000060: e500 06be b64d 36be b9d4 be3d 2357 0d3e
00000070: 0384 973e 53c6 3f3d 0e0d 5ebe 93af ca3e
00000080: fdb8 053e 67a6 713e 5067 0dbd cc88 31be
00000090: be85 26be b388 05bd dda3 0f3f e5ea 5dbe
000000a0: e616 d7be b770 bb3e d0e1 c0bc a508 21be
000000b0: 85f7 85be 01e2 00bf 1835 a3be 3712 ad3e
000000c0: 1c75 733e b49c 03bf 5f4a edbd 1a0b b6bd
000000d0: dfa4 b2bc c199 d1be 0603 613e d276 54be
000000e0: 4e35 16bf 32ba 9e3e f433 aa3d 396d 1f3d
000000f0: 35c5 0dbf 14e0 b13e 0549 8a3a d720 abbe
00000100: 273b 58be e9b4 cfbe 1208 bbbe db12 adbe
00000110: 258f b73b 10fd bb3e f30a 5e3b 611a ba3b
00000120: cd22 233e 73bc 72be 6897 31be 87d3 b73d
00000130: 0070 f93e b663 a0be 0aa1 fe3e a0a8 a3be
00000140: 6246 9a3e 5dcb c6be a13d 1cbe 126a b43d
00000150: 7ca9 653e c33f d03d a94a e7bb a612 79be
00000160: 9496 82be 1935 8d3e 64ed 3c3e 7c9e 0dbf
00000170: 01b9 883e c5ba debe 48a7 753e fa2b 3f3d
00000180: ff27 033e 3d6a 0ebf 96a3 69be b21e b03e
00000190: 66bb 42bd b4d3 c13e 74d6 9c3d 7289 103f
000001a0: aad1 e23e 6a44 c63d 329a 363b ec7b 073f
000001b0: 4027 a93e 882f c6be 34e4 d83e 99fb 6abc
000001c0: 1b92 d7be d452 0e3f 6f39 d0be 7b2b 5f3e
000001d0: 04b1 963e 414f 11bd 7acd babe 1bad 8f3c
000001e0: efe6 9f3e 5f2d 8dbe 5e48 f9be 2fbf e43d
000001f0: 521d f9be 7819 903e 56cb 0dbe f2a7 8c3e
00000200: 766a 1dbf ac15 a4be 2d06 f6be ef86 8c3e
00000210: 9b53 c13e 1d8f 09bf 810f 123f a40f d23e
00000220: ea5f 43be 842d 2bbc 4d4b 793e 5514 e4be
00000230: 148f a1bd 389f 14be dad2 0dbf d419 e9be
00000240: 8192 b0be fc60 303e 686d 1d3c 8e5a dbbd
00000250: 6cd3 a33e d311 713e afca 49be dcd4 70be
00000260: 9332 08be a2c4 08bf 6b99 31be fe4a 48be
00000270: 0190 303e 05f7 a43e 8f82 fe3d a3df bb3e
00000280: f277 933e 8a48 77be 4330 053f c02b 293e
00000290: 5528 8a3e b147 08bf 27e8 ea3e 44b9 053f
000002a0: 8839 693e 945d de3e a323 c9be 8636 d43e
000002b0: a606 43be bfeb 22be fde8 823e 8eb8 f4be
000002c0: 0058 5a3e 8392 113f db9f 053f 0344 f4be
000002d0: f174 243e 6791 15be cf1d 313c 5877 e0bd
000002e0: 17d6 e63d 7579 e23e ad17 e73d 8357 d9be
000002f0: ba6f 133e e5a7 c63d d996 c6bd c9e5 cd3e
00000300: 305d f93e 8ff1 dd3e a2bc c4be 9e88 213c
00000310: 4622 8abd dfc9 f53e de67 a1be ca39 d0be
00000320: d089 d1be 80a7 f6be 5ab5 a0be 6d27 a63e
00000330: 94a1 a7be 53a6 0d3f 7552 54be 4bb0 e9be
00000340: 0295 c73d 2378 fe3e 6e51 3cbd 2cd8 f83e
00000350: 72e0 04bf e058 d3be 60aa 283e dbc1 18be
00000360: eb4e 863e 119b a8be 4b02 08bf 4d7e eebd
00000370: 2ccf 8e3c fbc3 0fbf db75 db3e 3d2e af3e
00000380: 780c 8e3e 1b92 a53e 4ff4 c23e 65f0 ce3e
00000390: 54cd 243e b4b0 413e 33b3 603d 6b54 d0bd
000003a0: fb2f 693e 9661 e23e dcf8 a33e 0c19 f03d
000003b0: 06c1 a5be aa45 d93e 74a7 c63e f9bb 0b3f
000003c0: a6f4 d03e a583 c2be c578 a43d 4e15 ad3e
000003d0: defa d7be 6b44 9cbe 4fe8 03bf 7185 113e
000003e0: 8c83 e63d 52da c63e c4bc 7b3e d4bc f43e
000003f0: 638c ff3e ff62 d4be 41e6 1b3d 394c d93d

model.0.bias f4 [100]
-0.48788986 -0.4669162 -0.028402243 -0.05279825 -0.075109504 -0.34380114 0.27901977 -0.4659127
-0.43883312 0.011022112 0.14739281 0.26276764 0.5461296 -0.43026638 0.49633887 -0.18333355
-0.49110204 -0.1695591 -0.2637017 -0.31091547 0.38199827 0.437316 0.36143246 -0.5328292
-0.48036548 0.3231088 -0.4959944 -0.04404622 0.47092724 0.12857935 -0.09275459 0.16496977
-0.39875883 0.25749683 -0.20069198 -0.29047236 0.4850428 -0.009653639 0.24626875 0.37687546
-0.4625491 0.07117327 -0.5148101 0.25335318 -0.46157637 -0.3670453 -0.38322452 0.11928161
-0.17387903 0.4972818 -0.3007711 -0.40223 0.09276415 0.075079724 0.35669473 -0.2306115
0.5032712 -0.04413401 -0.07534191 -0.54547083 -0.32771242 0.49796227 0.3445257 -0.19674891
0.27976745 -0.3927722 0.16534378 -0.38271725 -0.14704683 -0.09554727 0.3073428 -0.26548207
-0.07206903 0.17492612 0.032372408 0.51541305 0.39423734 -0.37841028 -0.17658412 -0.07271977
0.03553116 -0.4298432 0.46715787 -0.50898355 0.0004482321 0.08605836 0.2365651 -0.56465954
-0.34749484 -0.15152696 -0.5562007 -0.45816392 -0.09159494 0.029332366 0.34925464 -0.5563322
0.5571948 0.53405887 -0.34589815 -0.3456135
00000000: b3cc f9be a40f efbe d2ab e8bc fa42 58bd
00000010: 03d3 99bd b406 b0be aedb 8e3e 1c8c eebe
00000020: bcae e0be 1796 343c 24ee 163e 7b89 863e
00000030: 26cf 0b3f e04b dcbe 2120 fe3e cabb 3bbe
00000040: ba71 fbbe e7a0 2dbe e903 87be 5030 9fbe
00000050: 4795 c33e e2e7 df3e ad0d b93e 7f67 08bf
00000060: 77f2 f5be 846e a53e faf2 fdbe cf69 34bd
00000070: 601d f13e 4eaa 033e 1ef6 bdbd d6ed 283e
00000080: 1e2a ccbe a0d6 833e 3382 4dbe cbb8 94be
00000090: 8857 f83e 4c2a 1ebc e02d 7c3e d2f5 c03e
000000a0: 3cd3 ecbe 4bc3 913d 98ca 03bf 82b7 813e
000000b0: bd53 ecbe 5ded bbbe 0136 c4be eb49 f43d
000000c0: 580d 32be b89b fe3e abfe 99be 17f1 cdbe
000000d0: 21fb bd3d 66c3 993d b1a0 b63e 6c25 6cbe
000000e0: 62d6 003f ddc5 34bd dc4c 9abd faa3 0bbf
000000f0: ecc9 a7be e9f4 fe3e ac65 b03e 8c78 49be
00000100: ae3d 8f3e 7019 c9be e14f 293e 84f3 c3be
00000110: 7293 16be 49ae c3bd 095c 9d3e 44ed 87be
00000120: ed98 93bd d51f 333e ee98 043d 1cf2 033f
00000130: 7ad9 c93e febe c1be 78d2 34be 1aee 94bd
00000140: 1f89 113d 6814 dcbe 512f ef3e bf4c 02bf
00000150: b200 eb39 5e3f b03d 1f3e 723e 878d 10bf
00000160: d8ea b1be e229 1bbe 2b63 0ebf 7694 eabe
00000170: 2196 bbbd 6e4a f03c 81d1 b23e c96b 0ebf
00000180: 52a4 0e3f 15b8 083f 9019 b1be 41f4 b0be

model.2.weight f4 [200, 100]
-0.020731991 0.0029902037 0.08093562 -0.06807629 0.037845187 0.018299779 0.043692455 0.05820668
-0.008968594 -0.03174794 0.123310916 0.07769856 -0.017267125 0.07799347 0.07080781 -0.058284033
-0.11527871 0.017847214 0.036335453 -0.0033927343 0.07627957 0.036049552 0.07157195 0.06947835
0.22073689 -0.05624689 -0.07037453 0.03300763 0.04354271 -0.016716661 0.043200128 0.06930669
-0.04763777 -0.01102832 0.058219507 -0.06365316 -0.046905454 -0.043452017 0.04756288 -0.0056246812
0.051208314 0.051594753 0.099384 0.042175252 -0.038030352 -0.0196987 -0.050691176 -0.08207702
0.099854626 0.07216834 0.057760227 -0.039219562 0.06777935 -0.041265912 -0.053880945 -0.011806067
-0.010349834 -0.1072514 -0.021852784 -0.054775223 -0.115377314 0.06890787 0.027616875 0.0023268387
-0.034335826 0.08511608 -0.008934939 0.027393455 0.070255965 -0.078873925 0.12083983 0.040467005
-0.024736935 0.11024696 -0.0047330526 -0.046225555 0.04495344 -0.055048622 0.059022486 0.083764695
0.013099334 0.19705027 0.06189725 0.06436176 0.02783019 0.06929111 -0.06641918 0.062160667
-0.09271668 0.031784244 0.009346141 0.0124790175 0.10236471 0.04956656 -0.022839712 -0.11103282
-0.058625765 -0.01640888 0.015598778 0.11704673 -0.08980387 -0.08022803 0.07466202 -0.049553405
0.0772102 -0.033891916 -0.010812184 0.01133021 -0.09006723 0.09140044 -0.068155944 0.015836356
-0.045466658 -0.09565972 -0.065740764 0.0007447973 0.024447782 0.014104202 0.030469082 -0.055460837
0.04540912 0.071068905 0.091503985 -0.040356167 0.074792586 -0.085305475 -0.052643914 0.039661653
-0.09785003 -0.052200712 -0.0064858706 -0.087456785 -0.051098477 -0.01291988 0.0548485 0.039149705
0.09092928 0.033211958 0.02721379 -0.015592171 0.075800456 0.08402226 -0.031937048 -0.062187877
0.020553209 0.06833442 0.042879302 0.015574358 -0.08110704 -0.10026206 -0.082899906 0.06289732
-0.09878265 0.0851961 0.059859976 -0.07178043 0.018019475 -0.09953699 -0.034515783 -0.04837846
0.0023870533 -0.024177322 0.013630973 0.01580689 -0.05114429 -0.07807534 -0.03702823 0.09307336
0.0021547452 0.03240826 0.09325295 0.01309748 -0.028486773 0.041021816 -0.021765364 0.085736245
-0.055540647 -0.09704608 -0.054397196 -0.06546322 0.01235022 -0.07724158 0.035019033 0.09518823
-0.047955412 0.045599654 -0.08052591 -0.05258509 -0.070103005 0.012944803 -0.07655839 0.036763556
0.0044675306 -0.06471983 0.008682386 -0.0855945 -0.032292783 -0.070301905 -0.09144268 -0.07155677
0.074676 0.07331058 -0.049539354 -0.04735802 -0.016707227 -0.020008098 -0.035717424 0.036268998
0.038049188 0.035719987 -0.061808627 -0.034192283 0.039206352 -0.077678956 0.021955509 0.10696283
-0.05550435 0.007151398 0.1036259 -0.08360247 -0.015453343 0.0362264 0.0518833 0.043776553
-0.012855081 -0.06005182 -0.03892131 -0.015708366 -0.01172851 0.05298441 0.0144284535 0.090642385
0.015763396 -0.009769568 -0.0068359724 -0.05706831 -0.027351644 0.08352474 0.06805396 0.06345487
0.050632197 0.03835936 0.07117208 0.09661445 0.043806184 -0.036782548 0.0012558674 0.09994296
0.07295418 0.019260794 0.06758141 0.07640959 0.056400042 0.06814253 -0.11074241 0.061472464
00000000: 23d6 a9bc 4bf7 433b 93c1 a53d 956b 8bbd
00000010: 8e03 1b3d 6be9 953c dcf6 323d 216a 6e3d
00000020: 02f1 12bc 210a 02bd 6f8a fc3d 6c20 9f3d
00000030: c973 8dbc 0abb 9f3d af03 913d 3dbb 6ebd
00000040: 3f17 ecbd 5234 923c 7cd4 143d a358 5ebb
00000050: 7738 9c3d b2a8 133d 5194 923d aa4a 8e3d
00000060: da08 623e 2463 66bd 8620 90bd 0233 073d
00000070: d759 323d 61f1 88bc 9ef2 303d aaf0 8d3d
00000080: d31f 43bd 20b0 34bc 9477 6e3d 975c 82bd
00000090: ef1f 40bd befa 31bd 4bd1 423d 3f4f b8bb
000000a0: cfbf 513d 0555 533d d789 cb3d f5bf 2c3d
000000b0: b7c5 1bbd 2b5f a1bc 8da1 4fbd ff17 a8bd
000000c0: 9580 cc3d ffcc 933d fd95 6c3d b1a4 20bd
000000d0: e6cf 8a3d 7206 29bd 44b2 5cbd 3c6e 41bc
000000e0: 5a92 29bc 9fa6 dbbd 9c04 b3bc fc5b 60bd
000000f0: f14a ecbd 921f 8d3d c93c e23c e07d 183b
00000100: b9a3 0cbd 5751 ae3d da63 12bc 3d68 e03c
00000110: 5ce2 8f3d a788 a1bd df7a f73d bbc0 253d
00000120: 1da5 cabc 28c9 e13d b917 9bbb 0257 3dbd
00000130: 1921 383d aa7a 61bd 90c1 713d d38c ab3d
00000140: 979e 563c 8cc7 493e f987 7d3d 19d0 833d
00000150: 23fc e33c 7fe8 8d3d c706 88bd 2f9c 7e3d
00000160: 3ee2 bdbd 3230 023d 8e20 193c cb74 4c3c
00000170: 97a4 d13d 4e06 4b3d 591a bbbc 2d65 e3bd
00000180: 9221 70bd ea6b 86bc 0492 7f3c 32b6 ef3d
00000190: 17eb b7bd 984e a4bd 67e8 983d 83f8 4abd
000001a0: 6220 9e3d 40d2 0abd 9625 31bc 58a2 393c
000001b0: 2b75 b8bd 2730 bb3d 5895 8bbd 3fbb 813c
000001c0: 3f3b 3abd 3ee9 c3bd 18a3 86bd 803e 433a
000001d0: b746 c83c 5015 673c 4c9a f93c e72a 63bd
000001e0: eafe 393d 938c 913d 7166 bb3d 824c 25bd
000001f0: db2c 993d a3b4 aebd 25a1 57bd 4274 223d
00000200: 9965 c8bd 6ad0 55bd 6d87 d4bb 8b1c b3bd
00000210: a34c 51bd e8ad 53bc d2a8 603d 715b 203d
00000220: 2139 ba3d 4309 083d 74ef de3c 4e76 7fbc
00000230: 453d 9b3d dd13 ac3d 6cd0 02bd b7b8 7ebd
00000240: 345f a83c ebf2 8b3d 35a2 2f3d 982b 7f3c
00000250: 731b a6bd 3256 cdbd 6dc7 a9bd 4fd0 803d
00000260: 8f4e cabd 4b7b ae3d bc2f 753d 9e01 93bd
00000270: 949d 933c 0dda cbbd 6c60 0dbd 7e28 46bd
00000280: 1c70 1c3b 850f c6bc 7254 5f3c 737d 813c
00000290: ad7c 51bd f7e5 9fbd eaaa 17bd 3f9d be3d
000002a0: a036 0d3b 86be 043d 67fb be3d d096 563c
000002b0: 185d e9bc 7e06 283d 474d b2bc 7c96 af3d
000002c0: 977e 63bd 18c0 c6bd 98cf 5ebd 9511 86bd
000002d0: 9458 4a3c d530 9ebd 1e70 0f3d 0cf2 c23d
000002e0: e56c 44bd b4c6 3a3d c5ea a4bd 7763 57bd
000002f0: 2a92 8fbd 7016 543c a5ca 9cbd 6295 163d
00000300: 5d64 923b d58b 84bd 9140 0e3c 2b4c afbd
00000310: 7045 04bd 72fa 8fbd 4d46 bbbd 5b8c 92bd
00000320: bbef 983d db23 963d c7e9 4abd 7cfa 41bd
00000330: 98dd 88bc 06e8 a3bc 6f4c 12bd cd8e 143d
00000340: 77d9 1b3d 1f4f 123d 0b2b 7dbd 350d 0cbd
00000350: d796 203d 2516 9fbd 0adc b33c 540f db3d
00000360: 8858 63bd 4656 ea3b d139 d43d c637 abbd
00000370: 0530 7dbc 2262 143d 9583 543d 0b4f 333d
00000380: 1e9e 52bc e6f8 75bd f46b 1fbd d5ae 80bc
00000390: f028 40bc 2e06 593d 5265 6c3c b7a2 b93d
000003a0: 3d22 813c 8a10 20bc 4b00 e0bb 76c0 69bd
000003b0: 8e10 e0bc 050f ab3d e05f 8b3d a0f4 813d
000003c0: b563 4f3d b41e 1d3d abc2 913d ccdd c53d
000003d0: 1d6e 333d 4ca9 16bd eb9b a43a e5ae cc3d
000003e0: 0069 953d d0c8 9d3c 1f68 8a3d a27c 9c3d
000003f0: bb03 673d 508e 8b3d ebcc e2bd 8dca 7b3d

model.2.bias f4 [200]
0.028543532 0.063308604 0.08240668 0.09735495 0.0285797 -0.06366469 0.0010634064 -0.059596725
-0.03600885 -0.057057902 -0.087197915 -0.12237854 0.038036913 0.037295245 -0.013750251 -0.0512067
0.014627878 -0.04744805 0.01717663 0.10120316 -0.061072793 -0.035497762 -0.02341586 0.027511712
0.047001176 0.050735027 0.09509302 -0.06765912 -0.010362683 -0.015524767 -0.057834286 0.06985998
-0.045424785 0.06294654 -0.033862285 -0.052622575 0.07821223 -0.010990383 -0.050998915 0.025577474
0.108672075 0.09855463 -0.040805828 0.08866351 -0.008235935 0.03325178 -0.043812584 -0.06634645
-0.035717122 -0.073672436 0.081847146 0.076331474 0.08674197 0.021805165 0.076781675 0.13277608
0.07818235 -0.055362288 0.09649897 0.031512205 -0.017952915 0.03767494 0.100847594 0.022244453
-0.048412785 0.094584204 0.080653325 -0.016018538 0.021053754 0.054547112 -0.12276658 -0.02053882
-0.09000772 0.06020542 -0.07461737 -0.006866067 0.02698749 0.03716658 0.017325101 -0.09275654
0.0778948 -0.046850663 0.047282804 -0.028501395 -0.039811634 0.1003823 0.026667975 0.053034123
0.052578464 0.055799883 -0.03834244 -0.0860755 -0.011644974 -0.023981465 -0.07781758 -0.03796601
-0.097207665 0.08051094 -0.063235 -0.012813484 -0.019047445 -0.015654165 0.07507635 -0.055394568
-0.10242099 -0.08976968 -0.01739613 0.028842071 0.039059557 -0.058322143 -0.05858759 0.026602382
0.038747966 0.010764922 0.028617203 0.039854713 0.106741644 -0.027889831 -0.11382669 -0.009149067
-0.07763374 0.048542336 0.061757408 -0.019201828 0.014320169 0.07311065 0.078795984 -0.027473288
-0.034463495 0.08302256 -0.0032424978 -0.08963956 0.020764753 -0.055143 0.115766875 -0.02192965
0.121225975 -0.0775125 0.008548364 0.09420781 0.013729523 -0.046349686 -0.08013723 0.056365095
-0.03911087 0.08993163 0.007390433 -0.00023401767 -0.10435079 0.043854266 -0.053727508 0.04816358
0.06486409 -0.022801872 -0.043744616 0.01340386 -0.039558783 0.0020543968 -0.023315072 0.033409823
0.010332224 -0.04795035 -0.07750421 -0.04410418 -0.0081747025 0.007831186 0.083207846 -0.022056667
0.020317554 -0.013577742 0.11340978 -0.023813441 0.007595096 0.07999109 -0.0828181 0.0033430902
-0.017963715 -0.005282701 -0.0074463794 0.020308547 -0.12982266 -0.005047679 0.010576795 -0.053800117
-0.08215907 -0.072203234 0.06126206 0.05234825 -0.079963654 -0.04825199 0.0800743 0.002907059
0.07884142 0.02443447 -0.04206448 -0.03034633 -0.10060537 0.05817876 -0.0013558919 0.030848557
00000000: 20d4 e93c f1a7 813d d5c4 a83d 0862 c73d
00000010: fa1f ea3c a262 82bd ff61 8b3a b21b 74bd
00000020: 047e 13bd 8cb5 69bd d294 b2bd 9aa1 fabd
00000030: 98cc 1b3d e6c2 183d bc48 61bc 1ebe 51bd
00000040: c4a9 6f3c e358 42bd 01b6 8c3c 9a43 cf3d
00000050: 7727 7abd 1a66 11bd 9ed2 bfbc 3e60 e13c
00000060: 4e84 403d 88cf 4f3d 21c0 c23d dd90 8abd
00000070: 3ec8 29bc 985b 7ebc a5e3 6cbd c012 8f3d
00000080: 570f 3abd 1eea 803d 2eb3 0abd c58a 57bd
00000090: bc2d a03d 0211 34bc 3de4 50bd da87 d13c
000000a0: 778f de3d 03d7 c93d 0324 27bd 3795 b53d
000000b0: 04f0 06bc 0533 083d d374 33bd a6e0 87bd
000000c0: 1e4c 12bd 93e1 96bd 7a9f a73d ad53 9c3d
000000d0: c6a5 b13d bfa0 b23c b63f 9d3d 74f6 073e
000000e0: 111e a03d 91c3 62bd 41a1 c53d f112 013d
000000f0: fe11 93bc 0a51 1a3d 2f89 ce3d 003a b63c
00000100: 7c4c 46bd 5db5 c13d 922d a53d 4f39 83bc
00000110: ec78 ac3c cb6c 5f3d 0b6d fbbd 0741 a8bc
00000120: f855 b8bd f599 763d fed0 98bd bffc e0bb
00000130: de14 dd3c fc3b 183d 5fed 8d3c 24f7 bdbd
00000140: 4f87 9f3d 7be6 3fbd 9dab 413d c27b e9bc
00000150: 8611 23bd 3c95 cd3d cc76 da3c 4f3a 593d
00000160: 845c 573d 6b8e 643d f60c 1dbd 5a48 b0bd
00000170: 90ca 3ebc c774 c4bc d35e 9fbd 3f82 1bbd
00000180: d014 c7bd ebe2 a43d 5a81 81bd a6ef 51bc
00000190: 6309 9cbc 2a3d 80bc a1c1 993d 6ae5 62bd
000001a0: 19c2 d1bd 2ad9 b7bd 5482 8ebc 3546 ec3c
000001b0: eafc 1f3d 33e3 6ebd 8af9 6fbd 3ded d93c
000001c0: 30b6 1e3d 5b5f 303c a06e ea3c b23e 233d
000001d0: 5d9b da3d 3779 e4bc f81d e9bd f8e5 15bc
000001e0: 70fe 9ebd 54d4 463d 56f5 7c3d 274d 9dbc
000001f0: 249f 6a3c 09bb 953d ca5f a13d a90f e1bc
00000200: 9829 0dbd bb07 aa3d 1680 54bb f294 b7bd
00000210: d81a aa3c a0dd 61bd 2f17 ed3d cfa5 b3bc
00000220: 5345 f83d e0be 9ebd 700e 0c3c 06f0 c03d
00000230: cbf1 603c 2bd9 3dbd fd1e a4bd 16df 663d
00000240: b832 20bd 132e b83d 722b f23b a462 75b9
00000250: deb5 d5bd 88a0 333d 6011 5cbd 2d47 453d
00000260: 77d7 843d feca babc 8e2d 33bd dd9b 5b3c
00000270: 6408 22bd 0fa3 063b 40ff bebc bdd8 083d
00000280: 7d48 293c 9667 44bd 87ba 9ebd 96a6 34bd
00000290: 30ef 05bc 604e 003c e068 aa3d 2fb0 b4bc
000002a0: 0071 a63c 2d75 5ebc 6343 e83d 6814 c3bc
000002b0: 48e0 f83b 5ed2 a33d 899c a9bd bf17 5b3b
000002c0: a428 93bc 821a adbb c200 f4bb 1c5e a63c
000002d0: 3bf0 04be 0067 a5bb 4b4a 2d3c 835d 5cbd
000002e0: 0443 a8bd 4adf 93bd eded 7a3d 1e6b 563d
000002f0: fcc3 a3bd e1a3 45bd fffd a33d 5b84 3e3b
00000300: 9c77 a13d cc2a c83c ce4b 2cbd de98 f8bc
00000310: 300a cebd da4c 6e3d 2fb8 b1ba 1db6 fc3c

model.4.weight f4 [300, 200]
0.011367122 -0.0077829626 -0.02097023 0.034913547 -0.0061728447 0.014160164 -0.008459452 -0.0055776294
0.024276985 0.03891112 0.0076553626 -0.08762385 -0.02163003 -0.07663732 0.07095374 -0.0067974813
-0.03665307 0.03851651 0.035456568 -0.004395935 -0.021078186 0.018870616 -0.027592942 -0.023872077
-0.00543947 0.015460981 -0.0080251265 -0.016529229 -0.010617004 0.03947244 -0.050978635 -0.020554291
0.008070549 -0.0059292377 0.033708207 -0.0097303875 0.044482894 0.049539603 0.034873992 -0.007019466
-0.0387529 0.062316526 -0.025929736 0.008828796 0.005292778 -0.037933443 0.021600338 0.08003489
0.06267824 -0.0152823245 -0.015163534 0.049824297 -0.011102476 0.022189585 0.04989827 -0.043804087
-0.062169723 -0.083101004 0.015389773 -0.009076225 0.05442004 0.03600367 -0.01427661 0.021780925
-0.06835217 0.004380941 -0.02554237 -0.061124414 0.032713503 0.05875788 0.07525076 -0.048932195
-0.025276532 0.034537416 -0.01651743 0.040343028 -0.06471916 0.0020663475 -0.0016906698 0.071463086
0.05626716 -0.07752594 0.05112086 0.025620589 0.059924483 -0.019901423 -0.08011644 0.025626395
0.008928339 -0.046060275 0.046364415 -0.008233439 -0.037964687 -0.014659784 0.01488794 -0.033665854
0.07903429 0.032798193 0.016819138 0.029616512 -0.018589335 -0.049182136 0.005909456 0.035854574
0.04173214 0.05856882 0.04678055 -0.07339888 0.06295699 0.04295801 0.023591096 -0.053444006
0.058274947 0.043546904 -0.0056805466 0.048251346 0.017613895 0.003456159 -0.028737316 -0.054755602
0.04624968 -0.03987665 -0.015419534 0.03650305 -0.03746629 -0.059082426 0.028863333 0.038286854
0.07322029 -0.0064747958 -0.06584997 0.00984098 -0.0019349654 0.0106725395 0.016483532 0.043915026
0.058251735 0.0028170496 0.01930005 -0.07417545 0.05674594 -0.044623364 -0.084973104 0.076127246
-0.078391485 0.0009165122 -0.010693636 -0.012622139 0.007939488 -0.083719134 0.028145652 -0.0107550705
-0.0498363 -0.022353923 -0.010444202 -0.031085746 0.004388742 0.0418129 0.04290325 0.047324114
-0.04954273 0.03012169 -0.0035800934 -0.054707676 0.02750267 -0.037154984 -0.0011397889 -0.04813417
0.0015242398 -0.010973114 -0.011242003 -0.004167754 0.04027225 -0.015316103 0.015885051 0.059911482
-0.047904387 -0.0519953 -0.0021498841 0.091660686 -0.0501952 0.07314128 -0.0595937 0.0552566
0.0574844 0.046412803 0.04031302 0.014499014 0.06272893 0.04837921 0.013157871 -0.018568883
0.06523851 -0.05364409 0.022959586 0.024306312 -0.013810521 0.07196415 0.0366017 0.060978595
0.06164008 -0.03979074 0.023576148 0.07288754 0.013463793 0.06331549 -0.0464561 -0.03418108
0.030372657 -0.037797503 -0.018709043 -0.06410627 -0.023148073 0.010313288 0.0025903564 0.014426713
0.059244238 0.021245616 -0.01707776 0.081540905 0.009316007 -0.03178852 -0.03829332 -0.043136276
0.07356011 -0.027500555 0.063044004 0.047002487 -0.03596436 0.031080186 -0.02624863 -0.043919355
-0.013619334 0.03985565 0.071328536 0.039762177 0.0029841906 0.052042652 0.01614161 0.0038997754
0.060362637 -0.005135796 0.05054644 -0.00022844909 0.013055254 0.0024475995 0.008112609 -0.08455511
-0.020990362 0.019727247 -0.043794088 -0.01481188 0.0708696 -0.04268988 -0.044666015 -0.052161466
00000000: 2a3d 3a3c 3908 ffbb c3c9 abbc 8201 0f3d
00000010: 9345 cabb 0800 683c 8399 0abc 8cc4 b6bb
00000020: 87e0 c63c 4461 1f3d d6d9 fa3b 2274 b3bd
00000030: 7631 b1bc 07f4 9cbd 3250 913d 68bd debb
00000040: 8821 16bd 7dc3 1d3d e83a 113d c70b 90bb
00000050: 29ac acbc 8d96 9a3c 980a e2bc 608f c3bc
00000060: 953d b2bb 0e50 7d3c d27b 03bc 4e68 87bc
00000070: f1f2 2dbc daad 213d f9ce 50bd 7961 a8bc
00000080: 563a 043c 0d4a c2bb 9e11 0a3d 346c 1fbc
00000090: b233 363d 0aea 4a3d 08d8 0e3d 8c03 e6bb
000000a0: 5cbb 1ebd 9d3f 7f3d 996a d4bc a8a6 103c
000000b0: 0a6f ad3b 1960 1bbd 31f3 b03c 55e9 a33d
000000c0: 735d 803d b762 7abc 7970 78bc 9014 4c3d
000000d0: 29e7 35bc efc6 b53c 2162 4c3d ea6b 33bd
000000e0: aea5 7ebd dc30 aabd 6325 7c3c 72b4 14bc
000000f0: 8ce7 5e3d 9678 133d 71e8 69bc e96d b23c
00000100: 39fc 8bbd ff8d 8f3b 3b3e d1bc 985d 7abd
00000110: 98fe 053d 1aac 703d 121d 9a3d 206d 48bd
00000120: bb10 cfbc 1b77 0d3d 904f 87bc bb3e 253d
00000130: 7b8b 84bd 8f6b 073b 7799 ddba 3d5b 923d
00000140: 6578 663d ecc5 9ebd 1b64 513d 45e2 d13c
00000150: 6073 753d 4f08 a3bc 1714 a4bd 72ee d13c
00000160: 2b48 123c b3a9 3cbd 9de8 3d3d 8ce5 06bc
00000170: dc80 1bbd 972f 70bc 8cec 733c 35e5 09bd
00000180: bbdc a13d 6657 063d 4ac8 893c 549e f23c
00000190: a948 98bc 3573 49bd 1ca4 c13b 3fdc 123d
000001a0: 52ef 2a3d dce5 6f3d f69c 3f3d 2752 96bd
000001b0: 98ef 803d bdf4 2f3d 1d42 c13c 1ae8 5abd
000001c0: b6b1 6e3d 3d5e 323d e123 babb 34a3 453d
000001d0: 044b 903c ba80 623b 856a ebbc 6947 60bd
000001e0: 4e70 3d3d b355 23bd 37a2 7cbc 3984 153d
000001f0: 4176 19bd 6a00 72bd cc72 ec3c add2 1c3d
00000200: 85f4 953d 862a d4bb 59dc 86bd 103c 213c
00000210: aa9e fdba e0db 2e3c 7908 873c 3ee0 333d
00000220: 5f99 6e3d 409e 383b 231b 9e3c 4ce9 97bd
00000230: 6e6e 683d fdc6 36bd 6106 aebd 9ae8 9b3d
00000240: b78b a0bd 1842 703a 5c34 2fbc 17cd 4ebc
00000250: a014 023c f074 abbd b691 e63c 0936 30bc
00000260: 2621 4cbd 931f b7bc 291e 2bbc 89a7 febc
00000270: 70cf 8f3b 0144 2b3d 51bb 2f3d eed6 413d
00000280: 51ed 4abd c3c1 f63c 00a0 6abb 2815 60bd
00000290: 484d e13c d32f 18bd f864 95ba 5628 45bd
000002a0: 00c9 c73a 93c8 33bc 6130 38bc a891 88bb
000002b0: 84f4 243d 64f0 7abc 5e21 823c be65 753d
000002c0: 6437 44bd 06f9 54bd 12e5 0cbb 99b8 bb3d
000002d0: 7b99 4dbd 18cb 953d 8618 74bd bf54 623d
000002e0: c374 6b3d 5a1b 3e3d 441f 253d 468d 6d3c
000002f0: 0678 803d 4729 463d 1c94 573c c51d 98bc
00000300: c59b 853d e8b9 5bbd be15 bc3c 081e c73c
00000310: 8645 62bc f161 933d aaeb 153d b1c4 793d
00000320: 4f7a 7c3d 9dfb 22bd c422 c13c 1046 953d
00000330: 3e97 5c3c 8dab 813d c048 3ebd 7601 0cbd
00000340: 14d0 f83c 8ed1 1abd b543 99bc 264a 83bd
00000350: 07a1 bdbc 11f9 283c f8c2 293b 055e 6c3c
00000360: 16aa 723d 490b ae3c a9e6 8bbc ebfe a63d
00000370: 2aa2 183c ae34 02bd 75d9 1cbd aaaf 30bd
00000380: afa6 963d d848 e1bc 371d 813d ae85 403d
00000390: 5d4f 13bd e09b fe3c 5e07 d7bc c8e4 33bd
000003a0: a123 5fbc ae3f 233d b214 923d aadd 223d
000003b0: 6992 433b ad2a 553d 693b 843c 6093 7f3b
000003c0: d03e 773d 2e4a a8bb c909 4f3d d68b 6fb9
000003d0: b4e5 553c e867 203b c0ea 043c 3b2b adbd
000003e0: fbf3 abbc 099b a13c 6e61 33bd 87ad 72bc
000003f0: 1524 913d 95db 2ebd b6f3 36bd 43a7 55bd

model.4.bias f4 [300]
-0.033854567 0.0065580234 0.0081908535 0.0080920905 -0.0122695835 0.013762188 0.072568156 0.090569876
0.049668536 0.075534016 0.038204547 0.0669917 -0.005210952 0.05018381 0.065967046 0.08420005
0.019918809 0.015369248 0.05009459 0.030375471 -0.07053295 0.08382368 0.070899256 0.03252838
0.04676662 -0.026119303 -0.0133119775 0.03535367 0.029089576 -0.039725155 -0.044349093 0.06485187
-0.022900527 0.06851749 0.06868215 0.07185479 0.054203134 0.048747025 0.014841855 0.046681896
0.01746928 0.06837077 0.04525288 -0.059739105 -0.025701076 -0.020959299 0.08400483 -0.0077847736
0.033766337 -0.049951144 -0.0314945 0.0020605228 0.037538365 0.07525663 -0.02956139 -0.01875156
0.008153627 0.05309854 -0.06425622 -0.0038102926 -0.015608438 0.018973095 0.02255666 -0.055227447
-0.011935224 0.036692016 0.031592526 0.024569687 -0.0474555 -0.02620128 0.025544172 0.08534248
0.0075276345 0.009830545 -0.013150542 -0.041818418 0.006722976 -0.03185432 0.034995474 0.007109812
-0.032421418 0.012975903 -0.056127243 0.003984279 -0.04288492 0.04468351 0.033722777 -0.039421603
0.051175747 0.035495855 -0.0070912777 0.014059039 -0.057215407 0.012920113 0.00036450537 0.076250695
0.045357827 -0.057001118 0.08088938 0.02577426 -0.0038904857 0.010018407 0.009766473 0.07120045
-0.040758446 -0.008016324 -0.0299149 0.016266547 0.015422971 -0.015758423 -0.020080304 -0.03631384
0.012381164 0.07296786 -0.024734162 0.09644251 0.006699597 0.024285791 -0.07177167 0.0021265238
0.019629437 0.07172453 0.01342824 -0.007734262 0.052801482 0.0118994145 -0.0077119023 0.06185443
-0.04781319 -0.017204853 0.02762298 0.059910107 0.0046905386 -0.083934665 0.02462464 -0.010527877
0.012063625 -0.031691108 0.045422386 -0.013372297 -0.032246184 -0.008758225 -0.023119029 0.048750095
0.04587744 0.027025497 -0.04050995 -0.012664738 -0.0010413337 -0.061030116 0.003978968 0.0029891962
0.0472806 0.042485397 -0.055966984 -0.06389917 0.078389406 0.046201706 -0.05338511 0.07589823
0.11118227 0.037586488 -0.057072055 0.047452748 0.02505439 -0.002379519 -0.06746573 0.07245921
0.01232447 -0.004054312 0.08566177 0.0090357745 0.068467185 0.04663679 0.06446783 0.049864203
0.054439645 -0.049313303 -0.029867917 0.07537458 -0.07020923 -0.047189124 0.031016761 -0.022426398
-0.004700858 -0.010438845 0.081910625 0.07492183 0.050341483 0.070229545 -0.016394306 0.052062932
0.041917693 0.0770371 0.059242286 -0.004088325 0.06720181 -0.05383841 0.028810909 0.061414
0.03761206 -0.016769117 -0.021961996 -0.04770373 0.03660862 -0.045580853 0.050579444 0.09122368
-0.04081749 -0.0335511 -0.034846462 0.031340644 0.00016113218 0.001675874 -0.025364054 0.06995907
-0.02581134 -0.066172 -0.009412915 0.010869178 0.015404561 -0.02215864 -0.053027954 0.06684633
0.058726832 0.006298282 0.031671543 -0.020642014 0.04438703 -0.03202044 0.04325912 -0.008095287
0.028763697 -0.05999596 0.06755926 -0.038705267 0.045314208 0.029744787 0.02880114 -0.008173357
-0.072648555 -0.0064396933 0.08296012 0.030934034 0.005555681 0.032724213 -0.07403593 0.033790294
0.029572869 0.0044666533 0.071354635 -0.032872714 -0.03954013 0.021650193 -0.0033277469 -0.033934902
00000000: 16ab 0abd b0e4 d63b ee32 063c b094 043c
00000010: 5d06 49bc cd7a 613c 9d9e 943d b37c b93d
00000020: 3c71 4b3d 94b1 9a3d 5f7c 1c3d f232 893d
00000030: a2c0 aabb 8a8d 4d3d bb19 873d 1371 ac3d
00000040: c52c a33c 4ccf 7b3c fc2f 4d3d fbd5 f83c
00000050: 9473 90bd c0ab ab3d a133 913d 7b3c 053d
00000060: 5b8e 3f3d 26f8 d5bc 7b1a 5abc 03cf 103d
00000070: 434d ee3c d8b6 22bd 65a7 35bd 0fd1 843d
00000080: e399 bbbc e652 8c3d 3aa9 8c3d 9b28 933d
00000090: 1b04 5e3d f6aa 473d 402b 733c 8435 3f3d
000000a0: bc1b 8f3c f905 8c3d 155b 393d feb0 74bd
000000b0: 108b d2bc d6b2 abbc b90a ac3d 6a17 ffbb
000000c0: 924e 0a3d 9299 4cbd 6000 01bd d609 073b
000000d0: d4c1 193d 2620 9a3d ba2a f2bc df9c 99bc
000000e0: ca96 053c db7d 593d c498 83bd 1ab6 79bb
000000f0: 89ba 7fbc 776d 9b3c bfc8 b83c 2d36 62bd
00000100: f58b 43bc 5e4a 163d 2a67 013d 5e46 c93c
00000110: b360 42bd 11a4 d6bc 0342 d13c 0ac8 ae3d
00000120: 60aa f63b 4b10 213c 5f75 57bc ca49 2bbd
00000130: 694c dc3b ad79 02bd 6a57 0f3d 6df9 e83b
00000140: 52cc 04bd e298 543c aee5 65bd 8e8e 823b
00000150: 19a8 2fbd 0e06 373d e520 0a3d 8c78 21bd
00000160: a99d 513d 1a64 113d f35d e8bb e257 663c
00000170: b45a 6abd e2ae 533c 151b bf39 5329 9c3d
00000180: 21c9 393d 017a 69bd 55a9 a53d 8a24 d33c
00000190: 85f7 7ebb 3f24 243c 8f03 203c 8bd1 913d
000001a0: 54f2 26bd e656 03bc 1810 f5bc 6c41 853c
000001b0: a1b0 7c3c cf17 81bc 737f a4bc d2bd 14bd
000001c0: 5eda 4a3c 2c70 953d 4c9f cabc a783 c53d
000001d0: 4b88 db3b fff2 c63c 06fd 92bd 265d 0b3b
000001e0: eacd a03c 4fe4 923d 1f02 5c3c b16f fdbb
000001f0: 5e46 583d c3f5 423c 20b4 fcbb 125b 7d3d
00000200: c3d7 43bd 31f1 8cbc 9649 e23c 4d64 753d
00000210: 17b3 993b f0e5 abbd 9db9 c93c 1e7d 2cbc
00000220: 83a6 453c 89ce 01bd d30c 3a3d 7b17 5bbc
00000230: 9314 04bd a87e 0fbc 1e64 bdbc 2eae 473d
00000240: fce9 3b3d 9364 dd3c c3ed 25bd c37f 4fbc
00000250: 5c7d 88ba b7fa 79bd 0162 823b 64e6 433b
00000260: 4da9 413d 2b05 2e3d a33d 65bd 91dd 82bd
00000270: a08a a03d 003e 3d3d 58aa 5abd 8870 9b3d
00000280: 88b3 e33d 4af4 193d 63c4 69bd d05d 423d
00000290: dd3e cd3c b4f1 1bbb 792b 8abd 7f65 943d
000002a0: 93ec 493c 09da 84bb 706f af3d c90a 143c
000002b0: 8638 8c3d 3806 3f3d b607 843d 683e 4c3d
000002c0: 1bfc 5e3d bffc 49bd 90ad f4bc fd5d 9a3d
000002d0: dbc9 8fbd 6249 41bd dd16 fe3c 91b7 b7bc
000002e0: a809 9abb b007 2bbc c2c0 a73d 9e70 993d
000002f0: df32 4e3d 82d4 8f3d 5a4d 86bc f13f 553d
00000300: e3b1 2b3d a1c5 9d3d 0aa8 723d 5bf7 85bb
00000310: 1aa1 893d aa85 5cbd db04 ec3c 3f8d 7b3d
00000320: 1a0f 1a3d 635f 89bc a5e9 b3bc fd64 43bd
00000330: ecf2 153d fdb2 3abd 642c 4f3d 7bd3 ba3d
00000340: 3e30 27bd e16c 09bd 2abb 0ebd 0c5f 003d
00000350: 97f5 2839 00a9 db3a 47c8 cfbc b346 8f3d
00000360: 4e72 d3bc 2f85 87bd a138 1abc a314 323c
00000370: 6963 7c3c 0986 b5bc d733 59bd bbe6 883d
00000380: 8c8b 703d d261 ce3b 05ba 013d 7119 a9bc
00000390: 2dcf 353d dd27 03bd 7a30 313d 18a2 04bc
000003a0: d8a1 eb3c 53be 75bd 825c 8a3d 6a89 1ebd
000003b0: 649b 393d 57ab f33c 5ef0 eb3c 8be9 05bc
000003c0: c4c8 94bd 1004 d3bb ffe6 a93d 5f69 fd3c
000003d0: 6e0c b63b d309 063d 26a0 97bd b167 0a3d
000003e0: cd42 f23c 015d 923b 6122 923d 8aa5 06bd
000003f0: d5f4 21bd bf5b b13c 5416 5abb 53ff 0abd

model.6.weight f4 [3, 300]
0.019174919 -0.03171538 0.009958708 0.061343417 -0.020172182 -0.0013773834 0.036384657 0.050046563
-0.013878458 -0.0058082896 0.022648845 -0.037712313 2.6621527e-05 0.009523454 -0.051835835 0.062049024
0.0082556745 -0.009491921 0.007659908 -0.011707807 0.037905756 -0.057770748 0.05012993 0.054127805
0.060060948 0.026012033 0.055774476 -0.035517003 -0.029138932 -0.0012756756 0.014715642 0.013189338
0.03318675 0.055894174 -0.02968464 -0.01703176 0.017166113 0.04561569 -0.00801453 0.017370433
-0.023904208 0.049949296 -0.03106899 0.027198892 0.00090484973 -0.037461337 -0.040721286 -0.054175176
-0.0011944001 0.0038483918 -0.00982734 -0.013335693 -0.018943341 -0.0004524941 -0.031782847 -0.051768452
0.012966471 0.012288894 -0.039592996 0.04671839 -0.044795554 0.045994896 0.040639047 -0.016740197
-0.0565834 0.0062730466 0.0007787924 0.026586134 0.01917368 0.05342997 -0.062151495 -0.0360629
-0.057609625 0.046947584 0.025424518 0.060741197 -0.035162866 0.01169028 -0.05360246 -0.008093779
0.0064960867 0.017908826 0.029752286 -0.051504046 -0.0007826742 0.013426654 -0.018194996 0.022821933
-0.03838288 0.027760018 -0.012767237 -0.009990589 -0.013031049 0.026070487 0.004340866 -0.06785296
-0.04630735 0.00024188515 0.041812588 0.012772561 0.019702958 0.029090011 0.014686943 -0.020771334
-0.017758418 -0.0065851943 0.048333324 -0.053550363 -0.004411205 0.05479636 0.06223366 -0.054924
0.05336064 -0.04470652 0.018019537 -0.0071607614 0.0056576906 0.046426617 0.00065634423 -0.04851038
-0.03217375 -0.063086845 0.047792654 -0.016987894 0.01396017 0.0016267977 -0.01754409 -0.008592739
-0.005247897 0.06648801 0.053227738 0.0002835986 0.043174602 -0.010408596 0.046467908 0.05824305
0.034076266 -0.057077404 0.01039122 -0.014092916 0.0013176714 -0.04846952 0.036040287 -0.051097643
-0.01007592 0.011075167 -0.06648507 -0.02131385 -0.022137487 0.033139285 -0.027817981 0.030702205
0.028110273 -0.00023769056 0.023450924 -0.024575563 0.056492917 -0.033696253 0.017212557 -0.015471719
-0.007865401 -0.0012184766 0.045601312 0.0006427007 0.044360504 -0.014257894 0.0026829052 0.047700096
-0.02168377 -0.0032120608 0.016996266 0.006921711 0.035044704 0.004709156 0.05645696 -0.013546331
0.01429859 0.06534913 0.046982888 0.038363487 0.041882116 -0.033517458 0.026819015 -0.009867077
0.05202213 -0.0030629388 -0.047325503 -0.036906336 0.031647425 0.016031727 0.021626052 0.05249027
0.036440626 -0.023112083 0.0066509894 -0.028117828 -0.065394156 -0.06306471 -0.055373214 0.05508901
-0.028811088 0.060211964 -0.020394806 0.018030282 -0.040361207 -0.0110971825 0.06435466 -0.012602378
0.014336279 -0.030992793 -0.05144887 -0.050797496 0.0026898985 -0.05755979 0.056751695 0.043717626
0.04410799 0.018905276 -0.035049245 -0.025196755 -0.0349409 -0.010812555 -0.015547753 0.05650328
0.040572025 -0.045180593 0.015755633 -0.049007345 -0.020278422 -0.057354696 -0.028892623 -0.04414805
0.041408096 -0.011503905 0.032670494 0.022484953 -0.058714993 -0.028860759 0.024989968 -0.040456045
0.034607306 0.016536526 0.049984362 3.006707e-05 0.015849289 0.049358148 -0.00057624886 -0.019786146
0.039269514 -0.061547257 0.01772646 0.0024585826 -0.039888356 0.03495232 -0.065943144 0.025561359
00000000: b814 9d3c fce7 01bd d929 233c 3c43 7b3d
00000010: 2240 a5bc 5189 b4ba 1408 153d a0fd 4c3d
00000020: 7962 63bc 7753 bebb 128a b93c 3a78 1abd
00000030: 4b51 df37 4308 1c3c d051 54bd 1e27 7e3d
00000040: cf42 073c 0184 1bbc f7ff fa3b 1ad2 3fbc
00000050: 1143 1b3d 05a1 6cbd 0b55 4d3d 1eb5 5d3d
00000060: 7802 763d 3017 d53c c773 643d 477a 11bd
00000070: c5b4 eebc 9234 a7ba e019 713c 1818 583c
00000080: d4ee 073d 4af1 643d 342d f3bc 3186 8bbc
00000090: f39f 8c3c 85d7 3a3d 604f 03bc 704c 8e3c
000000a0: c2d2 c3bc a297 4c3d 6584 febc 36d0 de3c
000000b0: 7033 6d3a 0f71 19bd 5dcb 26bd cae6 5dbd
000000c0: 6b8d 9cba 4d35 7c3b da02 21bc f37d 5abc
000000d0: 112f 9bbc bb3c edb9 bb2e 02bd 280b 54bd
000000e0: 5271 543c 5b57 493c 442c 22bd c85b 3f3d
000000f0: 8b7b 37bd 2565 3c3d 2175 263d bd22 89bc
00000100: ffc3 67bd 218e cd3b e027 4c3a 2acb d93c
00000110: 1f12 9d3c 62d9 5a3d 9192 7ebd b1b6 13bd
00000120: 12f8 6bbd 1c4c 403d 1447 d03c c3cb 783d
00000130: f006 10bd 9788 3f3c 418e 5bbd c59b 04bc
00000140: 20dd d43b 88b5 923c 11bb f33c e8f5 52bd
00000150: 602c 4dba 78fb 5b3c ac0d 95bc 10f5 ba3c
00000160: 5e37 1dbd fa68 e33c ac2d 51bc 91af 23bc
00000170: 2e80 55bc c691 d53c d33d 8e3b 7ef6 8abd
00000180: c7ac 3dbd 8da2 7d39 ad43 2b3d 0144 513c
00000190: 1968 a13c 2d4e ee3c 81a1 703c a528 aabc
000001a0: 1a7a 91bc 9dc8 d7bb 2af9 453d a057 5bbd
000001b0: df8b 90bb 2672 603d b9e8 7e3d fdf7 60bd
000001c0: b090 5a3d 2f1e 37bd b59d 933c d2a4 eabb
000001d0: 2664 b93b d629 3e3d 840e 2c3a d2b2 46bd
000001e0: 9fc8 03bd ad33 81bd 3bc2 433d 322a 8bbc
000001f0: 32b9 643c 463a d53a a0b8 8fbc 8fc8 0cbc
00000200: 8df6 abbb de2a 883d 5405 5a3d f6af 9439
00000210: dad7 303d d188 2abc 2255 3e3d 4490 6e3d
00000220: 8e93 0b3d ffc9 69bd f03f 2a3c f9e5 66bc
00000230: b7b5 ac3a fa87 46bd fb9e 133d c34b 51bd
00000240: 7915 25bc 9e74 353c 5329 88bd 629a aebc
00000250: ad59 b5bc 0fbd 073d 89e2 e3bc 3183 fb3c
00000260: 8447 e63c 933c 79b9 271c c03c b152 c9bc
00000270: 1e65 673d 1505 0abd 5901 8d3c 187d 7dbc
00000280: e2dd 00bc 4ab5 9fba 71c8 3a3d ea7a 283a
00000290: 5cb3 353d f199 69bc aed3 2f3b 2d61 433d
000002a0: 29a2 b1bc 7081 52bb c13b 8b3c 85cf e23b
000002b0: 098b 0f3d 444f 9a3b 6a3f 673d 6ef1 5dbc
000002c0: a244 6a3c c4d5 853d 2171 403d 0823 1d3d
000002d0: 958c 2b3d 9a49 09bd 8db3 db3c 85a9 21bc
000002e0: 2815 553d 96bb 48bb 63d8 41bd 192b 17bd
000002f0: bba0 013d f854 833c 1e29 b13c 0a00 573d
00000300: c442 153d 8d55 bdbc 8bf0 d93b 5c57 e6bc
00000310: 5fed 85bd 1228 81bd 06cf 62bd 04a5 613d
00000320: 3b05 ecbc d2a0 763d 0213 a7bc 3eb4 933c
00000330: cb51 25bd f5d0 35bc 60cc 833d 347a 4ebc
00000340: b6e2 6a3c 99e4 fdbc 0dbc 52bd 0911 50bd
00000350: 0249 303b d0c3 6bbd 7774 683d 4111 333d
00000360: 94aa 343d 3ddf 9a3c cc8f 0fbd 6d69 cebc
00000370: 301e 0fbd 2527 31bc 01bc 7ebc fc6f 673d
00000380: da2e 263d 490f 39bd f511 813c edbb 48bd
00000390: ef1e a6bc c2ec 6abd 39b0 ecbc 96d4 34bd
000003a0: 899b 293d e07a 3cbc 7fd1 053d 5d32 b83c
000003b0: 227f 70bd 666d ecbc c3b7 cc3c 3db5 25bd
000003c0: 64c0 0d3d 9c77 873c 67bc 4c3d 8b38 fc37
000003d0: 5ed6 813c c52b 4a3d 680f 17ba 8e16 a2bc
000003e0: 12d9 203d fa18 7cbd 1537 913c 2c20 213b
000003f0: f961 23bd 2a2a 0f3d 330d 87bd 0e66 d13c

model.6.bias f4 [3]
-0.029431375 0.00995817 -0.011465803
00000000: 111a f1bc 9827 233c 10db 3bbc
