results/size-5000000_lossv1_bs-30/app1_lossv1_model_11_lam_1e4.pth (torch, 330103 bytes, 8 tensors)

model.0.weight f4 [100, 3]
000000 a6 fa 3b 3e 65 ca b2 be 6f 07 51 3e e5 5d 28 be
       0.18357334 -0.3492004 0.20412992 -0.16442068
000010 8d 24 52 3e 7c e2 92 3c a5 e2 de be 45 31 b4 3d
       0.20521756 0.017930262 -0.4353229 0.0879846
000020 1c 76 97 3e 94 c9 46 3e d2 d2 e0 3c c7 05 c4 be
       0.29582298 0.19412833 0.027444277 -0.38285658
000030 6d c4 4f 3d f0 bb a3 3e e5 45 72 3e b1 fb 08 bf
       0.050724436 0.31979322 0.23659475 -0.5350905
000040 e7 11 0e bf 50 f5 0a 3e 25 8e 09 bd 25 25 e8 bd
       -0.55496067 0.13570142 -0.033582825 -0.1133521
000050 96 11 20 be 89 fb e6 bd 2f f0 e9 be 22 f4 4e 3e
       -0.15631709 -0.11278445 -0.45691058 0.20210317
000060 91 e3 c1 3d 53 67 a3 be 4f 4a 6f 3e 45 60 08 3f
       0.09467233 -0.31914768 0.2336819 0.53271896
000070 fb 20 e2 3e 49 ef 83 be 28 e0 aa be 8d 13 80 3d
       0.44165787 -0.25768498 -0.33374143 0.06253729
000080 23 69 ec be e2 7b 01 bf ef 24 a7 be b2 fe 0b 3f
       -0.46173963 -0.50579655 -0.32645366 0.5468551
000090 b8 0c cf 3e 89 cb 03 bf 14 33 f0 be 48 cc a0 3d
       0.4043939 -0.51482445 -0.4691397 0.078514636
0000a0 d2 2f 7f be 3f e5 9c bd 8e 20 3d 3e b7 76 d0 be
       -0.24920586 -0.07660913 0.1846945 -0.40715572
0000b0 60 75 a3 3e a9 7b fd be ad be 07 3e 8b b0 b4 3e
       0.31925488 -0.49508408 0.13256331 0.35290942
0000c0 63 06 95 be b8 a9 c4 3e 49 75 d7 bb 47 a2 8d 3e
       -0.29106435 0.38410735 -0.006575261 0.2766287
0000d0 c3 0b 04 3e 3f 57 e7 3d 51 6a 07 3f cd c4 0b 3f
       0.12895112 0.11295938 0.528966 0.5459717
0000e0 ff 0f f0 be d9 a1 14 3e 1e fb d6 be 48 c6 6c 3e
       -0.46887204 0.14514865 -0.41988462 0.23122513
0000f0 bb df 63 be 01 54 13 bf ec 2c f2 be c9 d8 b8 be
       -0.22253315 -0.57550055 -0.47299898 -0.36102894
000100 33 ed 09 3f 7c 81 12 3f e4 8a 26 3e 91 41 cf 3e
       0.5387756 0.5722883 0.1626392 0.4047971
000110 67 55 60 3e 3d 89 10 3f 7d 4c f2 bd 30 c1 63 be
       0.21907578 0.5645941 -0.11830995 -0.22241664
000120 88 44 11 bf f2 10 29 be 42 ee d4 bd 1d 89 60 3d
       -0.56745195 -0.1651037 -0.103970066 0.05481826
000130 bb 33 0c 3f 18 9a 42 be 16 40 b5 3e d5 e6 ed 3e
       0.54766434 -0.19004095 0.35400456 0.46465173
000140 85 c9 06 3f bd 9b f2 be 6c 2d 01 3e d5 9a 0b be
       0.52651244 -0.47384444 0.12614983 -0.13633282
000150 ba a0 c0 be 01 75 d3 3e bc 27 da be bf 71 c7 3e
       -0.37622625 0.41300204 -0.4260844 0.3895397
000160 be 53 c6 3e e8 65 e3 be 21 4e 02 3f 14 f4 7c be
       0.38735765 -0.44413686 0.50900465 -0.24702483
000170 93 ef 20 bd b3 54 85 3e cb 45 fe 3e 5b e8 25 3e
       -0.039290976 0.26041183 0.49662623 0.16201918
000180 bd 16 0f 3f 74 44 05 3f af e3 c7 be 1b af a2 3e
       0.5589407 0.52057576 -0.39040896 0.3177422
000190 f5 01 c6 3e c0 f6 bc 3d c1 5b 0d be 58 bb c8 3e
       0.38673368 0.09226751 -0.13804533 0.39205432
0001a0 f6 66 cb 3d 6f 09 8a bd 4e a0 ce be 23 39 38 3e
       0.099317476 -0.067400806 -0.40356678 0.17990546
0001b0 29 fa 09 3f 2d 02 16 3f e7 4b 2b be 55 8d fa 3e
       0.5389734 0.5859707 -0.16728173 0.48935953
0001c0 4b 4d b2 bd ac b7 f2 3e 1e 55 43 3e f7 a7 8e 3d
       -0.08706149 0.47405756 0.19075438 0.069656305
0001d0 34 19 e5 bd 30 dd 28 be 68 32 89 be 95 90 10 be
       -0.11186448 -0.16490626 -0.2679627 -0.14117654
0001e0 d8 5e 62 bc 8f 52 e5 be a6 ed da bd e0 f8 9b 3e
       -0.013816558 -0.4478955 -0.10689859 0.30463314
0001f0 d5 87 14 bd ac 39 89 be e5 cd 6f be 49 6a 29 3d
       -0.036262352 -0.26801813 -0.23418386 0.041361127
000200 4d ac 65 be 42 74 91 3c a5 7d bf 3e 12 ed bd 38
       -0.22429009 0.017755631 0.37400547 9.05638e-05
000210 83 48 f2 be 35 17 12 bf 02 b7 37 3d ef 60 af 3d
       -0.47320947 -0.5706666 0.044852264 0.085634105
000220 a1 ad 81 be e4 32 0d be c7 97 d8 3e 0d 1c cf 3e
       -0.2532778 -0.13788944 0.42303297 0.4045109
000230 4c 25 bb 3e 77 9c 0a bf 4f 92 e7 3e 18 f4 46 3e
       0.36551893 -0.54144996 0.45228812 0.19429052
000240 7b af 0a bf 32 37 bb be 0b 8c 94 be ee b0 8b be
       -0.5417401 -0.36565548 -0.29013094 -0.27283424
000250 66 c6 04 bf da d0 a3 3d 70 e0 70 be 55 98 82 3e
       -0.5186523 0.0799882 -0.23523116 0.25506845
000260 f7 c0 f1 3c 18 f4 c8 3e 92 78 a0 bd f4 d1 ca be
       0.029510958 0.3924873 -0.07835497 -0.39613307
000270 7e 1d 96 3e 0c 30 42 3e ff 69 aa be d3 d4 c6 bd
       0.29319376 0.18963641 -0.33283994 -0.09708562
000280 09 84 7f 3e 22 75 df be a1 90 96 3e f2 44 81 be
       0.24952711 -0.43644053 0.29407218 -0.25247914
000290 fb c9 15 3f 20 66 01 3f db 60 f2 be f7 64 ad be
       0.5851132 0.50546455 -0.4733952 -0.33866093
0002a0 73 4b 42 bd d7 67 03 bf a7 f8 3d 3e d6 be e1 be
       -0.047435235 -0.5133032 0.18551885 -0.4409091
0002b0 db 76 00 3e 1d eb 07 bf e7 f2 ac be 76 60 10 3f
       0.1254534 -0.5309313 -0.3377907 0.5639719
0002c0 8f 31 94 bd e7 2b 67 be 22 b4 7a be cb b1 0f be
       -0.07236015 -0.22575341 -0.24482778 -0.14032666
0002d0 47 d5 0b 3e 2d fd 83 bd d9 91 53 3e ac 29 04 3f
       0.13655578 -0.06444774 0.20661105 0.51626086
0002e0 3f 16 c9 3e 34 08 12 3f ef 80 52 3e 03 a7 14 bf
       0.39274785 0.57043767 0.20556997 -0.5806734
0002f0 e5 ca 8e be 43 bb 26 be 05 23 09 3f 2c 3c 41 3e
       -0.2788917 -0.16282372 0.5356906 0.1887061
000300 07 1f ab 3e 18 af d7 be d6 93 6f 3e 7d 56 d4 3e
       0.3342211 -0.42125773 0.23396239 0.41472235
000310 4d d0 86 be fc bd 42 be ce d0 23 be cb 81 67 3e
       -0.26330796 -0.19017786 -0.15997621 0.22608106
000320 0e f2 74 3e 4b 7f d9 bd e9 9b d1 3e 5a 8f 94 be
       0.23920462 -0.10619982 0.40939263 -0.2901562
000330 8c 77 b4 3e 3f 34 a1 3e 67 0e 87 3e 6c 3e c9 be
       0.35247457 0.31485173 0.26378176 -0.39305437
000340 60 b5 0d bf 8c be 6d be 8c 98 f6 be 2a af 8b be
       -0.5535488 -0.23217219 -0.4816326 -0.27282077
000350 e9 1f b8 3e 18 13 f2 be d6 1c bc 3e 53 24 1d bf
       0.35961846 -0.47280192 0.3674075 -0.6138355
000360 f0 cb 88 3e 51 af 29 be 51 61 c3 be 54 99 0b bd
       0.26718092 -0.16570784 -0.38160184 -0.034081772
000370 7d 99 01 bf c5 1a 0b bf 1a c2 f7 3e 16 dd af be
       -0.5062483 -0.5433772 0.48390275 -0.34348363
000380 54 78 8d 3c 93 7d 65 3e 44 7f 82 bd 16 1d f1 be
       0.017269291 0.22411184 -0.0637193 -0.47092503
000390 1b 08 b7 3d 88 fc e0 3e 36 62 f9 bd 24 71 ab 3d
       0.08937093 0.43942666 -0.121769354 0.08371189
0003a0 3c 80 1a 3e 64 11 b2 be 22 0e 51 3e 01 31 a8 3e
       0.1508798 -0.34778893 0.20415547 0.32849887
0003b0 4b 67 0a bd f3 1e 02 3f 07 17 c8 be 3e 03 1d be
       -0.033789914 0.50828475 -0.39080068 -0.15333268
0003c0 89 9a f7 be d0 d5 ec be bf af ea be 77 08 f2 3e
       -0.48360088 -0.46256876 -0.4583721 0.47272083
0003d0 33 7e 1c 3d 04 09 62 be 96 e4 32 3e 47 56 98 3e
       0.03820629 -0.22073752 0.17470011 0.29753324
0003e0 12 8b fc be e3 e2 07 3f 88 99 83 bd 4f de e8 3e
       -0.49324852 0.53080577 -0.06425768 0.45482108
0003f0 9d 70 0d 3f e7 0e da 3e e7 24 94 3e 73 d6 dd be
       0.5524996 0.42589495 0.28934404 -0.43327674

model.0.bias f4 [100]
000000 a0 fa b9 be e3 34 eb 3d 98 37 cb bd 85 82 26 3e
       -0.36324024 0.11484697 -0.09922713 0.16260727
000010 93 e1 09 be 1f 36 bc be 0a d8 b0 be a0 ff 3d be
       -0.13464956 -0.3676004 -0.34539825 -0.18554544
000020 f1 74 a1 3e ef b9 43 3e e2 cb 4e 3e 4f 32 3a be
       0.31534532 0.19113897 0.20194963 -0.18183254
000030 25 24 f5 be ef 86 46 3e be 25 db be 36 46 68 3d
       -0.4787914 0.1938741 -0.42802233 0.056707583
000040 1c 47 5f bd 19 ec f0 be 48 0d c4 3e 01 6d e6 be
       -0.054511175 -0.47055128 0.38291383 -0.45005038
000050 43 31 f4 be ec cb 27 3e c0 88 0b 3e 9b 43 f7 3d
       -0.47693834 0.16386384 0.13626385 0.120734416
000060 20 9e a8 be 2c 00 12 be 22 f4 0c 3f d8 5c 2a be
       -0.3293314 -0.14257878 0.5506002 -0.1663698
000070 8d 1b d6 3e c1 f4 f1 3e de 5d da 3e 8c 4f 15 be
       0.41817895 0.47257045 0.4264974 -0.14581126
000080 e4 fb 49 3e 9d f5 a5 3e d1 dc be 3d a6 5f 17 be
       0.19724995 0.3241395 0.09319461 -0.1478258
000090 c7 0a b0 be 97 4a 90 be 3c 90 b2 3e 4b 4d ed be
       -0.34383222 -0.28181908 0.34875667 -0.46348032
0000a0 63 8b a1 be a9 51 99 3e 53 ac 0b 3e 1a d1 99 3e
       -0.31551656 0.29945114 0.13639955 0.30042344
0000b0 2e 51 02 bf 55 71 f3 be 63 89 18 be 7a 0a 03 bd
       -0.5090512 -0.47547403 -0.14896159 -0.031992413
0000c0 59 bf 30 3e d7 8c 05 3e ad 77 0c 3d da 85 e6 be
       0.17260493 0.13042007 0.03429382 -0.45023996
0000d0 64 a1 61 3e 07 17 ac 3e 33 8e 18 bd 0d ed 03 bd
       0.22034222 0.33611318 -0.037244987 -0.03220849
0000e0 25 2e cf be c8 d8 b4 be c8 bc 3b 3e 8e f0 f5 be
       -0.40464893 -0.3532164 0.18333733 -0.4803509
0000f0 7e 70 f5 bd 53 51 25 3e d8 4b 0c be bb d3 f7 3d
       -0.11984347 0.16144304 -0.13700807 0.12100931
000100 4a a7 f4 3e 53 2c ee 3d 32 65 3a be cc d0 fc be
       0.4778388 0.11629548 -0.18202665 -0.4937805
000110 a0 04 07 3e b3 58 88 be 46 cf ed 3e d0 52 9c be
       0.13185358 -0.26630172 0.464472 -0.3053193
000120 9b c6 21 be 2e 34 1e bd 46 c3 e5 3e 5c 47 d4 3e
       -0.15798418 -0.03862398 0.44875544 0.41460693
000130 cf 15 c9 be 74 2a d3 3e cd 71 6c be 0f 3c 00 bf
       -0.3927445 0.41243327 -0.23090287 -0.5009164
000140 21 1c 37 3e cf 19 b8 3e 6e 0c ee 3e 26 59 fd 3c
       0.17881824 0.3595719 0.46493858 0.030926298
000150 2d ff 41 be 09 52 07 3f 32 43 08 3d e6 06 c6 3e
       -0.18944998 0.5285955 0.033267207 0.38677138
000160 a4 20 8a be 03 13 7f bd ee bc 35 bd 31 30 5a 3e
       -0.26978028 -0.06227399 -0.04436963 0.21307446
000170 87 2c 68 3e 2a 15 6b 3e 6c 2c b9 3e db 00 70 be
       0.22673236 0.22957292 0.36166704 -0.23437826
000180 f7 35 88 3d d1 a8 8d bd 66 72 79 3d 97 8b ea be
       0.06650918 -0.06916965 0.060900114 -0.45809624

model.2.weight f4 [200, 100]
000000 99 f2 68 bd 5c a1 8e bd f0 1b bd 3d 4b 85 5c bd
       -0.056871984 -0.069643706 0.09233844 -0.053838056
000010 7c 2a e7 3c 2c e2 99 3d 9d 1a a9 bd 17 d5 06 bd
       0.0282185 0.07513842 -0.08257029 -0.032918062
000020 85 1c 66 bd ec b9 9a bd a0 f3 bc bc 21 d5 cb 3d
       -0.056179542 -0.07554993 -0.023065388 0.099527605
000030 fb 1a 4d bc 28 42 19 bd 4d 18 28 bd 95 3e 11 bd
       -0.01251864 -0.037416607 -0.0410388 -0.035460074
000040 e9 a3 e0 3d 6e 54 3a bd b7 1c ca bc 5d 62 88 3d
       0.109687634 -0.045490675 -0.024671895 0.06659386
000050 a0 9f 37 bc 3a 51 60 3d 6a e0 f2 3b 28 c5 a3 bc
       -0.011207491 0.054764964 0.007412006 -0.019991472
000060 f8 82 dc 3d 5a df dc bc 04 22 1d bd cc ba 92 bd
       0.10767168 -0.026961971 -0.038362518 -0.07164535
000070 6d bb ad bc b0 48 a8 3c d5 a5 27 3d 14 46 b1 bd
       -0.021207536 0.020542473 0.040929634 -0.086559445
000080 26 4f 02 3b f8 f5 8c bd e0 58 79 bd b6 99 95 bd
       0.0019883602 -0.06882852 -0.060875773 -0.07304709
000090 f4 89 cd bc da 9c 8d 3d f9 48 8f bd 8b 66 a8 3d
       -0.025090195 0.06914683 -0.0699634 0.082226835
0000a0 7d 2d ce 3c 08 e3 89 3d 4e 61 0c bc a6 46 b8 3d
       0.025168175 0.06732756 -0.008568121 0.0899785
0000b0 d6 66 47 bd 68 c1 d1 bd 7f b8 50 3d 17 88 86 3c
       -0.048682056 -0.102419674 0.0509572 0.016422315
0000c0 e2 75 3f 3d 3a 4b b4 3d 9a 38 43 3c 7b dd 98 bd
       0.04674328 0.08803411 0.01191535 -0.07464119
0000d0 6a 5b 41 bd 61 06 44 bc 31 66 c2 3d 27 11 8e 3c
       -0.04720632 -0.0119644115 0.09492148 0.017342163
0000e0 5a 0c cd 3d b0 bf b3 bc 3d f9 07 3d d2 29 97 3d
       0.100121215 -0.02194199 0.033196677 0.073810235
0000f0 24 90 03 bd ad 44 0b bc dc d4 22 bd 76 12 c2 3d
       -0.032119885 -0.00850026 -0.03975378 0.094761774
000100 2e df b2 3d 3b 08 ed bc 17 a6 1c 3b 70 a4 02 3e
       0.087339744 -0.028934589 0.0023902708 0.1275804
000110 bd b7 e4 bc ee e7 45 bc eb c0 0a 3d 20 49 93 3d
       -0.027919644 -0.012079222 0.033875387 0.07191682
000120 c7 11 87 bd 8a b5 c6 bc b1 35 34 3d 2d c2 5b 3d
       -0.06595188 -0.024256486 0.043996517 0.053651977
000130 4d 9d a6 bb e5 9a 16 bd 14 b9 2d bd 2e 67 70 bc
       -0.0050846697 -0.036768813 -0.042412832 -0.014673037
000140 62 96 7b 3d a7 91 94 bd 40 b4 a9 bc fa e0 b4 3d
       0.061422713 -0.072543435 -0.020715833 0.088319734
000150 48 b3 e2 bc 5e a0 83 3d fc b0 7e bc f1 f5 28 3d
       -0.027673379 0.06427072 -0.015545126 0.041250173
000160 57 3c 11 bd da d3 a8 3d e2 2b 10 38 09 99 2a 3d
       -0.035457935 0.082435325 3.4373144e-05 0.041649852
000170 df 6c 37 3d f6 76 ad bc 29 28 09 3d bd a2 68 bc
       0.044781562 -0.021174889 0.033485565 -0.014198956
000180 5e d6 c3 3d b6 2a d4 bc df 47 b9 3d 15 d7 4d bd
       0.09562372 -0.025899272 0.090469114 -0.050253946
000190 46 a0 4c bc 71 aa f4 bc da 9a a4 3d 85 14 c7 3c
       -0.012489384 -0.029866429 0.08037348 0.024301777
0001a0 98 93 7c 3d 17 09 dc bd 39 82 dd 3d 54 2e a6 3d
       0.061664194 -0.10743921 0.108158536 0.08114305
0001b0 f4 ba 43 bd b3 4f ce 3d d3 57 ca 3d 61 ba 62 bd
       -0.047785714 0.10073795 0.098800324 -0.055353526
0001c0 10 4e bf bd 05 2d a8 3d f2 ab 87 bd 07 a1 4a 3d
       -0.09341061 0.08211712 -0.06624593 0.049469974
0001d0 8f bd 2a bd 62 47 07 3d dd 77 11 3d a7 1a 65 bd
       -0.041684683 0.03302706 0.0355147 -0.05593362
0001e0 5c e0 a8 bd ec 0a 50 bd 7e 80 a4 3d e6 26 6f 3d
       -0.08245918 -0.050791666 0.080323204 0.058386706
0001f0 55 e2 4b 3a 50 6c 05 bd 68 8e e3 3d 7a 05 ae bd
       0.00077775616 -0.032573998 0.11111146 -0.08497138
000200 05 2d d6 3d eb d7 46 3c 5c 47 cf 3d 1f 2c d4 3d
       0.104578055 0.01213644 0.101210326 0.10359978
000210 dc 13 19 3d 8f 1b b6 bc de c4 39 3c b0 4b 64 bd
       0.037372455 -0.022229938 0.011338441 -0.055736244
000220 71 c1 6b 3d d9 43 a2 3d 0a 9c ab bd ee 80 8e bc
       0.057557527 0.07923097 -0.083793715 -0.017395463
000230 53 21 b6 bd 2e 4d 3f 3d 57 0e bb 3d c6 38 fa bc
       -0.08893075 0.046704464 0.091335945 -0.03054465
000240 6c d8 89 bd 14 23 1f bd d3 c9 9f bc d4 0c 22 bd
       -0.06730732 -0.038851812 -0.019505417 -0.039563015
000250 7e 25 13 bd ef b6 9b 3d 30 a2 8a 3d f5 3f d3 3d
       -0.035924427 0.07603251 0.06769216 0.10314933
000260 89 f3 92 3d 47 2d bf 3d 3b 74 b7 3d 4b f0 68 bd
       0.07175357 0.09334808 0.08957716 -0.056869786
000270 ca 69 73 bd 7a 4f 77 bc 11 26 27 3d f6 0c 4b 3c
       -0.05942706 -0.015094632 0.040807787 0.012393227
000280 ea 4d 55 3d 7e 92 4a 3d 2c 51 8f bd 9f 31 9f 3b
       0.052076258 0.049456112 -0.06997904 0.00485821
000290 64 8d 08 bd 94 e6 d4 3d be 38 b6 3c 80 96 2f 3d
       -0.033337966 0.10395542 0.022243854 0.042868137
0002a0 a4 24 b5 3d ba f6 0c bc 6e ae dd bb fd c6 41 3d
       0.08844879 -0.008603746 -0.0067651784 0.04730891
0002b0 ea ae 8f 3d d7 76 87 bc a7 72 f5 3c 2f 38 a9 bd
       0.07015784 -0.01653616 0.029961897 -0.08262669
0002c0 31 31 50 bc d6 bf d6 3c 89 00 e6 3c f0 b7 be 3c
       -0.012707041 0.026214521 0.028076427 0.023281068
0002d0 09 23 a3 bd 1e 10 55 3d db 2f 2c 3d 3e 0c cb 3d
       -0.07965667 0.052017324 0.042037826 0.099144444
0002e0 eb 43 1f bc 4c c2 9b 3d 63 6e a7 3d 2c f8 85 3d
       -0.009720783 0.076054186 0.081753515 0.06541476
0002f0 5d 45 b0 3d e6 8d c3 3d ef 17 e3 bc 3b c0 a4 3d
       0.0860698 0.09548549 -0.027721373 0.080444776
000300 49 d5 09 bd 78 4f fb bd 76 b7 5f 3b 5e 9c 6f bd
       -0.03365067 -0.12271017 0.003413645 -0.058498733
000310 6e ab 06 3b 40 01 aa 3d ea fa 8c 3d ce 5d 98 ba
       0.0020548957 0.0830102 0.068837956 -0.0011624636
000320 25 11 c9 3d 27 61 0d 3c ad f5 40 bd 53 d4 97 bc
       0.09817723 0.00862912 -0.047109295 -0.018533861
000330 e3 df 3c bd 57 90 20 bd ad d3 a5 3c 38 d4 a2 3d
       -0.046111953 -0.039200153 0.020242536 0.07950634
000340 8d b0 31 3d cd c0 67 bb e3 ec 66 bd af b9 ac 3d
       0.043381263 -0.003536272 -0.056378257 0.08433854
000350 ba 92 2a bd 40 01 5b bd 37 85 8c bd 4d b2 a2 bc
       -0.041643836 -0.05346799 -0.06861346 -0.019860411
000360 b3 43 1d 3c 77 f4 0f 3d 67 bf 42 bc c3 71 21 bd
       0.00959866 0.03514525 -0.011886454 -0.039415132
000370 27 ee 96 bc fa 3f 27 3d 67 18 82 bb 2a aa 9f 3d
       -0.018424107 0.040832497 -0.003970194 0.07796128
000380 c3 35 72 3d a0 38 80 bd 2d 97 a3 bd 00 38 e4 bc
       0.059133302 -0.062608 -0.07987819 -0.027858734
000390 00 5c 16 ba 53 1a c5 bd 17 b5 96 3d 0a b7 70 bd
       -0.0005735755 -0.096241616 0.07358759 -0.05876831
0003a0 85 21 c4 bd b0 c2 a4 3d d3 61 76 bd 13 e0 58 3d
       -0.09576706 0.08044946 -0.060151886 0.05294807
0003b0 1a e8 e8 bc 1a f1 96 bc 80 cd e1 bb b3 00 5b bd
       -0.028430987 -0.018425513 -0.0068909526 -0.053467464
0003c0 67 ce 3b 3c b0 09 2e bd 17 05 0d 3d da ec 33 3d
       0.011462784 -0.042489707 0.034428682 0.04392705
0003d0 f3 90 0c bd a0 52 c7 3d 3d c9 c0 3d e7 7e 57 3d
       -0.03431792 0.09732556 0.09413383 0.052611258
0003e0 fa 14 19 bd 23 59 3e bd 67 a6 d2 b8 0d 1d 66 bd
       -0.03737352 -0.046471726 -0.00010044575 -0.05618005
0003f0 62 9a b5 bd 17 84 0e 3d c7 03 91 3c cd 94 2b 3c
       -0.08867337 0.03479394 0.017701996 0.010472489

model.2.bias f4 [200]
000000 dc 96 92 3c 72 dd 40 3d e7 04 e2 bc 07 38 7e bc
       0.017894201 0.047086187 -0.027590228 -0.015516288
000010 fb 39 81 bd 4b bf 30 3d bb a9 d6 3d 97 59 9a 3d
       -0.06309887 0.04315118 0.10481592 0.07536619
000020 4a 5b 0f bd 8e 28 ac 3d f8 89 a4 3d 88 66 6d bd
       -0.03499917 0.08406173 0.08034128 -0.05795911
000030 e2 4b 8e 3d 96 dd a9 3d 96 d8 9f bd e7 a1 ad bd
       0.06948067 0.08294217 -0.07804982 -0.08478146
000040 d5 81 37 3d 93 ce b1 bb 9b 26 09 3b 18 65 90 3d
       0.04480155 -0.005426237 0.0020927552 0.07050532
000050 e5 bd a2 bd 7d d6 b9 3d 40 28 e1 3d a2 cb 2f 3c
       -0.07946376 0.090741135 0.10994005 0.010729702
000060 67 4e a3 bd e5 db 17 bd ab 78 3e 3c 65 12 74 3d
       -0.079739384 -0.037074942 0.011625449 0.059587855
000070 60 12 95 bd 9b 5f 0d 3d a3 55 5c 3b 55 9f f5 3d
       -0.072788954 0.034515005 0.003362038 0.11993281
000080 9f a0 b7 3d c8 df 3b bd d1 15 d9 3d 91 55 d5 3d
       0.08966183 -0.04586771 0.10599864 0.10416711
000090 87 62 cc bc ee bf 85 bd 37 08 a6 bd ab af 8f 3c
       -0.024949325 -0.06530748 -0.081070356 0.01753982
0000a0 8a f3 91 bd f0 5a e2 3c b2 2d 4e bd 3e 25 59 bd
       -0.071265295 0.027631253 -0.050336547 -0.053014033
0000b0 5c ba 6a bd bc 1d 70 3d 57 01 1b 3c 9c 53 99 3d
       -0.057306632 0.058622107 0.009460769 0.0748665
0000c0 de 0e 46 3d ee 1c 34 bd a5 1a 23 bd 99 f6 a4 bd
       0.048354022 -0.043972902 -0.039820332 -0.08054847
0000d0 d0 2e 5b 3d 69 84 34 bd 72 c8 bc bc fa 94 0d bd
       0.05351144 -0.04407159 -0.023044799 -0.034565903
0000e0 73 5f ae 3d d6 32 0f bd 73 5b b5 3d ee 85 98 bd
       0.08514299 -0.03496059 0.08855333 -0.0744742
0000f0 e2 25 d8 bd 9a e5 12 3d 9b ff 94 bd d8 d6 f2 3d
       -0.105541006 0.035863496 -0.072753154 0.118573844
000100 56 8b 68 3d 18 9d c7 3d 3a 13 b1 3c 59 05 50 bc
       0.056773506 0.0974676 0.021615613 -0.0126965875
000110 be f1 70 3d b1 57 48 3d cb f9 7c bd fa 60 58 3d
       0.058824293 0.048911754 -0.06176166 0.05282686
000120 31 fe 69 3c 69 9e 87 3d 47 e7 c0 bd 36 c3 b6 bd
       0.014281795 0.06622011 -0.09419113 -0.08923952
000130 96 5f 2b bd f3 34 6c 3d 49 80 aa 3d 51 f3 24 bd
       -0.041839205 0.057667684 0.0832525 -0.040271107
000140 cb 1f 82 bd 12 36 cb 3d 10 01 7e 3c 0d a8 86 bb
       -0.0635372 0.099224225 0.015503183 -0.0041093887
000150 74 b4 cb 3d db 35 18 bd b8 40 41 bb e5 46 42 bd
       0.09946528 -0.037160736 -0.0029488038 -0.04743089
000160 00 10 33 bc 1d 55 cf 3c 44 0b ac 3c 26 0e 6d 3d
       -0.010929108 0.02530914 0.021001466 0.05787482
000170 9d 98 85 bd d5 f4 aa bd 9d 3c f2 3c 86 d2 62 3d
       -0.06523249 -0.08347479 0.029569918 0.055376552
000180 ad 9f 5b bd 5b 23 ad 3c 28 a1 99 3d 6f eb 38 bd
       -0.053619076 0.021135023 0.07501441 -0.045146402
000190 ed ae a6 bd ad 4a cc 3d cb c5 73 bd 1c 2f 1c 3c
       -0.08138833 0.09975181 -0.059514802 0.009532716
0001a0 6e f4 d5 bb 95 3b 24 bd cb a8 d7 3d 71 1a ba 3d
       -0.0065293824 -0.040095884 0.105302416 0.090870745
0001b0 3c a0 b8 3d e0 c7 8c bd 08 5b 49 bd b7 05 10 3d
       0.09014937 -0.06874061 -0.04915908 0.0351617
0001c0 d3 0f f0 bc 32 a1 a5 3c f6 2b e5 bc f7 f4 3b bc
       -0.02930442 0.020218465 -0.027975064 -0.011471978
0001d0 8d c3 c8 bd d8 77 78 bd 8b 0f c0 bd 4c 8f c4 3b
       -0.09802923 -0.060661167 -0.093779646 0.0059985276
0001e0 3e 1f 8b bd 2b 13 29 bd 4e 51 69 3d 51 10 2c bd
       -0.06793068 -0.041278046 0.056962304 -0.042007748
0001f0 d2 81 0b bd 7f 17 b2 bc cd ba 21 bd a2 90 92 3d
       -0.034059353 -0.02173972 -0.039484788 0.07156493
000200 2a de bc bd fa dd 8c 3c 91 49 4b 3d 76 6f ae 3d
       -0.09222062 0.01719569 0.049630705 0.08517353
000210 1e e2 d2 3d 0c 59 39 3d 77 1f 0b bc 80 39 e1 bc
       0.10297035 0.045250937 -0.0084913885 -0.027493238
000220 72 e2 93 3d 02 24 ce bc b3 b0 45 bc b2 d5 5c bd
       0.072209254 -0.025163654 -0.012066054 -0.053914733
000230 ff 0e c5 bd ea dd a3 bd 3b 38 cd bd b3 b6 0a bd
       -0.09622001 -0.08001311 -0.10020491 -0.03386564
000240 5f 22 ee 3c 43 68 a7 3d 17 18 92 3d d0 30 4e 3d
       0.029069124 0.08174183 0.07133501 0.05033952
000250 fc c0 d6 3b 0e 5a 11 3e ac 38 5a 3c 23 68 91 3d
       0.0065537672 0.1419451 0.013319176 0.07099941
000260 56 af 08 3c 85 ab ca 3d cf fb 45 bc ae 86 66 bd
       0.008342585 0.09895996 -0.012083962 -0.056280784
000270 f5 ae ae bd 4e ae a1 3d 01 61 60 bc ce 5e 38 3d
       -0.08529464 0.07894574 -0.0136950025 0.045012288
000280 11 36 81 3d 02 c4 43 3d ea f4 7a 3d cb 99 ab bd
       0.063091405 0.04779435 0.061268725 -0.08378943
000290 00 13 5d bd 10 d9 a8 3d 5d 14 bd bd bf 8a 7a 3d
       -0.053973198 0.082445264 -0.092323996 0.061167475
0002a0 ed 0e 3c bd 92 8f 8d bd 4d a2 98 3b 6b f0 a0 bd
       -0.04591267 -0.069121495 0.0046580196 -0.07858356
0002b0 50 d5 2d 3d 6e 27 1b bc a3 83 52 3b da 88 28 bd
       0.04243976 -0.00946985 0.0032121919 -0.041146137
0002c0 4c f7 3b bc 14 01 cd 3c 8b 29 49 3d 74 15 95 bd
       -0.011472534 0.025024928 0.049111884 -0.072794825
0002d0 eb fc ae bd ad 0c a5 3d c2 1e d8 bc 8e 7d 58 3d
       -0.08544334 0.08059058 -0.026381854 0.052854113
0002e0 09 6a 0d bd de a3 af 3d 5e 27 c5 bb 00 4b 1f 3d
       -0.03452495 0.08576177 -0.006016656 0.038889885
0002f0 31 8c e5 3c 90 70 5a 3c 1d fa b3 3d 95 7a b4 bd
       0.02802095 0.013332501 0.0878794 -0.08812443
000300 15 e6 97 bb fc 75 49 3c 7d 58 15 3d c3 b3 70 3d
       -0.004635582 0.012296196 0.036461342 0.058765184
000310 8e db b4 bd 4f 0a 06 3e 1a ad 80 bd 48 3f 76 3d
       -0.08830939 0.1308987 -0.062830165 0.060118943

model.4.weight f4 [300, 200]
000000 43 03 3a 3d 9a 07 82 3d 1d e0 30 bc 31 81 14 bd
       0.045413267 0.06349106 -0.01079562 -0.03625602
000010 6b 7e 8b bd f4 c6 50 bc 3d b4 95 bc be fd 77 3a
       -0.06811222 -0.012742747 -0.01827442 0.0009460113
000020 6f 93 6e bc ac 1d 25 3d 7e c3 7f bc 1e 5f 87 3d
       -0.014561518 0.0403115 -0.015610574 0.06609939
000030 25 56 37 3d 10 c4 64 3d ce 1d a0 3c 27 eb 16 bd
       0.04475989 0.055851042 0.019545462 -0.036845353
000040 40 c1 a2 3d f8 81 1f 3d 8a 9f 28 3d 33 e6 37 3d
       0.07947016 0.038942307 0.041167773 0.04489727
000050 a9 03 64 3d 05 90 78 bd 6e 7c 69 3d 1b c1 21 bd
       0.055667553 -0.060684223 0.05700343 -0.0394908
000060 6f 62 69 bd f3 8c 3b bd f9 82 62 3d 5e 3c 99 3d
       -0.05697864 -0.045788717 0.055300687 0.07482217
000070 07 03 d4 bc d2 16 2b bd 35 dd 3d bd 7d fb 74 3d
       -0.02588035 -0.04176981 -0.046353538 0.05981015
000080 5d 7b 09 bd d3 3b 38 3d a5 54 46 bc 7a 4e 89 bc
       -0.033564914 0.044978928 -0.012105142 -0.016761053
000090 48 a6 75 3d 46 db 7b bc a6 11 69 bd 90 23 17 3d
       0.05997303 -0.015372103 -0.056901596 0.03689915
0000a0 35 6c 96 bc 37 da c6 3c 8b bf 72 3b af b1 3c bd
       -0.018362144 0.024273975 0.0037040438 -0.04606789
0000b0 fe 8d ca 3b 3a 3e 4d bb dc c3 68 bd f7 dc 58 bd
       0.0061814776 -0.0031317607 -0.05682741 -0.052945103
0000c0 ca 3e 47 bd 81 70 8e 3d 57 36 78 bb e0 62 5e bc
       -0.048643865 0.06955052 -0.0037874186 -0.013573378
0000d0 6b 71 62 3d 14 74 bc 3c 2a 20 a9 3c be 83 32 bd
       0.055283945 0.02300457 0.02064522 -0.04358267
0000e0 1e 92 12 3d 5e 3c a1 3d 08 a4 21 bd 85 6e 34 3d
       0.03578388 0.07872842 -0.039463073 0.044050712
0000f0 ac 7d 8b bd 11 5b 96 bd 16 21 0c bd 10 d4 65 3d
       -0.068110794 -0.07341588 -0.03421124 0.05611044
000100 44 af 10 bd 74 7f c2 b7 2d 62 67 bd 3d b9 0c bd
       -0.035323396 -2.3185952e-05 -0.056490112 -0.034356344
000110 9e 29 84 3c ee 1e 05 3d 6f 47 46 bd cb b2 c3 3c
       0.016133126 0.0325002 -0.048407968 0.023888966
000120 a8 3c 59 bd 86 34 04 3d 7f e4 4e 3c f0 2d f1 3b
       -0.053036362 0.032276653 0.01262772 0.0073602125
000130 02 8d ee bc 5c d4 fe 3a f5 b6 31 3d be f7 28 bc
       -0.029119972 0.001944195 0.043387372 -0.010312973
000140 a3 7c 4d bd 25 04 f3 3c e0 38 61 3d e5 38 0b 3d
       -0.05016769 0.029665062 0.05498588 0.033989806
000150 c5 25 25 3d ed 66 c2 3c f5 51 e9 bc 60 a4 16 3c
       0.040319223 0.02373072 -0.028481463 0.0091944635
000160 7a 4f 43 3d 01 08 37 bd ca ee 6b 3c 7b 8d 57 3c
       0.047683217 -0.044685367 0.0144001935 0.01315629
000170 b4 29 8f 3d 4e 00 4a bd f5 78 4e bd 80 bd 06 3a
       0.06990376 -0.049316697 -0.050408322 0.0005139932
000180 6f df 1e bd 76 e9 61 3d f6 b7 19 bd f8 b1 35 3c
       -0.0387873 0.055154286 -0.037528954 0.011089794
000190 01 53 64 bd 58 33 d2 bc f0 8b 28 bd 51 1d 1e bb
       -0.05574322 -0.025659248 -0.04114908 -0.002412636
0001a0 fd 36 97 bc 9e b4 80 bd 73 77 f3 3c 02 2b 9b 3a
       -0.018458838 -0.0628445 0.029720044 0.0011838379
0001b0 46 e5 36 3d f9 71 08 bd f2 51 2d bd 74 cb 43 3d
       0.044652246 -0.033311818 -0.042314477 0.04780145
0001c0 96 87 54 bc 7c 5b 72 3d 87 61 13 3d ba c8 f4 3c
       -0.012971779 0.059169278 0.03598168 0.02988087
0001d0 41 9c 32 3d 8a 69 7a bc eb 03 3c bd 86 0d 62 3d
       0.043606047 -0.015283952 -0.045902174 0.05518868
0001e0 1f 22 48 3c 4e 1d 94 3d c4 3f 8f bd f9 18 06 3d
       0.012215166 0.07232152 -0.06994584 0.03273866
0001f0 95 6c 0d 3d cd c5 2f 3d 5b 4b 8c bb 65 e5 d5 bb
       0.03452738 0.042913247 -0.004281444 -0.00652759
000200 d0 ce 53 bd 30 e2 11 3c 8a d1 77 3d a7 ed 9f 3c
       -0.051710904 0.008904025 0.060502566 0.019522501
000210 61 1b 81 bd 8f c4 4a bd 43 85 9c 3d 99 8c 9d 3d
       -0.0630405 -0.04950386 0.07642605 0.076928325
000220 cd 8c 3d 3d 49 5e 9b 3c ca 64 8d bc bf d8 d8 3c
       0.046276856 0.018965857 -0.017259974 0.02647054
000230 ab 82 08 3d 8c af 48 3c 88 a8 da 3c 45 06 6b 3d
       0.03332774 0.012248885 0.02669169 0.057379026
000240 a7 8d 6e 3d 9e db 5a bd 02 ec 2c bd 00 0e 83 bd
       0.05824056 -0.0534321 -0.042217262 -0.06399155
000250 08 8c 82 3d 82 29 97 3d c7 44 2a bd b0 98 56 bc
       0.06374365 0.07380964 -0.041569497 -0.013097927
000260 cd 35 b7 bc 80 4b 00 bd b3 12 81 3d c3 8b 48 bd
       -0.022364521 -0.031322002 0.06302395 -0.048961412
000270 b5 47 a7 bc 74 a5 3c 3c 92 3c 8e 3d 5b 6a 91 3d
       -0.020419935 0.0115140565 0.069451466 0.07100364
000280 26 2b 5c bc 66 19 25 bc 6f 3f 24 3c 08 01 f0 bc
       -0.013438022 -0.010076856 0.010024889 -0.029297367
000290 93 7f 8b 3c 91 1b 44 bd 96 38 29 3d 69 a2 4a 3d
       0.017028606 -0.047877852 0.04131373 0.049471293
0002a0 31 ab 81 bc e8 ca 19 bc ee 02 8c 3d 8b 3a 90 3d
       -0.0158287 -0.0093867555 0.06836496 0.07042416
0002b0 89 49 1d bd 42 26 06 3d ee 52 1a 3d 26 0c 41 bd
       -0.038400207 0.03275133 0.037676744 -0.047130726
0002c0 03 58 7e 3d 41 73 fb 3b 26 24 c4 3c 6d 59 57 bd
       0.062095653 0.0076736514 0.023943018 -0.052575517
0002d0 4c 7f a1 bc cb 1b 7d 3d e3 08 2b 3c 20 36 c4 bc
       -0.01971402 0.061794084 0.0104391305 -0.02395159
0002e0 f9 8a 5d 3d ac 07 ba 39 3d 88 85 3d 38 3e 89 bd
       0.054087613 0.000354824 0.06520126 -0.067013204
0002f0 1c 93 4d 3d a1 2c 5b bc 9c 17 83 bd a8 d3 e4 3c
       0.050189123 -0.01337734 -0.064009875 0.027932957
000300 6c d8 4d bd 2a b5 97 bc 91 d5 16 3d af 11 ba 3b
       -0.050255224 -0.018519003 0.036824767 0.0056783776
000310 7a dc 88 bc 4f d2 23 3c 79 e8 a5 3d 9d 43 6a 3b
       -0.016706694 0.009998872 0.08100981 0.0035745867
000320 3e 6e 89 bd 9e 82 88 3c 2a d9 3f bc 58 fc 35 bd
       -0.0671048 0.016663846 -0.011709491 -0.044430107
000330 cd 71 63 bd 68 80 05 3d 09 d5 14 bb 9f 39 95 bc
       -0.05552845 0.03259316 -0.0022709987 -0.018215952
000340 83 0c 3b bd 11 bd 40 3b 53 95 e1 3c cc 0f 15 3c
       -0.04566623 0.0029409567 0.027537024 0.009098005
000350 94 d2 4a bd ab 60 c7 39 97 1b 28 3d f0 fe 03 3b
       -0.04951723 0.0003802826 0.041041937 0.0020140968
000360 c6 d1 e2 3b 30 dc 4a bc 9a 0d 3c 3c 45 c1 18 3a
       0.0069219796 -0.012381598 0.011477852 0.0005827139
000370 41 fd 8a bd 62 64 41 bd e1 0e 07 3d 51 4b fa 3c
       -0.067865856 -0.047214873 0.032973174 0.030553492
000380 e1 1e 3f bd fa 5a 05 bb 14 6c e5 bb 4e 4e 41 bd
       -0.046660308 -0.0020348416 -0.0070014093 -0.047193818
000390 d4 36 83 bd 9e 71 13 bd 50 7b 09 3d 71 c5 65 bd
       -0.06406942 -0.035997026 0.033564866 -0.056096498
0003a0 80 f4 8d bc 66 f3 bd bc f8 fa d1 3b 66 4f 2e 3d
       -0.0173285 -0.02318735 0.0064080916 0.04255619
0003b0 41 57 74 bd 84 06 58 bd 65 a1 72 3d 2d f2 c1 3c
       -0.059653524 -0.05274059 0.05923595 0.023675049
0003c0 40 f8 33 3a 0c 86 5d bd cb a2 cf 3c 63 9e 9e bc
       0.00068653 -0.054082915 0.02534618 -0.019362634
0003d0 ae 7b 90 bd c7 02 ea bc 4c 74 a7 bc fb b4 a7 3b
       -0.0705484 -0.028565777 -0.020441197 0.00511801
0003e0 59 74 34 3d 24 e6 8a 3a c3 a3 a9 3c 28 92 b0 3c
       0.04405627 0.0010597152 0.02070797 0.021554068
0003f0 fb e3 95 bc ea 53 9c bb 75 d4 c3 3a 71 28 55 bd
       -0.018297186 -0.0047707455 0.0014940636 -0.05204052

model.4.bias f4 [300]
000000 c3 1c 5d 3d ac 88 5d bd 1c 8b cc 3c 30 72 6f 3d
       0.053982507 -0.05408542 0.024968676 0.058458507
000010 17 ff 39 bd 90 f5 b1 bc c2 4d 45 bd 99 4f 95 3d
       -0.04540929 -0.021723539 -0.04816986 0.07290573
000020 c2 4a 9e bc 57 bd 78 3c 88 d9 d5 bc ab 1f c0 3b
       -0.019322757 0.015181861 -0.026104704 0.00586315
000030 76 23 2a 3d 92 a2 f0 bc 0f 75 2e bd 05 5c 16 bc
       0.041537724 -0.029374395 -0.042592105 -0.009177213
000040 21 c8 0a bd f6 5c 5c bd ff 97 09 3d 43 2e 7c bb
       -0.033882264 -0.053799592 0.03359222 -0.0038479723
000050 a4 18 64 3d 5e 12 a4 3d 4f 94 ea 3c 0b 4f 8c 3c
       0.05568756 0.08011316 0.028635172 0.017127534
000060 b3 91 2c bd 01 9f fa bb 92 d0 1a bd 7f c3 c2 39
       -0.042131137 -0.0076483493 -0.037796564 0.0003714822
000070 02 3e 54 39 f0 55 28 bd bf 05 12 3d 23 9e 90 3d
       0.00020240995 -0.04109758 0.03565001 0.07061412
000080 04 08 d1 3a 20 c3 1e bd 55 77 71 3d 29 2b 63 bd
       0.0015947823 -0.038760304 0.058951695 -0.055461083
000090 90 f2 7a bc 4d 92 81 3d 90 56 67 bd ba 25 0f bd
       -0.0153166205 0.06326733 -0.056479037 -0.03494809
0000a0 5c 8f 01 3d 86 d3 79 3b bb dc 9f b9 42 ca a0 bc
       0.03163086 0.0038120463 -0.000304913 -0.019627694
0000b0 5b b2 1e bd ec 0f f5 bb 73 a9 c5 3c b9 60 9e bd
       -0.03874431 -0.0074787047 0.024128651 -0.07733292
0000c0 82 48 00 bd 18 05 39 3d db 14 77 bd 1c 5c 50 bc
       -0.03131915 0.045170873 -0.060322624 -0.012717273
0000d0 fc 85 bb bc 4b ba ff 3c 84 f5 75 bd 30 1a 01 3d
       -0.022891037 0.031216761 -0.060048595 0.031519115
0000e0 a0 dd 30 bd 78 cc e2 bc 64 74 31 3d 0c 1b ae bc
       -0.043180108 -0.027685389 0.04332389 -0.021253131
0000f0 17 d4 75 3c fc b5 0a bd 10 dc 2e bd 66 de 7a 3d
       0.015004179 -0.03386496 -0.042690337 0.061247252
000100 a5 ff 83 bc ac 1e 89 3d ca 66 4b bd 85 d9 9c 3d
       -0.016113112 0.06695303 -0.049658574 0.07658676
000110 ea a1 73 3d de 91 35 3d 6a bf 28 3d 15 bb 4e 3d
       0.059480585 0.044328563 0.04119817 0.050471384
000120 89 de 82 bd 2c 52 88 bc d8 1c 3b 3c 81 83 9d 3d
       -0.063901015 -0.016640745 0.011420451 0.07691098
000130 a6 59 19 bd c6 d0 5b 3d fe 45 4e 3d 61 bc 83 3d
       -0.03743901 0.0536659 0.05035972 0.06432415
000140 d3 9f 93 bc 20 c0 85 bd f5 22 82 3d 33 52 8e bd
       -0.018020546 -0.065307856 0.06354324 -0.06949272
000150 80 a1 4d 3d 4a c0 fc 3b 87 a1 8b 3c 2e fe a6 3c
       0.050202847 0.0077133523 0.017044796 0.020384874
000160 7e 0c 61 3d 50 45 ee 3c c9 44 9c 3c 37 4b 8f bc
       0.054943554 0.029085785 0.019075768 -0.01749192
000170 07 09 41 3d 0e ac 32 bd d2 bb 88 38 3f 00 1b bd
       0.04712775 -0.043621115 6.5199696e-05 -0.03784203
000180 11 8c d7 3c 88 e5 36 bc 87 80 40 bd fe 3f 98 bd
       0.026311906 -0.011163123 -0.046997573 -0.074340805
000190 db d0 41 bc fe e4 78 bd 28 8a fe 3c 61 23 2a bd
       -0.01182958 -0.06076526 0.031071737 -0.041537646
0001a0 c3 0e 75 bd 91 ab 41 3d 7a 1c bb bc e0 db 8f 3d
       -0.05982853 0.04728276 -0.022840727 0.0702436
0001b0 92 dd 64 3d 7e 82 53 bc 49 64 e0 bc fd 0d c7 3c
       0.05587537 -0.01290953 -0.02739157 0.024298662
0001c0 d2 22 4a bd 17 64 83 bd 22 8b 5f 3d 6f 58 35 bd
       -0.049349613 -0.06415575 0.054576047 -0.04427379
0001d0 31 ea e3 bc 70 1c a6 3d f9 83 2b bd 66 eb 8b 3d
       -0.027821632 0.08110893 -0.041873906 0.06832008
0001e0 f1 94 1d 3d c4 75 97 bd 67 c1 3d 3d 66 2e 26 bd
       0.03847212 -0.07395509 0.04632702 -0.040571593
0001f0 f3 d5 95 3c cc dd 51 3d 72 df f1 bc dd 68 25 3c
       0.018290495 0.051236913 -0.029525492 0.010095802
000200 1f 08 7a ba c6 5c 17 bd 69 72 79 3c b4 67 05 3b
       -0.00095379533 -0.03695371 0.015225031 0.0020356001
000210 cf 7d ea 3b fa 4d 31 bc b6 34 15 bd 33 7b 0d 3b
       0.007156111 -0.010821814 -0.036427222 0.0021588325
000220 0a 53 f6 3c ca ab 6d 3c 2d 17 53 3d ce 76 8e 3d
       0.030068893 0.01450629 0.051535774 0.06956254
000230 2e 11 7e bd a3 5d 9a bc c6 c9 c4 3d 1c 29 c4 3c
       -0.062028103 -0.018843478 0.09608798 0.023945384
000240 3d 75 01 3b 4a 98 5b bd 52 88 4b 3d 86 7b 26 bd
       0.0019753717 -0.05361203 0.049690552 -0.040645145
000250 e2 37 85 3d c9 4e 60 3c fa cd 30 bd 10 8a 4b 3d
       0.065047994 0.013690659 -0.043165185 0.049692214
000260 30 05 69 bc 6f 9e 0d bd 36 e4 89 3d 8b 2f 2f bd
       -0.014222428 -0.034574922 0.06732981 -0.04276995
000270 78 de d4 bc b3 4a 31 3d a5 0c 8d 3d b3 f6 8d 3d
       -0.025984988 0.04328413 0.068871774 0.0693182
000280 14 1f 4e bd 59 15 73 bd 0d 80 42 3d ec 6c 7a bd
       -0.050322607 -0.05934653 0.0474854 -0.061139032
000290 65 9c 80 3d 36 93 44 3d 7a 62 28 3d 9f 5b b0 3c
       0.0627983 0.047991954 0.04110954 0.021528063
0002a0 f0 7e 0e bd 58 f8 af bc c3 82 f8 bc 4e f6 3a 3d
       -0.034789026 -0.021480724 -0.03033579 0.04564505
0002b0 77 ef 02 bc ba 52 35 3c 2b a7 0d 3d 2d e3 91 3d
       -0.007991663 0.011067087 0.034583252 0.071234085
0002c0 0a be a4 3c 4d d2 1e bd 6e 3a 13 3d 9c 77 19 3c
       0.020110149 -0.038774777 0.035944395 0.009366896
0002d0 5c b7 87 3d a1 5e 85 3d 67 d6 96 bc ff 7e f9 bc
       0.0662677 0.0651219 -0.018412782 -0.030456064
0002e0 15 f2 06 bd b8 80 4e 3d b8 31 41 3d 07 ed 76 bc
       -0.03294571 0.050415725 0.047166556 -0.01507116
0002f0 c2 00 a6 bc 14 fe dc bc 66 c1 ff bc c6 89 79 3d
       -0.020264033 -0.026976623 -0.03122015 0.060922407
000300 34 f4 88 3d 22 dd e8 3b 44 aa 4c bd c4 bb e0 3c
       0.06687203 0.007106439 -0.049967065 0.027433284
000310 a2 22 0c 3c d8 37 78 bc 50 27 8e bd a0 55 2b bd
       0.008553179 -0.015150033 -0.06941092 -0.041829705
000320 b8 0b 80 bd 79 07 92 3d a0 32 76 3c 3a 19 22 3c
       -0.06252235 0.071303315 0.015026718 0.00989371
000330 18 a9 87 3d 3a 88 12 bd c5 cf 93 3c 37 27 f7 bb
       0.06624049 -0.035774447 0.018043408 -0.0075425166
000340 72 6b 2e bc bf 33 4c 3d fb 7b 62 3d 8b 42 ec bc
       -0.010645734 0.049854036 0.05529402 -0.028840324
000350 83 9a 6d 3d 6d 2b 17 bd 91 eb fe 3c e2 00 de bc
       0.058008682 -0.03690665 0.031118186 -0.02710003
000360 f7 38 67 bd 1f 60 22 bd 9a 14 e3 3b 0a c8 97 bc
       -0.05645081 -0.03964245 0.006929946 -0.018528003
000370 6a 96 28 bd b3 05 1c 3d 33 ad 4d bd 45 df 30 bd
       -0.04115907 0.038091373 -0.050214004 -0.043181676
000380 5b ae 72 3d 4c 61 86 bc 28 1f de 3c 6b 67 93 3c
       0.05924831 -0.016403817 0.027114466 0.01799365
000390 e4 de 91 bb 10 63 39 3c d7 14 c5 bc 82 52 12 bd
       -0.0044516195 0.011315122 -0.024057789 -0.035723217
0003a0 0e 88 92 3c c1 e6 76 bd 6c 2e 19 3d 8c 02 96 bd
       0.017887142 -0.060278658 0.037397787 -0.073247045
0003b0 b7 fc 5f 3d 56 bf 1c 3b 59 0c 58 bd 6d 3c c3 3c
       0.054684367 0.0023917756 -0.05274615 0.023832524
0003c0 d5 5b 59 3d be e2 84 bd b4 05 ab 3d 83 c9 4b bd
       0.053066093 -0.0648856 0.08350697 -0.049752723
0003d0 6e 01 5a 3d bb a8 3f 3d 78 d9 b4 3c ec d9 ba 3c
       0.05322402 0.046791773 0.022076353 0.022808991
0003e0 80 91 88 bc 49 2b 9b bc f3 cc 44 bc 35 b6 94 3d
       -0.016670942 -0.018941538 -0.012011754 0.07261316
0003f0 0a b9 1b bd a4 d6 d2 3b 8a 9e cf 3c 45 17 2a 3b
       -0.038018264 0.0064342786 0.025344152 0.002595381

model.6.weight f4 [3, 300]
000000 b9 ab 23 bd cb 67 1a bd e4 b4 5f 3d b0 cd 69 bb
       -0.03995869 -0.03769664 0.05461587 -0.0035675578
000010 b5 59 f1 3c d6 2c d5 bc 86 3d 11 bd 4e 8c 0e 3c
       0.029461721 -0.026022356 -0.035459064 0.008700443
000020 92 d6 f4 3c ad 0a 57 3d 41 89 98 bc 98 ca 5b 3d
       0.029887471 0.052500416 -0.018620135 0.053660005
000030 b2 15 4b bd c1 85 2e 3d 81 fb 55 bb d5 44 83 3d
       -0.049581237 0.042608026 -0.0032651129 0.06409613
000040 7f 00 58 3d e4 8a 96 bc f6 04 71 3d 3c b2 93 3b
       0.052734848 -0.018376775 0.05884262 0.004507331
000050 de ba 0f bd a4 21 2e 3d 9c 88 00 3d 42 20 35 3c
       -0.03509032 0.04251255 0.03138028 0.011055054
000060 a1 a2 96 bd dc fb 16 bd c2 e0 e2 3b d7 d5 b8 3b
       -0.07355238 -0.036861286 0.006923766 0.005640726
000070 3b e7 f8 3c 97 12 5e bc c4 12 67 bd 63 4b f5 3b
       0.030383697 -0.013554237 -0.05641438 0.0074857934
000080 26 24 81 bc 02 ad 3d 3d 46 a5 35 3d 80 70 95 bd
       -0.015764307 0.04630757 0.04434707 -0.07296848
000090 c8 8f 63 bd ad 2b dd bc 78 79 d2 bc db d5 6f bd
       -0.055557042 -0.026998365 -0.025692686 -0.058553558
0000a0 d8 17 3b 3d a6 17 e4 3c 2e e9 03 bd 05 e1 ea 3c
       0.045677036 0.027843308 -0.0322048 0.02867175
0000b0 56 64 3e 3d 01 52 56 bc db b9 21 bd 6a 65 18 3d
       0.046482407 -0.013081075 -0.039483886 0.03720609
0000c0 b9 a5 0b 3d 93 a1 8a 3c 36 f2 fb 3c 93 5a 0d bd
       0.034093592 0.016922748 0.030755144 -0.034510206
0000d0 57 13 17 bd 5f dc b4 bb 26 42 3f 3b 36 2f 57 3c
       -0.03688368 -0.0055194343 0.0029183715 0.013133815
0000e0 90 77 a1 bc ac 69 5f bc 9c 93 1d bd 02 88 ec bb
       -0.019710332 -0.013636034 -0.03847085 -0.007218362
0000f0 61 e9 96 3a ff e1 55 3c 5c 29 f2 3b f7 a9 92 bd
       0.0011513644 0.01305437 0.0073901843 -0.071613245
000100 4c 6c 1b bd 8f 98 18 bd ad d3 69 b7 2b 57 82 3d
       -0.037945077 -0.037254866 -1.3937167e-05 0.06364282
000110 15 89 18 3d 12 ce 78 bd 54 d9 bb 3a d8 f4 1a 3d
       0.037240107 -0.0607434 0.0014331737 0.037831157
000120 84 c9 2b 3d fa 38 22 3d f1 98 86 bc 6a d6 66 3c
       0.041940227 0.03960512 -0.01643035 0.014089206
000130 23 38 57 bd d1 28 40 bd ea 26 1c 3c 37 3f af 3c
       -0.05254377 -0.046913926 0.009530762 0.021392448
000140 5b 5b d3 bc 6c 2e cd 3c ba a2 2a bd 9a 63 a1 bc
       -0.025800398 0.02504655 -0.041659094 -0.019700814
000150 8c 7d 12 3d 0c d6 18 bd c0 fe 0a 3d 19 96 2e 3d
       0.035764262 -0.037313506 0.033934355 0.042623613
000160 a2 ed 3a 3d 50 20 1f 3d 89 b6 88 bb 52 93 1a 3d
       0.04563678 0.038849175 -0.0041721505 0.03773815
000170 37 a6 14 3c b5 40 1d bd e7 03 87 3d a9 ba 19 bd
       0.009072832 -0.038391788 0.06592541 -0.03753153
000180 55 dc 0d 3d 3b b4 17 bd 57 94 e6 3c 01 e2 de 39
       0.034633953 -0.037037116 0.028146906 0.00042511526
000190 b3 e5 63 bd 6f fe 55 3d ec ea 00 bd 96 c4 3c 3c
       -0.05563898 0.0522446 -0.03147404 0.011521479
0001a0 5a c7 39 bd 6d 18 5d bd 79 1f 40 bd b7 9c 92 3c
       -0.045356132 -0.053978372 -0.046905015 0.017896993
0001b0 19 21 71 3c f2 8a b1 bc f6 50 fc bc c3 9e c8 3c
       0.014717364 -0.0216727 -0.030800324 0.024489766
0001c0 62 4a 92 3c c0 9f ef 3c 72 0f ae 3c 76 9c 24 3d
       0.017857734 0.02925098 0.0212476 0.040188275
0001d0 25 51 22 38 7a 76 fe bc 20 15 4e ba c5 57 79 bc
       3.869938e-05 -0.031062353 -0.0007861424 -0.01521868
0001e0 01 e5 0b 3c b0 b5 01 3d 3f a5 82 bb 21 1f a8 3c
       0.0085384855 0.03166741 -0.003986984 0.020522656
0001f0 52 bb 03 bd d4 c1 ca 3c 68 01 82 bd b2 8f 05 3d
       -0.032161064 0.024750628 -0.063479245 0.03260774
000200 fb 5b 55 bd 66 9c e1 bc 71 19 2d ba 6b 66 00 bd
       -0.052089673 -0.027540397 -0.00066032173 -0.031347673
000210 c8 b7 cc 3c 0f 1f 70 3c a4 c9 c0 3c 56 62 45 3d
       0.024989977 0.014655842 0.02353365 0.048189484
000220 ca 6c 36 3c 10 e6 2b 3b ae 05 38 3c 68 28 44 bd
       0.011134336 0.0026229657 0.011231823 -0.047890097
000230 50 7b 5f 3d 15 36 23 3d 86 f9 ba 3c bd 86 4f 3d
       0.05456096 0.0398465 0.02282406 0.050665606
000240 01 06 41 3d 6e da 52 3d 9e a2 5a bd 58 3d c6 bb
       0.047124866 0.051477842 -0.05337774 -0.006049793
000250 83 08 0a bd 6f c9 45 3d 48 31 09 3d 43 6c f0 3c
       -0.033699524 0.048287805 0.033494264 0.029348498
000260 d6 f8 f3 3c 89 0e 1b bd a3 19 dd bc 87 5d a6 3c
       0.02978174 -0.03785566 -0.026989764 0.02030827
000270 cf 5f 4e bc d1 f7 c1 3c 2c 44 75 bd c6 36 54 3c
       -0.012596085 0.023677738 -0.059879467 0.012952512
000280 54 11 3d 3d a0 cf 10 3d 74 68 59 3d ab 07 c9 3c
       0.046159104 0.035354257 0.05307813 0.02453979
000290 6a a4 9e 3c 6b ec 81 bd 3b 8a 9b bc 07 b8 8e bc
       0.019365508 -0.06343921 -0.018986812 -0.017421735
0002a0 8b bf 31 3d 8b 35 8d bd 65 cd 62 bd 51 3b 13 3d
       0.04339556 -0.06894978 -0.05537166 0.03594524
0002b0 a9 9b 19 3d 18 9a a4 3c aa ea 4f 3d bb 8e 73 3d
       0.037501965 0.020093009 0.050760902 0.05946229
0002c0 f5 2d a7 bc 71 b4 c7 3c 52 67 06 3d c8 b1 39 3c
       -0.020407656 0.024378033 0.032813378 0.01133389
0002d0 b0 91 59 bd 6d ba 22 bd 14 04 82 3d 3d 06 4f 3d
       -0.053117454 -0.03972857 0.06348434 0.05054306
0002e0 9d f1 38 bd 94 00 23 3d 86 e8 ce 3c bc b0 79 3d
       -0.045152295 0.039795473 0.02525736 0.060959563
0002f0 fe 92 87 ba ae 2b 4d 3d fb 44 40 3d 6e 99 92 3c
       -0.001034349 0.050090484 0.046940785 0.017895427
000300 1d cf 60 bd 45 f7 8c 3d 2f 94 56 3d 4b 98 96 3c
       -0.05488502 0.068831004 0.052387413 0.018383166
000310 92 a6 70 bc 0d 1d 54 bd 3f cd 22 3d 86 e1 0b bd
       -0.014688151 -0.051785517 0.03974652 -0.034150623
000320 bc 3d 0b 3d db 40 f3 ba f2 99 49 bd 9f 5c 3e 3d
       0.03399442 -0.0018558757 -0.04921908 0.04647505
000330 0e 28 2f bd ad 2b 2d bd 62 ec 93 bd 5b 5f 57 3d
       -0.04276281 -0.04227798 -0.07222821 0.052581172
000340 5b d9 02 3d 1e ac 48 bd bb 9c 3e bc ed e2 14 3d
       0.031945568 -0.04899227 -0.011634047 0.036349226
000350 8d d2 4c bc 2e 65 27 3d 4e f2 78 3d b1 eb db 3c
       -0.012501371 0.040867977 0.060777955 0.026845785
000360 e2 00 53 bd bc 67 f5 bc 79 74 08 bd 86 41 3e bd
       -0.051514514 -0.029956691 -0.033314202 -0.046449207
000370 19 0e 7c 3d cf ef b7 3c c8 a0 c9 3c 6c 3b 6d bd
       0.061536882 0.022453217 0.0246128 -0.057917997
000380 15 e1 59 bd dc 90 09 3d 3b c6 2f 3d 57 d3 9c bc
       -0.05319317 0.033585414 0.042913657 -0.019143743
000390 d3 87 4c bd 28 ce c3 3c 08 4b a6 3b 8c 5e 9d bc
       -0.04993422 0.023902014 0.0050748624 -0.019210123
0003a0 a0 0d e6 3a 49 84 6e 3d 3b 89 42 3d 2d ce 9c 3c
       0.0017551668 0.058231626 0.047494154 0.019141281
0003b0 ea 78 01 bd 1d 62 7f 3d 53 0a a5 3c b5 7d 12 3d
       -0.031609453 0.062349427 0.020146525 0.035764415
0003c0 06 95 21 bd bd b4 06 bc 77 33 39 bd 51 e6 58 ba
       -0.03944876 -0.008221802 -0.045215096 -0.0008274066
0003d0 15 70 b8 bc f3 78 4c 3c 56 3e 30 3d af 91 3d 3d
       -0.022514382 0.012480008 0.0430282 0.046281513
0003e0 dc 7c 67 3d f2 4f 80 bd f2 1c 88 3c fe c2 39 bd
       0.05651556 -0.06265248 0.016615365 -0.045351975
0003f0 da a2 1a bd 53 c8 1c bc ef 41 24 bd e3 74 87 bd
       -0.037752964 -0.009569245 -0.04010194 -0.06614091

model.6.bias f4 [3]
000000 2c 4d 72 bc b6 09 d8 3a 99 f7 82 3d
       -0.014788907 0.0016482386 0.06394882
