models/basic_lossv0_model_12.pth (torch_old, 328601 bytes, 8 tensors)

model.0.weight f4 [100, 3]
-0.016680555 -0.39312235 -0.037599962 -0.011506178 -0.24613073 -0.2805561 -0.12596853 0.15779378
0.27906135 -0.41325048 -0.37534156 -0.0469837 0.011085563 0.008583913 0.05219306 0.4596952
0.45501643 0.3837248 0.14040573 -0.32154357 0.14144422 -0.52577853 0.22524017 0.21592589
-0.24532987 -0.22568922 -0.64096254 0.13425115 0.07240092 -0.19342856 0.13426393 0.027294826
-0.19549341 -0.40822735 0.242254 -0.21410662 0.4307091 0.39098728 0.5154368 -0.10821588
-0.23706616 -0.1175141 0.09413334 0.34611854 0.11967762 0.366342 -0.020172471 0.10216977
0.033923943 -0.031686664 0.1505044 -0.21249045 0.07517237 -0.12653798 0.0095369965 -0.06740305
-0.56741506 -0.2643963 0.3669952 0.12778738 0.16551362 0.16480598 -0.31631368 0.1668331
0.05159313 -0.053916268 -0.28973937 -0.33733124 -0.034916822 0.4335037 -0.15188809 -0.053908337
-0.066072434 0.4622202 -0.022976661 -0.2499863 -0.04987001 0.23129445 0.44261822 0.13117783
-0.29619408 0.44400102 -0.5034942 -0.34042847 -0.4304318 -0.19635019 -0.6006991 -0.18907563
0.48275742 -0.11150365 0.14532316 -0.12955774 -0.03237709 0.47101024 -0.3247494 0.005369042
-0.2777601 -0.123950444 -0.2708762 -0.20451885 0.23801772 -0.24364337 -0.051988382 -0.36420658
-0.16076308 -0.09684532 -0.19397898 0.21761549 -0.10884039 0.029856237 -0.6455646 0.34487045
-0.34399122 0.031503595 -0.2256709 0.25143927 -0.21984977 0.072810456 -0.023174593 -0.41126364
-0.41610223 0.012892066 0.33819446 -0.022632211 -0.04958158 -0.2493829 -0.28544226 0.046376873
0.09189525 -0.4329394 -0.39680368 0.34924725 0.19314022 0.32253993 -0.28803682 -0.22765037
-0.37769666 0.1613037 0.3877293 0.12857786 -0.37660694 0.05113921 0.20182547 -0.18334773
0.26909432 -0.047431022 0.02733209 0.39237672 0.45723876 -0.28283355 0.29677966 -0.30247936
-0.046633456 0.45503217 0.4944152 0.06703414 0.11970998 0.042524103 0.3853798 -0.3000165
0.44487137 -0.034524996 0.12258133 0.028610809 -0.11472794 0.47919136 0.5091234 0.46717596
-0.49035633 -0.18859018 0.3057138 0.05937007 -0.04007427 -0.57374823 -0.06183859 0.10779318
0.02606285 0.16503125 -0.22239055 -0.35741213 0.34158912 -0.1225137 0.20811662 0.32641503
-0.48679075 -0.13326694 -0.2818245 -0.30634972 -0.039515153 0.48453915 -0.040372107 -0.1365514
0.5211836 0.21140411 -0.39267454 0.23485224 0.4381028 -0.38419822 0.46690896 -0.4633183
0.5327849 -0.4517489 -0.36368427 -0.27145958 -0.05480092 0.19666204 -0.23765112 -0.20832172
-0.28378254 -0.20919038 -0.39751136 0.020382123 0.050960682 -0.07778508 -0.077271715 -0.12091407
-0.019265141 0.32584882 -0.17373203 0.004399596 0.10955646 -0.089021474 -0.22725977 -0.2274564
-0.26998827 0.25692824 0.29432374 -0.18629035 0.061001454 -0.011306586 -0.37559718 0.16766697
0.52021384 0.33923432 0.27517465 -0.38314462 -0.33911288 0.37578008 0.36730313 -0.090448245
0.064763814 -0.33200198 0.28092918 -0.02662216 -0.1494037 -0.04971764 -0.37072927 0.12987545
0.20732369 0.26519603 0.20218927 0.085877866 -0.34968963 0.23851167 0.41942215 -0.062271696
00000000: a9a5 88bc 5547 c9be 6b02 1abd 6984 3cbc
00000010: b209 7cbe 0da5 8fbe e5fd 00be b194 213e
00000020: 21e1 8e3e 9195 d3be c52c c0be fb71 40bd
00000030: 39a0 353c 8aa3 0c3c 64c8 553d 2b5d eb3e
00000040: eaf7 e83e 9477 c43e 85c6 0f3e 5ca1 a4be
00000050: c1d6 103e 6c99 06bf 5ca5 663e ad1b 5d3e
00000060: c137 7bbe 131b 67be 1f16 24bf 2279 093e
00000070: ef46 943d 2312 46be 7c7c 093e 6699 df3c
00000080: 6d2f 48be 2d03 d1be 6f11 783e c43e 5bbe
00000090: e785 dc3e 7c2f c83e abf3 033f 4aa0 ddbd
000000a0: 79c1 72be 3cab f0bd fbc8 c03d 7336 b13e
000000b0: 8a19 f53d 2e91 bb3e bd40 a5bc 623e d13d
000000c0: d5f3 0a3d e0c9 01bd d31d 1a3e 1997 59be
000000d0: f9f3 993d 2c93 01be 1041 1c3c 9c0a 8abd
000000e0: 1d42 11bf f45e 87be cbe6 bb3e b2da 023e
000000f0: 677c 293e e6c2 283e def3 a1be 4cd6 2a3e
00000100: 5153 533d 4ed7 5cbd b858 94be aeb6 acbe
00000110: f104 0fbd 32f4 dd3e 8d88 1bbe fdce 5cbd
00000120: fc50 87bd 20a8 ec3e 8d39 bcbc 69fc 7fbe
00000130: 7f44 4cbd 74d8 6c3e db9e e23e 7b53 063e
00000140: c0a6 97be 1a54 e33e ffe4 00bf a44c aebe
00000150: 8f61 dcbe 0610 49be 6bc7 19bf 0b9d 41be
00000160: fb2b f73e 075c e4bd 98cf 143e c9aa 04be
00000170: d79d 04bd 4128 f13e 8e45 a6be caee af3b
00000180: 9236 8ebe bbd9 fdbd 49b0 8abe 646d 51be
00000190: ebba 733e a67d 79be c5f1 54bd 4979 babe
000001a0: 149f 24be d756 c6bd 6da2 46be 98d6 5e3e
000001b0: b6e7 debd 1195 f43c b943 25bf dc92 b03e
000001c0: 9e1f b0be ea09 013d 4616 67be a6bc 803e
000001d0: 4c20 61be a61d 953d a5d8 bdbc 2691 d2be
000001e0: 5a0b d5be 3e39 533c d327 ad3e 3067 b9bc
000001f0: 0e16 4bbd 3b5e 7fbe 7d25 92be adf5 3d3d
00000200: 9433 bc3d 3caa ddbe da29 cbbe 89d0 b23e
00000210: 8dc6 453e f423 a53e 9079 93be 2e1d 69be
00000220: 7561 c1be cc2c 253e 7484 c63e eaa9 033e
00000230: a0d2 c0be 5977 513d 56ab 4e3e 82bf 3bbe
00000240: bbc6 893e 0847 42bd 8ce7 df3c 9ae5 c83e
00000250: 331b ea3e 8fcf 90be 81f3 973e 93de 9abe
00000260: b902 3fbd faf9 e83e fd23 fd3e 3249 893d
00000270: 822a f53d c12d 2e3d 8050 c53e c39b 99be
00000280: 2ec6 e33e 156a 0dbd ec0b fb3d 3761 ea3c
00000290: 7bf6 eabd 9258 f53e e955 023f b031 ef3e
000002a0: fc0f fbbe c91d 41be 8586 9c3e 082e 733d
000002b0: eb24 24bd 2ae1 12bf 764a 7dbd acc2 dc3d
000002c0: c281 d53c f4fd 283e 59ba 63be b9fe b6be
000002d0: c5e4 ae3e 76e8 fabd 861c 553e df1f a73e
000002e0: a33c f9be 2177 08be 4d4b 90be dfd9 9cbe
000002f0: a4da 21bd 8415 f83e 395d 25bd 21d4 0bbe
00000300: 4a6c 053f 527a 583e a30c c9be 1b7d 703e
00000310: 034f e03e a1b5 c4be b10e ef3e 0e38 edbe
00000320: 9764 083f a24b e7be d334 babe c0fc 8abe
00000330: ee76 60bd c661 493e d15a 73be 4a52 55be
00000340: f24b 91be 0136 56be 9c86 cbbe 69f8 a63c
00000350: 26bc 503d c94d 9fbd a240 9ebd cca1 f7bd
00000360: eed1 9dbc a8d5 a63e cfe6 31be 7c2a 903b
00000370: 235f e03d e450 b6bd c9b6 68be 55ea 68be
00000380: e73b 8abe 198c 833e 9ab1 963e e6c2 3ebe
00000390: a9dc 793d 423f 39bc 464e c0be e4b0 2b3e
000003a0: bc2c 053f 1fb0 ad3e b1e3 8c3e 882b c4be
000003b0: 34a0 adbe 3f66 c03e 280f bc3e ee3c b9bd
000003c0: e4a2 843d 2afc a9be f3d5 8f3e b716 dabc
000003d0: 49fd 18be b9a4 4bbd 3ad0 bdbe 12fe 043e
000003e0: a94c 543e c6c7 873e b40a 4f3e bce0 af3d
000003f0: 850a b3be 673c 743e 80be d63e 9b10 7fbd

model.0.bias f4 [100]
0.2276075 -0.6473848 0.09387254 0.18578416 -0.05860362 0.14417018 -0.3031538 -0.015232204
0.167703 -0.4182146 0.28126442 -0.001960158 -0.25428182 -0.3400027 -0.24420378 0.12329134
-0.54791546 0.2905998 0.30771634 -0.37630117 0.21298316 -0.3478915 0.30535984 0.41795897
-0.073858954 -0.52124697 0.12391554 0.23329021 -0.053002194 -0.3473719 -0.21079156 -0.26681793
-0.3969932 -0.07628747 -0.15637238 -0.010832518 0.27946818 -0.1982682 -0.12663683 0.10459931
-0.24870497 -0.41845414 -0.102556 -0.26368105 -0.41090992 0.47506878 0.03264302 -0.1385017
-0.47785458 -0.17116673 -0.62543386 -0.41263717 0.10863744 0.45125258 -0.47279194 0.1466212
0.18594854 -0.21727222 -0.42167512 -0.17672461 -0.48166293 0.35866 0.24963512 0.44833755
-0.072205216 0.13151065 -0.20670812 -0.3121538 0.2552955 -0.48355505 -0.14924023 0.38216844
-0.48387524 0.2833478 -0.089581765 -0.28048253 -0.027732039 0.18677223 -0.24001344 0.10307539
0.17440802 0.18688177 -0.36724284 -0.46461186 0.16820271 -0.28789812 0.18672265 -0.4945583
0.29699904 -0.5396741 -0.24023093 0.35687274 -0.0010972185 0.36653206 -0.045193676 -0.65425074
-0.4611367 -0.46494028 0.12232669 -0.02252326
00000000: f111 693e 03bb 25bf 3f40 c03d 343e 3e3e
00000010: 590a 70bd 59a1 133e fa36 9bbe 7f90 79bc
00000020: 56ba 2b3e 3920 d6be e401 903e ff75 00bb
00000030: 3a31 82be d514 aebe 8e10 7abe 2c80 fc3d
00000040: 3044 0cbf 7fc9 943e ff8c 9d3e 8caa c0be
00000050: 4218 5a3e d61e b2be 2058 9c3e b8fe d53e
00000060: 5d43 97bd 7170 05bf 6ec7 fd3d a1e3 6e3e
00000070: d418 59bd bbda b1be bed9 57be 5c9c 88be
00000080: b142 cbbe 9b3c 9cbd 1520 20be e07a 31bc
00000090: 7416 8f3e d206 4bbe 16ad 01be 2a38 d63d
000000a0: 84ac 7ebe 9f3f d6be e108 d2bd 3401 87be
000000b0: c962 d2be 373c f33e b0b4 053d 64d3 0dbe
000000c0: 5ba9 f4be 5546 2fbe 6f1c 20bf 2e45 d3be
000000d0: 4e7d de3d 940a e73e c911 f2be de23 163e
000000e0: 4b69 3e3e 9c7c 5ebe cde5 d7be 4cf7 34be
000000f0: 869c f6be 49a2 b73e 59a0 7f3e 808c e53e
00000100: 54e0 93bd baaa 063e 4bab 53be 9fd2 9fbe
00000110: 17b6 823e 8794 f7be 6ed2 18be 95ab c33e
00000120: 7fbe f7be f612 913e a576 b7bd 689b 8fbe
00000130: 4d2e e3bc 3841 3f3e 15c6 75be 3119 d33d
00000140: 0498 323e ef5d 3f3e 4107 bcbe 9be1 edbe
00000150: 553d 2c3e 6267 93be 3934 3f3e bf36 fdbe
00000160: 4210 983e 1528 0abf 19ff 75be 06b8 b63e
00000170: 8bd0 8fba 17aa bb3e 011d 39bd fa7c 27bf
00000180: 1c1a ecbe a70c eebe 6a86 fa3d b382 b8bc

model.2.weight f4 [200, 100]
-0.023325477 0.06046635 0.036708154 -0.03161127 -0.07322443 0.083980575 -0.067439966 -0.008000857
0.04335741 -0.06934008 0.069993354 -0.033038285 -0.042516187 -0.013538683 0.08973067 -0.064397946
0.11375658 -0.00275459 -0.079541475 -0.08410384 -0.029794713 -0.10616428 0.03666452 0.05843859
0.05217469 -0.12733093 0.06179155 -0.07128666 0.043558598 -0.012257249 -0.05659376 -0.006787198
-0.07531474 -0.048144042 -0.10654991 -0.0028007813 -0.030127307 -0.07872244 0.07547413 -0.07798497
-0.012418848 -0.012510676 0.023341084 -0.0070602116 -0.0408419 -0.033792604 0.023733895 0.058906946
0.073713094 0.07388864 0.0557783 -0.0910163 -0.095095865 0.03668303 -0.03608613 -0.10383679
-0.07505299 0.07615763 -0.019003702 0.082249105 0.07055776 -0.019468967 -0.037005816 -0.071010605
0.022210095 0.06121852 0.04433764 0.00589809 -0.011277237 0.07367746 -0.05290668 -0.115231134
0.012288178 -0.09246377 0.0585799 0.01677321 0.020376995 0.024483481 0.034272563 -0.008649168
-0.05191531 0.006784666 -0.018553395 -0.09919258 -0.029583175 -0.090040274 0.088733755 0.087475024
0.08501691 -0.018849896 0.07650604 0.08676053 -0.03551285 -0.072939746 0.014604001 0.09186032
-0.08911182 -0.09673746 -0.028065957 -0.057141818 -0.08637294 -0.12514953 0.10316854 -0.005639794
0.079079635 0.050769214 0.046897203 0.072404556 -0.21260685 -0.041314732 -0.04556852 -0.051360674
0.18059315 -0.027987951 0.03587467 -0.03604665 0.12034302 -0.123320736 -0.18149781 0.13641064
-0.2042105 0.011410464 0.025109315 0.05415585 0.08908875 0.06057751 -0.07542342 -0.08422659
-0.13837951 -0.1274057 0.082710415 -0.0165489 -0.12316494 -0.14228763 0.025606085 0.14267744
-0.13099392 0.051808815 -0.10350442 -0.03844095 0.051279195 0.09472515 0.031338062 0.0048039723
-0.10602138 0.085640594 -0.10787314 -0.16274445 0.08416225 -0.095408686 0.09788349 0.040471327
0.15661761 0.011277051 -0.03860104 0.14778417 0.18936934 -0.0624366 -0.054199878 -0.06935831
0.076931745 -0.06464044 -0.09112163 -0.018062035 -0.00457917 -0.06471456 0.032044727 -0.04630095
-0.18427049 -0.3794729 0.09147381 -0.09110882 -0.15056516 -0.02317129 -0.3516275 -0.09406742
-0.13526203 0.13224526 -0.055284612 -0.029570786 0.17777576 -0.14269063 0.07467286 0.06923231
0.025927102 0.12850279 -0.22499692 -0.097291954 0.13017897 0.10468716 -0.19588274 0.03540648
-0.012141763 -0.10605614 0.13247891 0.04225458 0.070647195 -0.0008442562 0.07769095 0.07772247
0.011579311 -0.035423003 -0.056156315 -0.056765623 0.019062318 -0.05641798 0.098147556 -0.038128093
-0.0370033 -0.008057833 -0.06512867 -0.040579345 -0.03581296 0.024047343 0.06443728 0.058545336
-0.081040226 0.023634886 -0.02020126 0.010539636 -0.06185726 0.08299107 0.058608055 -0.09858908
2.668053e-05 0.053388294 0.037017085 0.04762108 0.028851876 -0.090919554 -0.05256262 -0.043595303
-0.023444964 -0.05420835 0.09533197 -0.05814241 -0.050445013 0.002522145 -0.077027395 -0.02992996
-0.07436126 -0.037882224 0.0040364796 0.039622553 -0.00066028535 -0.06483549 0.034369417 -0.032717727
-0.031596493 0.07978978 0.033596743 0.007117212 0.06830764 0.06469198 0.092303745 -0.08795049
00000000: 1215 bfbc 90ab 773d 4a5b 163d d27a 01bd
00000010: b1f6 95bd 02fe ab3d f71d 8abd 0716 03bc
00000020: 8a97 313d 2c02 8ebd ad58 8f3d 2753 07bd
00000030: 7425 2ebd 5ad1 5dbc b7c4 b73d 12e3 83bd
00000040: 36f9 e83d 5a86 34bb a4e6 a2bd a23e acbd
00000050: 0b14 f4bc a86c d9bd 892d 163d 4e5d 6f3d
00000060: 21b5 553d 0a63 02be 2319 7d3d befe 91bd
00000070: 806a 323d a1d2 48bc dcce 67bd 2567 debb
00000080: 9d3e 9abd b032 45bd d736 dabd 508d 37bb
00000090: 8bcd f6bc 3b39 a1bd 2e92 9a3d 95b6 9fbd
000000a0: 6d78 4bbc 94f9 4cbc cd35 bf3c 5959 e7bb
000000b0: d649 27bd 1d6a 0abd 966d c23c 6948 713d
000000c0: e4f6 963d ed52 973d c977 643d c166 babd
000000d0: 9fc1 c2bd f240 163d 0dcf 13bd 62a8 d4bd
000000e0: 62b5 99bd 88f8 9b3d a7ad 9bbc 3872 a83d
000000f0: 9680 903d 627d 9fbc 6993 17bd 026e 91bd
00000100: f2f1 b53c 45c0 7a3d 639b 353d c444 c13b
00000110: 29c4 38bc 35e4 963d adb4 58bd 4dfe ebbd
00000120: 5b54 493c a55d bdbd 7af1 6f3d f967 893c
00000130: a8ed a63c 9591 c83c 6361 0c3d 3db5 0dbc
00000140: 26a5 54bd e751 de3b 4afd 97bc 7b25 cbbd
00000150: 6a58 f2bc 0967 b8bd 0bba b53d 1b26 b33d
00000160: 591d ae3d 196b 9abc 33af 9c3d 81af b13d
00000170: ec75 11bd 6f61 95bd 9f45 6f3c 4321 bc3d
00000180: 4280 b6bd 4a1e c6bd 94ea e5bc 8a0d 6abd
00000190: 4ce4 b0bd 3327 00be 074a d33d 05ce b8bb
000001a0: 81f4 a13d 61f3 4f3d 4817 403d d748 943d
000001b0: 9cb5 59be a339 29bd 0ea6 3abd 925f 52bd
000001c0: 69ed 383e fd46 e5bc 51f1 123d a7a5 13bd
000001d0: 6776 f63d 958f fcbd 90da 39be 3baf 0b3e
000001e0: 8f1c 51be f4f2 3a3c 0db2 cd3c 86d2 5d3d
000001f0: 2a74 b63d 2020 783d 9877 9abd fe7e acbd
00000200: 5cb3 0dbe a476 02be 1464 a93d 8f91 87bc
00000210: e63d fcbd d9b3 11be dac3 d13c 091a 123e
00000220: 4523 06be 7b35 543d 20fa d3bd 4274 1dbd
00000230: 220a 523d 42ff c13d 575c 003d a46a 9d3b
00000240: bd21 d9bd 5664 af3d 98ec dcbd 7ba6 26be
00000250: 425d ac3d a165 c3bd 2477 c83d 43c5 253d
00000260: 5e60 203e 61c3 383c 201c 1ebd bc54 173e
00000270: 09ea 413e 85bd 7fbd b100 5ebd bb0b 8ebd
00000280: 648e 9d3d 3562 84bd fa9d babd d5f6 93bc
00000290: dd0c 96bb 1189 84bd 5541 033d 11a6 3dbd
000002a0: 67b1 3cbe 464a c2be 9f56 bb3d 4397 babd
000002b0: c12d 1abe b8d1 bdbc 8508 b4be 6ba6 c0bd
000002c0: 2182 0abe 4d6b 073e 1e72 62bd 6f3e f2bc
000002d0: d90a 363e 7e1d 12be 16ee 983d abc9 8d3d
000002e0: 1365 d43c 3c96 033e 9865 66be 0141 c7bd
000002f0: a34d 053e 3966 d63d 7c95 48be 6306 113d
00000300: 3fee 46bc f633 d9bd 8da8 073e 2313 2d3d
00000310: 7aaf 903d 1351 5dba 6f1c 9f3d f52c 9f3d
00000320: 27b7 3d3c b617 11bd 2a04 66bd 1283 68bd
00000330: 9428 9c3c 8a16 67bd 9601 c93d 342c 1cbd
00000340: c690 17bd 0005 04bc 2e62 85bd 8736 26bd
00000350: 9cb0 12bd effe c43c b1f7 833d 3ccd 6f3d
00000360: 6bf8 a5bd f39d c13c 1d7d a5bc 70ae 2c3c
00000370: 0a5e 7dbd 39f7 a93d 000f 703d 12e9 c9bd
00000380: 00d0 df37 afad 5a3d 3a9f 173d 520e 433d
00000390: c55a ec3c 0834 babd e74b 57bd fd90 32bd
000003a0: a70f c0bc 9309 5ebd 683d c33d bc26 6ebd
000003b0: 6e9f 4ebd 924a 253b 8ac0 9dbd ad2f f5bc
000003c0: b74a 98bd 642a 1bbd 7244 843b 424b 223d
000003d0: 0017 2dba 78c8 84bd f2c6 0c3d 0603 06bd
000003e0: 536b 01bd d368 a33d bd9c 093d 8037 e93b
000003f0: e0e4 8b3d 3b7d 843d bf09 bd3d 631f b4bd

model.2.bias f4 [200]
-0.07609832 0.008535208 0.0084257675 0.058039784 -0.028219786 -0.08551248 0.04288647 0.022357386
-0.012256784 0.091844045 -0.07053188 -0.00090311404 0.032147843 -0.12369087 -0.10868232 0.014872529
0.07809959 0.06336484 0.07399494 0.008245709 0.076178364 -0.077341534 0.042033352 0.035651345
0.11310748 -0.1016923 0.06714319 0.0753707 -0.08201703 -0.02528886 0.21094881 -0.0018833029
0.028965767 0.027202899 0.060598455 -0.06568391 0.040510118 -0.0050033117 -0.062231015 -0.11042334
-0.07037111 -0.079283535 -0.047173403 -0.024849573 -0.00069619715 0.038532775 0.020881752 -0.11510545
-0.07438395 0.055123173 0.050327875 -0.043121237 0.02409104 -0.019819109 -0.06562853 -0.04309994
-0.057895493 0.046552103 0.011095224 -0.0032002083 0.08858478 0.017215692 0.022686617 -0.13632195
0.10183722 -0.018500077 -0.04500785 -0.007615611 0.01868019 -0.015768753 0.06273058 0.03756719
-0.06469418 -0.055970993 -0.00926939 -0.2123321 -0.10897438 0.008872385 -0.029476944 0.088759944
-0.0038225744 -0.035408065 0.024122002 -0.053522673 -0.056974147 -0.021882502 -0.09727209 0.036404375
0.0686806 -0.0040543242 0.026202818 -0.08858413 -0.008372047 0.041503053 -0.012198957 -0.07789394
-0.08927729 0.070446976 -0.14249976 0.0074944124 0.021538228 -0.12977268 0.027942257 -0.071018554
0.013583803 -0.16185898 -0.009627777 -0.0541515 -0.12825763 0.05542997 0.02274679 -0.04933769
0.06524932 -0.10685666 0.014604102 0.07232609 -0.006517499 -0.024459723 0.016733732 0.015061557
-0.08314149 0.0888061 -0.12667534 0.026803967 0.056165807 0.004437391 -0.012156073 0.049615167
-0.09890646 0.06622555 -0.0514841 -0.029307086 -0.022600813 -0.030797206 0.04729148 0.012320506
-0.06583689 -0.10369375 0.027267756 -0.059987854 -0.07153978 0.07382116 -0.021304907 -0.085199475
-0.0626311 0.034799807 -0.052329805 -0.06089045 -0.10967017 0.10311701 0.03939739 -0.086888574
-0.032894917 0.015694354 0.073458314 -0.0075786524 0.016073298 -0.062099207 0.01176356 0.024907393
0.08325277 -0.012161813 0.046111833 -0.04937422 0.015260263 0.05678272 0.008263554 0.03145062
-0.047562696 0.05066985 0.063795395 -0.12909189 0.08446443 -0.09241177 0.057350017 -0.08006124
-0.123588815 -0.04905145 0.06729538 0.071472704 -0.07069981 -0.09547461 0.16793132 -0.013061684
0.026347743 -0.035613574 -0.13033053 0.032212153 0.010267858 0.10957515 -0.0936649 0.0053965435
0.13517971 -0.039208066 -0.0035987569 -3.4751713e-06 0.04311264 -0.034039702 0.033422243 0.012064934
00000000: 70d9 9bbd 42d7 0b3c 3b0c 0a3c 20bb 6d3d
00000010: 2e2d e7bc 2b21 afbd b9a9 2f3d d626 b73c
00000020: aed0 48bc bb18 bc3d 0573 90bd f5be 6cba
00000030: 75ad 033d a451 fdbd d694 debd e8ab 733c
00000040: aef2 9f3d 6dc5 813d a98a 973d 0319 073c
00000050: 6703 9c3d 3d65 9ebd 2a2b 2c3d 2507 123d
00000060: e5a4 e73d 0d44 d0bd 5e82 893d f45b 9a3d
00000070: 8bf8 a7bd 952a cfbc f702 583e 29d9 f6ba
00000080: 9e49 ed3c 9dd8 de3c 1636 783d 4985 86bd
00000090: f0ed 253d d2f2 a3bb f3e5 7ebd a225 e2bd
000000a0: bb1e 90bd 685f a2bd e638 41bd 5591 cbbc
000000b0: 0081 36ba 8bd4 1d3d 3510 ab3c 68bc ebbd
000000c0: 9d56 98bd d6c8 613d 9a24 4e3d e59f 30bd
000000d0: 935a c53c af5b a2bc 4068 86bd 9089 30bd
000000e0: d323 6dbd 6bad 3e3d bec8 353c 96ba 51bb
000000f0: f06b b53d ec07 8d3c 49d9 b93c fb97 0bbe
00000100: 0890 d03d 798d 97bc 275a 38bd 608c f9bb
00000110: 3307 993c 792d 81bc e478 803d 0ee0 193d
00000120: 627e 84bd d741 65bd a4de 17bc 966d 59be
00000130: f62d dfbd 7b5d 113c a279 f1bc c6c7 b53d
00000140: 2884 7abb 0c08 11bd 819b c53c 973a 5bbd
00000150: b95d 69bd ef42 b3bc 9736 c7bd c11c 153d
00000160: 6aa8 8c3d 23da 84bb 4ba7 d63c 996b b5bd
00000170: e92a 09bc 1bff 293d 22de 47bc dc86 9fbd
00000180: 03d7 b6bd 8146 903d 75eb 11be b093 f53b
00000190: f070 b03c 21e3 04be 29e7 e43c 2d72 91bd
000001a0: 998e 5e3c 5cbe 25be d3bd 1dbc f7cd 5dbd
000001b0: f855 03be 890a 633d 7a57 ba3c 5116 4abd
000001c0: 6fa1 853d aad7 dabd 0b46 6f3c b31f 943d
000001d0: bf90 d5bb c25f c8bc 2e15 893c c0c4 763c
000001e0: 1646 aabd f9df b53d 2eb7 01be fe93 db3c
000001f0: 1e0e 663d 8967 913b 442a 47bc 4639 4b3d
00000200: 788f cabd 43a1 873d fee0 52bd 6a15 f0bc
00000210: 5725 b9bc 6c4a fcbc b6b4 413d f3db 493c
00000220: 7ed5 86bd 645d d4bd a160 df3c d3b5 75bd
00000230: 7383 92bd 8c2f 973d a187 aebc 107d aebd
00000240: bc44 80bd 3e8a 0e3d c757 56bd 4468 79bd
00000250: c19a e0bd 032f d33d 285f 213d a3f2 b1bd
00000260: d2bc 06bd 7291 803c 5071 963d 5856 f8bb
00000270: 26ac 833c bd5b 7ebd f2bb 403c 970a cc3c
00000280: 6e80 aa3d 5742 47bc c3df 3c3d 9f3c 4abd
00000290: 2f06 7a3c ff94 683d dc63 073c 5ed2 003d
000002a0: 1ad1 42bd 308b 4f3d 29a7 823d aa30 04be
000002b0: b0fb ac3d 6242 bdbd dae7 6a3d 26f7 a3bd
000002c0: 221c fdbd 2cea 48bd 29d2 893d 4860 923d
000002d0: 10cb 90bd 3188 c3bd 30f6 2b3e ac00 56bc
000002e0: 39d7 d73c 8adf 11bd 5e75 05be e4f0 033d
000002f0: 853a 283c f068 e03d 62d3 bfbd 7dd5 b03b
00000300: 8d6c 0a3e a398 20bd 1fd9 6bbb fd36 69b6
00000310: e196 303d 376d 0bbd c3e5 083d 00ac 453c

model.4.weight f4 [300, 200]
-0.07104528 0.027449641 0.00013951336 -0.045199584 0.014904662 -0.04584118 0.031727433 0.046362113
-0.003442045 -0.03145204 0.03297925 0.048443127 -0.035004348 -0.045331214 0.034473997 0.06551771
0.03431339 0.018184792 -0.026247527 -0.04574861 0.08217034 -0.006961638 0.035396956 0.0699245
0.0043928744 0.049782522 -0.06170892 0.039042678 -0.031876802 -0.0146331135 0.06862106 -0.059740778
-0.019880945 0.008818602 0.03769163 0.054110248 0.05423302 -0.031697918 0.020017954 0.04304698
0.027513193 -0.0054681185 0.045272935 0.039787777 0.017981453 -0.0018717393 -0.07188412 0.046680484
0.030781755 0.022524474 -0.04997152 -0.026848081 0.020291593 -0.030377658 -0.033161294 -0.036713984
0.14916563 -0.03889297 0.039057497 0.03868086 0.062142488 -0.011258107 0.020284025 0.045574058
-0.0038318194 0.082042046 0.019407993 -0.059500437 0.04135819 0.047266703 -0.039292313 -0.047299515
-0.02341438 0.08352097 -0.067612305 0.017645244 0.019120313 -0.042574033 -0.08800308 0.011392516
-0.013616767 0.03934637 0.06947087 -0.020854803 0.015563918 0.008038142 -0.053984568 0.038209036
-0.04317899 -0.052802548 -0.020511292 0.06507146 0.045655444 0.05792569 0.019952314 0.06923765
0.044583388 0.054971863 0.06042806 0.051752195 0.07593257 0.037711684 -0.030624911 0.016769769
-0.050731875 -0.037525583 -0.037084613 -0.07641683 -0.062180046 0.030908605 -0.033074602 0.090822466
0.05816124 -0.030824991 0.027889417 0.11336077 -0.010567318 -0.05658494 0.06775628 -0.0016508016
0.08837256 -0.03305696 0.06928868 -0.016705958 0.07767151 -0.04662885 0.037044592 0.04298239
0.05261289 0.017982015 0.038519897 0.043068856 -0.013633539 0.0129875 0.049703375 -0.02317385
-0.0012207155 0.06390719 -0.0031395336 -0.0577787 -0.018790701 0.13058819 -0.03296045 0.026216654
-0.075672366 0.17829487 0.04559642 0.046210397 0.052057136 -0.009790474 -1.2050486 0.0076129865
-0.0033185815 0.0131163495 0.014729609 -0.061257325 0.04403193 -0.04182664 -0.046127357 -0.040615782
-0.0042225407 -0.057895616 -0.004439135 0.00016954458 0.051981844 -0.065903805 0.052276056 0.07527098
-0.08431291 -0.010684031 -0.04495488 0.036015514 0.0043635797 0.04753586 -0.0151653215 -0.045000706
0.029589782 -0.0150023075 -0.05377317 -0.048198614 -0.011484465 -0.036368843 -0.022637838 -0.013184312
0.04826972 0.07751895 0.015470725 -0.014150653 0.016924083 -0.057277083 0.004012213 -0.021817135
0.065117426 0.041956533 -0.053943697 0.021869145 0.11102105 -0.024372611 0.09106245 -0.036020026
0.05845501 0.036551476 1.1015196e-05 -0.06113134 -0.02139708 0.001986505 0.08139667 -0.018607223
-0.012950655 0.041706905 -0.006708905 0.07169721 -0.14338987 -0.011330648 -0.03584086 0.02791198
0.017884254 0.06281624 0.033836756 0.03944039 -0.057870325 0.010186029 -0.04257459 -0.05538934
0.037021708 0.037943173 0.035245206 -0.0017939018 -0.007145495 -0.007881277 0.04988279 -0.019992085
0.046710636 0.0751399 0.013547149 -0.053779088 0.022898588 0.06428357 -0.02556264 0.06937904
0.059917293 0.0069104466 0.10255873 -0.020804157 0.034062613 -0.019275507 0.09839505 -0.066042766
-0.036013238 0.043373115 0.06568178 -0.04773661 0.050983172 -0.03672928 0.021887854 0.07902595
00000000: 3080 91bd 12de e03c 554a 1239 3323 39bd
00000010: af32 743c f6c3 3bbd a0f4 013d 33e6 3d3d
00000020: ef93 61bb dbd3 00bd 4015 073d 4d6c 463d
00000030: b860 0fbd 39ad 39bd 9b34 0d3d 262e 863d
00000040: 328c 0c3d 46f8 943c 0e05 d7bc e562 3bbd
00000050: ec48 a83d 741e e4bb 66fc 103d 9434 8f3d
00000060: 1af2 8f3b c2e8 4b3d 7ec2 7cbd 37eb 1f3d
00000070: 4091 02bd babf 6fbc 3389 8c3d bfb2 74bd
00000080: 5ddd a2bc e67b 103c 8a62 1a3d b5a2 5d3d
00000090: 7123 5e3d add5 01bd b1fc a33c 0852 303d
000000a0: 5963 e13c e72d b3bb 1d70 393d 82f8 223d
000000b0: d74d 933c 2655 f5ba fb37 93bd 0934 3f3d
000000c0: 052a fc3c 3f85 b83c f0ae 4cbd 82f0 dbbc
000000d0: 8e3a a63c 91da f8bc 23d4 07bd 6761 16bd
000000e0: e0be 183e 3c4e 1fbd c1fa 1f3d d26f 1e3d
000000f0: 1f89 7e3d ec73 38bc af2a a63c ddab 3a3d
00000100: 431f 7bbb a905 a83d 83fd 9e3c bbb6 73bd
00000110: 3567 293d bb9a 413d faf0 20bd 23bd 41bd
00000120: 84cf bfbc 0b0d ab3d 5278 8abd c28c 903c
00000130: 34a2 9c3c 1c62 2ebd f53a b4bd ada7 3a3c
00000140: dc18 5fbc a929 213d be46 8e3d b1d7 aabc
00000150: ceff 7e3c 69b2 033c ec1e 5dbd 1481 1c3d
00000160: 74dc 30bd 7c47 58bd 4c07 a8bc 3044 853d
00000170: 3401 3b3d 7d43 6d3d 0973 a33c 78cc 8d3d
00000180: 129d 363d 2d2a 613d 6a83 773d 1cfa 533d
00000190: 8982 9b3d 9177 1a3d 18e1 fabc c160 893c
000001a0: 3acc 4fbd 6db4 19bd 09e6 17bd 6d80 9cbd
000001b0: 81b0 7ebd 0b34 fd3c 3c79 07bd 2101 ba3d
000001c0: 7b3a 6e3d b184 fcbc 5978 e43c b129 e83d
000001d0: 8b22 2dbc 9cc5 67bd cec3 8a3d b65f d8ba
000001e0: acfc b43d bc66 07bd 39e7 8d3d efda 88bc
000001f0: 3e12 9f3d e5fd 3ebd 12bc 173d 4d0e 303d
00000200: 9d80 573d 054f 933c 0ac7 1d3d f868 303d
00000210: 355f 5fbc 86c9 543c c495 4b3d 16d7 bdbc
00000220: 6a00 a0ba c6e1 823d a2c0 4dbb 5ca9 6cbd
00000230: f5ee 99bc e9b8 053e 8901 07bd 4fc4 d63c
00000240: 1dfa 9abd ee92 363e 50c3 3a3d 1d47 3d3d
00000250: dd39 553d 3968 20bc 083f 9abf 5c76 f93b
00000260: 8f7c 59bb f5e5 563c 7554 713c f6e8 7abd
00000270: d35a 343d 6952 2bbd 0af0 3cbd bc5c 26bd
00000280: 3d5d 8abb f423 6dbd 2a76 91bb c7c7 3139
00000290: eaea 543d 93f8 86bd 6b1f 563d ac27 9a3d
000002a0: 3fac acbd 130c 2fbc 9c22 38bd 0185 133d
000002b0: 5cfc 8e3b f6b4 423d f877 78bc a952 38bd
000002c0: 4566 f23c 3dcc 75bc 4141 5cbd e96b 45bd
000002d0: 5629 3cbc 7ff7 14bd fd72 b9bc 0303 58bc
000002e0: 78b6 453d 41c2 9e3d ec78 7d3c 24d8 67bc
000002f0: 60a4 8a3c 609b 6abd e278 833b d9b9 b2bc
00000300: 495c 853d 9dda 2b3d 11f4 5cbd ec26 b33c
00000310: 015f e33d 12a9 c7bc f37e ba3d bc89 13bd
00000320: 856e 6f3d 00b7 153d e8cd 3837 db64 7abd
00000330: ee48 afbc 0630 023b 4cb3 a63d 2d6e 98bc
00000340: fc2e 54bc dcd4 2a3d 60d6 dbbb fdd5 923d
00000350: cbd4 12be 2fa4 39bc decd 12bd aaa7 e43c
00000360: 0082 923c cda5 803d 6998 0a3d 3f8c 213d
00000370: 6f09 6dbd 4de3 263c b162 2ebd efdf 62bd
00000380: 13a4 173d 4d6a 1b3d 475d 103d 5b21 ebba
00000390: c224 eabb 7920 01bc e551 4c3d 71c6 a3bc
000003a0: a753 3f3d f3e2 993d dcf4 5d3c 7647 5cbd
000003b0: d295 bb3c 1ba7 833d be68 d1bc 9916 8e3d
000003c0: d66b 753d 0771 e23b 500a d23d 7b6d aabc
000003d0: 3d85 0b3d abe7 9dbc 5883 c93d 6e41 87bd
000003e0: 9e82 13bd 02a8 313d 2b84 863d 7787 43bd
000003f0: bbd3 503d 7171 16bd 284e b33c 5bd8 a13d

model.4.bias f4 [300]
0.053626537 0.039474607 -0.034417175 0.044652358 0.075794585 0.10705207 -0.021679008 0.021161038
0.02854593 -0.019821014 0.051377043 0.034443475 -0.020530013 0.20611654 -0.071994595 0.07895142
-0.0403997 0.047879472 0.05535368 0.01973314 0.0025675432 0.08390942 0.05892147 0.07342098
0.060244028 0.023013923 -0.0011549214 0.10501538 -0.03372547 0.061783068 0.04697985 -0.018981688
-0.024384836 -0.022710547 -0.047542892 -0.023368336 -0.014712128 -0.052602213 -0.012108332 0.00074138574
0.027872587 0.13577977 0.010899968 0.06140425 0.07287035 -0.013333897 0.0458487 -0.14895329
0.015127287 -0.07401625 -0.07439687 0.08834951 0.11294107 -0.08032483 0.08315665 -0.049014736
0.04078312 -0.07835834 0.02860475 0.00015762397 -0.009455569 0.036081027 -0.0017769847 -0.12350282
0.06229369 -0.06773193 0.04748326 -0.04083817 0.0029697486 -0.05160969 0.064490825 0.10824766
0.003926852 0.022545313 0.0675226 0.08851396 -0.0033402657 0.049856916 0.025343172 0.07866406
0.007555513 0.009341007 -0.07380484 0.053609367 0.05836116 0.013053747 -0.04264235 0.024212502
0.045126595 0.003910511 -0.099745125 0.09154485 -0.05450048 0.0030136197 0.0028137139 0.03499047
-0.015751164 -0.07197942 0.043587618 -0.06913625 -0.050084066 0.05063886 0.08788292 0.018978471
-0.030803468 0.038882766 0.06756923 0.027831938 0.087556146 0.031355854 0.10521636 -0.04184204
-0.019919071 -0.0694649 -0.06480659 0.071031 -0.060514785 0.017791517 0.028364722 0.034853924
0.05195162 -0.094372444 -0.04611846 0.054070637 -0.08118493 -0.06533901 0.06877084 -0.064896956
0.052057784 -0.054028895 0.041566078 0.005610629 0.009770102 -0.09813397 -0.06040665 -0.059771646
0.046995226 -0.054726437 0.057396118 0.05893058 0.00045711396 0.085054904 0.047971576 0.078049615
-0.04617489 0.058755726 0.058031235 -0.086687155 0.08536612 0.017725822 0.06416144 0.096021526
-0.08104346 0.014528405 -0.04351131 0.056064006 0.0035359955 0.0017365773 -0.090077706 0.039930765
0.106909 -0.06955279 -0.046060074 -0.018729627 0.03614077 0.0006596675 -0.07439363 -0.08648629
0.08187833 -0.0038026052 0.04632779 -0.041332744 -0.0669949 -0.012922449 0.017397318 0.08702002
-0.08745574 0.013364982 0.050124902 -0.066823326 -0.0035324232 -0.02325964 0.0465704 0.038606893
0.040668573 0.0003987779 -0.09564828 0.043377087 -0.0032805004 -0.08144292 0.011122669 -0.05595709
0.036514472 -0.05918773 -0.015546239 -0.07079213 0.13070059 -0.039135255 0.044787735 0.030779574
0.054443404 -0.04128917 -0.036872298 0.019575167 -0.030553479 -0.04979539 0.054463074 0.020832134
-0.06697437 -0.029236818 0.046230294 -0.02555213 0.09318941 0.019567959 -0.025254307 -0.071963884
-0.041743 -0.037709005 -0.0011165189 -0.101884894 -0.041783728 -0.046519108 -0.017087126 0.0038548892
0.052698795 -0.06664821 0.018867088 0.07134124 0.037186578 0.094870664 0.004815067 -0.042248365
0.046760615 0.09052936 -0.022871131 0.0051721297 -0.017392969 0.06309651 0.011308819 0.039204847
0.049975757 -0.01908681 -0.0437287 -0.026565842 -0.06348287 -0.004307445 -0.06963736 -0.05124474
0.063538775 -0.031508964 -0.07692784 -0.06015341 0.005702501 -0.018177189 -0.008440821 -0.07143763
00000000: 80a7 5b3d 20b0 213d 06f9 0cbd 64e5 363d
00000010: 313a 9b3d 1e3e db3d 2d98 b1bc ea59 ad3c
00000020: 27d9 e93c ae5f a2bc bc70 523d 9a14 0d3d
00000030: 8f2e a8bc 3710 533e e771 93bd 48b1 a13d
00000040: 287a 25bd 441d 443d 8aba 623d 65a7 a13c
00000050: 3a44 283b b4d8 ab3d a457 713d bd5d 963d
00000060: 71c2 763d b287 bc3c bb60 97ba 4e12 d73d
00000070: b823 0abd 3e10 7d3d f16d 403d 7c7f 9bbc
00000080: b5c2 c7bc 780b babc 56bc 42bd f46e bfbc
00000090: 230b 71bc 6b75 57bd 0662 46bc 8e59 423a
000000a0: 0d55 e43c da09 0b3e c895 323c 0683 7b3d
000000b0: 0d3d 953d 6b76 5abc d9cb 3b3d 3687 18be
000000c0: 71d8 773c d595 97bd 635d 98bd 97f0 b43d
000000d0: a64d e73d 5881 a4bd 094e aa3d adc3 48bd
000000e0: 330c 273d 567a a0bd 8254 ea3c dd47 2539
000000f0: 88eb 1abc b3c9 133d b6e9 e8ba 0cef fcbd
00000100: ab27 7f3d 0ab7 8abd cf7d 423d ed45 27bd
00000110: 1da0 423b af64 53bd c413 843d f3b0 dd3d
00000120: d2ac 803b f3b0 b83c 4a49 8a3d cf46 b53d
00000130: 5ce8 5abb c436 4c3d 7c9c cf3c 9f1a a13d
00000140: 3d94 f73b 060b 193c fe26 97bd 7f95 5b3d
00000150: 1d0c 6f3d 62df 553c bfa9 2ebd 4c59 c63c
00000160: aad6 383d be23 803b 2c47 ccbd de7b bb3d
00000170: e53b 5fbd 2680 453b 4966 383b 2b52 0f3d
00000180: 9608 81bc f269 93bd ee88 323d 4e97 8dbd
00000190: f324 4dbd b16a 4f3d f6fb b33d bd78 9b3c
000001a0: 8e57 fcbc 8943 1f3d bd61 8a3d ceff e33c
000001b0: a350 b33d ff6e 003d ad7b d73d 8f62 2bbd
000001c0: 522d a3bc 9d43 8ebd 51b9 84bd b378 913d
000001d0: 5ade 77bd 84bf 913c 225d e83c fdc2 0e3d
000001e0: 39cb 543d 5746 c1bd b6e6 3cbd 2c79 5d3d
000001f0: 4944 a6bd 75d0 85bd bad7 8c3d b2e8 84bd
00000200: 8b3a 553d 674d 5dbd 3141 2a3d 5ed9 b73b
00000210: c712 203c 76fa c8bd f76c 77bd 1dd3 74bd
00000220: 117e 403d d428 60bd 3118 6b3d 3161 713d
00000230: cca8 ef39 4431 ae3d d87d 443d 7ad8 9f3d
00000240: e221 3dbd d8a9 703d 29b2 6d3d 0989 b1bd
00000250: 6fd4 ae3d be35 913c 1367 833d efa6 c43d
00000260: 1dfa a5bd 8c08 6e3c ea38 32bd 5fa3 653d
00000270: 29bc 673b dd9d e33a a97a b8bd 718e 233d
00000280: 1bf3 da3d b171 8ebd 7da9 3cbd e06e 99bc
00000290: 5808 143d 89ed 2c3a b05b 98bd b91f b1bd
000002a0: d3af a73d 2135 79bb 35c2 3d3d 864c 29bd
000002b0: 9f34 89bd aeb8 53bc d284 8e3c 8d37 b23d
000002c0: ff1b b3bd ccf8 5a3c c54f 4d3d abda 88bd
000002d0: 3a80 67bb 008b bebc 9bc0 3e3d 4322 1e3d
000002e0: 1794 263d 1013 d139 3fe3 c3bd 2cac 313d
000002f0: aafd 56bb 8ccb a6bd db3b 363c 4333 65bd
00000300: 3390 153d d56e 72bd a7b5 7ebc 77fb 90bd
00000310: 60d6 053e 4a4c 20bd 5873 373d 7225 fc3c
00000320: 0c00 5f3d d51e 29bd 6807 17bd 1a5c a03c
00000330: 4a4b fabc 40f6 4bbd ac14 5f3d 27a8 aa3c
00000340: dc29 89bd 0d82 efbc fa5b 3d3d b352 d1bc
00000350: 17da be3d fc4c a03c 1fe2 cebc cd61 93bd
00000360: b5fa 2abd c274 1abd 2858 92ba 07a9 d0bd
00000370: 6a25 2bbd d28a 3ebd 4dfa 8bbc 4fa2 7c3b
00000380: b1da 573d db7e 88bd 278f 9a3c 5b1b 923d
00000390: f450 183d 8d4b c23d b6c7 9d3b 9f0c 2dbd
000003a0: 0f88 3f3d 7567 b93d 3d5c bbbc f87a a93b
000003b0: b37b 8ebc be38 813d a048 393c 4395 203d
000003c0: 61b3 4c3d f15b 9cbc de1c 33bd 9ca0 d9bc
000003d0: 4f03 82bd 7825 8dbb 089e 8ebd 01e6 51bd
000003e0: 9e20 823d 8b0f 01bd 588c 9dbd 6c63 76bd
000003f0: 0cdc ba3b 54e8 94bc 5f4b 0abc e44d 92bd

model.6.weight f4 [3, 300]
0.04535461 -0.06200019 -0.0037803994 0.048796397 0.041790172 0.09202651 0.0027196405 -0.00022486887
0.00073470006 -0.032943904 0.05042169 -0.016091596 0.04573056 -0.009856022 0.0107658 -0.0013748966
0.002973485 0.0053519453 0.05725865 -0.021761782 0.018042304 0.06474167 -0.007912473 0.006617968
-0.04981717 0.028304819 -0.0016513913 0.073975824 -0.00028753362 -0.041655067 -0.075817734 0.0052252617
0.0006999343 -0.0017771163 0.01715868 -0.0030009511 0.0008398048 -0.02239621 0.03824587 0.023602571
-0.0028020695 0.04595516 0.001290891 -0.058003217 0.056701984 -0.0015549816 0.04682992 0.017802807
0.0018325335 0.008872936 -0.0025615431 -0.06423561 -0.029946044 -0.0015948451 0.050307516 -0.025258062
-0.0013428242 0.006062821 0.021347962 0.04612015 0.013548715 0.032858636 -0.00021518524 -0.01803555
-0.0014033726 0.0021032076 -0.00056911574 -0.00093742803 0.009084721 0.0022966883 0.0059576393 -0.061071526
0.0016730098 0.00068880233 0.026619045 -0.063387886 0.009623062 0.0351515 0.023839496 0.0009422989
-0.03290569 0.01927528 0.04516643 -0.048776094 -0.03173965 -0.08150322 -0.0046673543 0.00075669616
0.007515563 0.0029110552 0.001572336 -0.022324296 0.020594532 -0.008549457 -0.0021716498 0.05173421
0.010578103 -0.020137746 -0.053418275 -0.011860648 0.019715637 -0.014614781 -0.066151515 -0.006451302
0.0041764365 0.007191336 0.011145802 0.00014885297 0.08966178 0.04160925 0.048437506 0.0018015213
-0.010540517 0.03945545 0.00950034 -0.0052743033 0.0016011079 -0.00066639093 0.053470884 -0.037089966
0.0037092317 0.023907017 0.00092776323 0.057049938 0.052652698 0.021867285 -0.0040325243 0.0021855365
-0.03852322 -0.014658826 -0.004598903 0.0032372351 0.052760728 0.0042000264 0.0009021426 -0.00040718174
-0.08240651 0.0022350517 -0.066705145 0.0042192847 0.00392694 0.040842187 -0.037255432 -0.014919744
0.0021898875 0.03720573 -0.033553835 0.00505473 -0.061930463 0.006673449 0.029532647 -0.013340312
-0.0018690472 -0.029081557 -0.103572324 0.03167489 -0.0010833385 0.0071747373 0.0044350955 -0.0067221574
0.06450453 0.01715399 -0.012522663 0.0004267576 0.0028956253 -0.047277097 -0.002686648 -0.00091353356
0.018681424 -0.0031644597 -0.023808965 0.0029181452 0.0004454627 -0.07747988 0.00067875243 0.02667508
0.0030974217 -0.018771715 0.03232996 0.0007872101 0.008956465 -0.0007333764 -0.0055942237 0.047990553
-0.05400282 -0.042230923 0.0003563601 -0.015108267 0.0018759957 0.0023066464 0.005247988 -0.00027905978
0.004619248 0.047204103 0.04909523 0.031057488 -0.0029681483 0.006888044 0.057246003 0.065545745
0.018370181 -0.021544028 -0.031629197 0.00043885314 -0.00238298 -0.025257155 0.013695315 -0.060198337
-0.030802729 0.054177236 0.062186692 -0.0038859516 -0.017356265 -0.0007404861 0.0018929468 0.00012132377
0.0051767323 0.0029215466 0.0020315761 -0.00145545 0.02240532 -0.07481648 -0.040228292 -0.055448372
0.05867796 0.0015437404 -0.015244556 0.050334055 -0.008547744 -0.041981503 0.03528553 0.005830191
0.0014615419 -0.04851578 -0.025729537 0.002347269 0.00063105696 -0.00062272284 0.015049442 -0.019822596
-0.063047856 -0.041345157 -0.00035631296 0.00023362075 -0.0016560376 0.0045220056 0.0030293835 0.016248569
0.08843786 0.0032734931 -0.021555027 0.0076676705 -0.0003391775 -0.004953461 0.03787615 -0.020365
00000000: c1c5 393d e9f3 7dbd 94c0 77bb bbde 473d
00000010: 2c2c 2b3d 6578 bc3d ff3b 323b c7ca 6bb9
00000020: e398 403a 30f0 06bd f986 4e3d 86d2 83bc
00000030: f84f 3b3d 277b 21bc 0a63 303c e035 b4ba
00000040: cdde 423b 5f5f af3b 0c88 6a3d c445 b2bc
00000050: 74cd 933c 4897 843d 51a3 01bc 8adb d83b
00000060: 170d 4cbd 82df e73c 7f73 d8ba a380 973d
00000070: 1cc0 96b9 819e 2abd 5446 9bbd ac38 ab3b
00000080: cc7b 373a 21ee e8ba 5c90 8c3c 9bab 44bb
00000090: 5926 5c3a 4278 b7bc b4a7 1c3d 2e5a c13c
000000a0: eda2 37bb 7a3b 3c3d 1d33 a93a c894 6dbd
000000b0: 5740 683d 86d0 cbba bbd0 3f3d 31d7 913c
000000c0: 9f31 f03a ca5f 113c 90df 27bb f68d 83bd
000000d0: 6851 f5bc 1f0a d1ba 410f 4e3d ffe9 cebc
000000e0: b401 b0ba a1aa c63b ece1 ae3c 7be8 3c3d
000000f0: 6efb 5d3c c796 063d 59a3 61b9 4abf 93bc
00000100: 5ff1 b7ba f8d5 093b b630 15ba bbbd 75ba
00000110: 15d8 143c 0984 163b 4d38 c33b 2326 7abd
00000120: e548 db3a be90 343a 2f10 da3c 82d1 81bd
00000130: 0caa 1d3c 05fb 0f3d 0c4b c33c 9c04 773a
00000140: 1ec8 06bd 31e7 9d3c 6f00 393d 71c9 47bd
00000150: 6f01 02bd 29eb a6bd 9bf0 98bb 055d 463a
00000160: 1d45 f63b 67c7 3e3b d716 ce3a 71e1 b6bc
00000170: ddb5 a83c 0613 0cbc 3d52 0ebb 40e7 533d
00000180: c84f 2d3c eaf7 a4bc 1fcd 5abd 2a53 42bc
00000190: b082 a13c d672 6fbc 727a 87bd 7265 d3bb
000001a0: 7dda 883b 4ca5 eb3b e29c 363c 6a15 1c39
000001b0: 98a0 b73d 766e 2a3d 6866 463d 0621 ec3a
000001c0: 22b2 2cbc 0a9c 213d 50a7 1b3c 10d4 acbb
000001d0: 44dc d13a bdb0 2eba 4904 5b3d a6eb 17bd
000001e0: 9516 733b a6d8 c33c 2335 733a 32ad 693d
000001f0: 5baa 573d 0523 b33c 4423 84bb 383b 0f3b
00000200: 86ca 1dbd 932b 70bc 65b2 96bb cb27 543b
00000210: a21b 583d 60a0 893b c47d 6c3a 027b d5b9
00000220: bfc4 a8bd f279 123b b59c 88bd ed41 8a3b
00000230: 8fad 803b 234a 273d 2799 18bd f171 74bc
00000240: 3784 0f3b 0965 183d bf6f 09bd 26a2 a53b
00000250: ccaa 7dbd f3ac da3b 73ee f13c 5391 5abc
00000260: d1fa f4ba 723c eebc ba1d d4bd 88bd 013d
00000270: cffe 8dba 0f1a eb3b 4754 913b 8b45 dcbb
00000280: f31a 843d 8686 8c3c db2b 4dbc 6fbe df39
00000290: 88c4 3d3b a1a5 41bd 7912 30bb 337a 6fba
000002a0: c909 993c d362 4fbb 050b c3bc 5a3e 3f3b
000002b0: fe8c e939 c5ad 9ebd 4eee 313a b385 da3c
000002c0: 1dfe 4a3b 24c7 99bc 6c6c 043d c75c 4e3a
000002d0: 23be 123c 0f40 40ba c04f b7bb be91 443d
000002e0: 1032 5dbd 55fa 2cbd d8d5 ba39 aa88 77bc
000002f0: f8e3 f53a 1b2b 173b 50f7 ab3b c54e 92b9
00000300: 105d 973b 1759 413d 1418 493d 466c fe3c
00000310: 4485 42bb 1ab5 e13b c97a 6a3d d93c 863d
00000320: 107d 963c 1a7d b0bc 9e8d 01bd df15 e639
00000330: c52b 1cbb 18e8 cebc 5162 603c 8892 76bd
00000340: 0156 fcbc f3e8 5d3d 79b7 7e3d 73ab 7ebb
00000350: ba2e 8ebc 2e1d 42ba c11c f83a 346f fe38
00000360: 94a1 a93b 6b77 3f3b 3124 053b ccc4 beba
00000370: 5d8b b73c 6239 99bd 6cc6 24bd d51d 63bd
00000380: 4d58 703d 5557 ca3a 4dc4 79bc 152b 4e3d
00000390: d60b 0cbc ccf4 2bbd 8f87 103d 300b bf3b
000003a0: 3591 bf3a 7cb8 46bd c0c6 d2bc a4d4 193b
000003b0: 846d 253a 393e 23ba ef91 763c ff62 a2bc
000003c0: 3c1f 81bd 8a59 29bd 84cf bab9 18f8 7439
000003d0: 670f d9ba 552d 943b 9f88 463b b81b 853c
000003e0: e91e b53d 1a88 563b 2b94 b0bc 1541 fb3b
000003f0: a2d3 b1b9 a450 a2bb 0624 1b3d 80d4 a6bc

model.6.bias f4 [3]
-0.055927876 -0.003589024 0.019721143
00000000: a114 65bd d535 6bbb 3c8e a13c
