models/basic_lossv0_model_0.pth (torch_old, 328601 bytes, 8 tensors)

model.0.weight f4 [100, 3]
0	0x3eb21796	0.3478362
1	0x3ecb1eb6	0.39671868
2	0xbe33cca6	-0.17558536
3	0xbe640d33	-0.2227066
4	0xbe33eb38	-0.17570198
5	0xbebdca6f	-0.37068507
6	0xbef1ba33	-0.4721237
7	0x3ed5ac46	0.41732997
8	0x3e9bcad9	0.30428198
9	0x3edda77a	0.43291837
10	0x3ea42690	0.3206067
11	0xbeeabf28	-0.45848966
12	0x3e5f6609	0.21816267
13	0xbe428dc9	-0.18999399
14	0x3eea2629	0.4573224
15	0x3d9a24f7	0.07526582
16	0xbe63ac2c	-0.22233647
17	0xbef4b738	-0.47796035
18	0x3ed4044e	0.41409534
19	0x3e7a1c0d	0.24424763
20	0x3d34b196	0.04411467
21	0x3ef7b4de	0.48380178
22	0xbded4bc4	-0.11586717
23	0x3d8b9d58	0.0681712
24	0xbebdfc8d	-0.37106743
25	0xbe83bb47	-0.2572882
26	0xbeead9bc	-0.45869243
27	0xbf0b2016	-0.54345834
28	0x3ef72846	0.48272914
29	0xbf217215	-0.630647
30	0x3e81b101	0.25330356
31	0xbe9a4f50	-0.30138636
32	0x3ee18cbc	0.44052684
33	0x3df20624	0.118175775
34	0x3e94ccab	0.290624
35	0xbf08448e	-0.53229606
36	0x3eea6983	0.45783624
37	0xbe88448d	-0.266148
38	0x3ee78004	0.45214856
39	0x3d87e523	0.06635501
40	0xbdb3f32f	-0.08786618
41	0xbed68e55	-0.41905466
42	0x3f0660c0	0.5249138
43	0xbde57b45	-0.112051524
44	0xbe963989	-0.2934077
45	0xbeaec6a7	-0.34135935
46	0xbf0b2dc8	-0.5436673
47	0x3e5a7947	0.21335326
48	0xbef7cbd5	-0.483977
49	0x3eed427a	0.4633978
50	0x3ed244c2	0.41068083
51	0xbe58e277	-0.2118014
52	0x3ddab9e7	0.10679989
53	0x3eef6abd	0.46761122
54	0xbe08f3c7	-0.13374244
55	0xbe7b8660	-0.24562979
56	0x3f0e9e81	0.5571061
57	0x3efb9957	0.49140427
58	0x3d7358bd	0.0594108
59	0x3f11b626	0.5691856
60	0x3f09ff89	0.5390554
61	0xbe10ee37	-0.14153372
62	0x3eba3d4e	0.36374897
63	0xbeba6a19	-0.3640907
64	0xbe6f9b9a	-0.23399201
65	0xbef54e68	-0.47911382
66	0x3ecf7b46	0.40523738
67	0x3ec45733	0.38347778
68	0x3e142040	0.14465427
69	0xbf05150a	-0.5198523
70	0x3eec941d	0.4620675
71	0x3eee1b6a	0.4650529
72	0x3d56c663	0.05243529
73	0x3d0a8f8f	0.033828314
74	0x3f06833e	0.5254401
75	0x3e297b54	0.16550952
76	0x3e25922e	0.16169044
77	0xbc838b1e	-0.016057547
78	0x3eefc9ea	0.46833736
79	0x3ea8cca6	0.32968634
80	0x3e8ee405	0.2790834
81	0xbd106704	-0.035254493
82	0xbebb658f	-0.3660092
83	0x3e116e10	0.14202142
84	0xbd7136e9	-0.058890257
85	0x3de1a160	0.11017108
86	0x3ec7245b	0.38894925
87	0xbe2702ee	-0.16309711
88	0xbece7cb4	-0.40329516
89	0xbef2b314	-0.4740225
90	0x3f08153c	0.531574
91	0x3e94c2a2	0.29054743
92	0xbe7659d1	-0.240577
93	0xbdff5aad	-0.12468467
94	0x3efa9064	0.48938286
95	0x3ddc168d	0.10746489
96	0x3eb95ecf	0.36205146
97	0x3d8a7146	0.067598864
98	0x3e3dd016	0.1853641
99	0x3e54740e	0.20747396
100	0x3ef266f4	0.47344172
101	0xbeec7f7e	-0.4619102
102	0x3e9bd821	0.3043833
103	0x3dfab18e	0.12240897
104	0x3e1a1ab1	0.15049244
105	0x3f0466ab	0.5171916
106	0x3e10f2c1	0.14155103
107	0xbefafd95	-0.49021593
108	0xbe9c89c4	-0.30573857
109	0xbef953e3	-0.48696813
110	0xbf171dd4	-0.5902989
111	0x3ea6179a	0.32439882
112	0xbf01bedd	-0.5068186
113	0x3daeb6c8	0.085309565
114	0xbd99f2f1	-0.075170405
115	0xbf0154f8	-0.5052028
116	0x3f0573c8	0.52129793
117	0xbedbb677	-0.42912647
118	0xbd892e57	-0.06698292
119	0x3afa12cb	0.0019079087
120	0x3efcd6ed	0.49382725
121	0x3e9b7f04	0.30370343
122	0x3f0e4602	0.55575573
123	0xbda72e46	-0.08163123
124	0xbe9a97b7	-0.30193874
125	0xbed94be7	-0.4244072
126	0xbc8324b8	-0.01600872
127	0x3d4a58fd	0.049401272
128	0x3db44afe	0.08803366
129	0xbe29d921	-0.16586734
130	0x3e2ba8ce	0.16763613
131	0xbec033b2	-0.3753944
132	0xbec3a492	-0.38211495
133	0x3e84d98d	0.25947228
134	0x3e074e20	0.13213396
135	0x3e9b5920	0.30341434
136	0xbed8f5ed	-0.42375126
137	0xbe1c1336	-0.15241703
138	0x3e8e72ac	0.27821863
139	0xbcf143a0	-0.029451191
140	0xbeda6014	-0.42651427
141	0xbeeb39a3	-0.4594241
142	0xbf0bd352	-0.54619324
143	0x3e9e7e6e	0.30955833
144	0x3ee0fa85	0.4394113
145	0x3ec6d2f4	0.3883282
146	0xbeadb866	-0.33929747
147	0xbded9c4c	-0.11602077
148	0x3e6ec61c	0.2331776
149	0x3edb74ed	0.42862645
150	0xbee8ac99	-0.45444182
151	0xbea43cbc	-0.32077587
152	0xbe92ae3c	-0.28648555
153	0xbe84c266	-0.25929564
154	0x3e213fad	0.15746947
155	0x3e0c7912	0.1371806
156	0x3f0146ed	0.5049885
157	0xbe167a80	-0.14695168
158	0xbea50abf	-0.3223476
159	0xbd2b4b27	-0.041819718
160	0x3e6ff801	0.2343445
161	0x3e50a579	0.20375623
162	0xbdef0403	-0.11670687
163	0x3dc5e1d8	0.09662217
164	0xbf4a142c	-0.7893703
165	0xbbbc58cf	-0.0057478915
166	0xbf09f269	-0.53885514
167	0xbe782e5d	-0.24236436
168	0x3ea75399	0.32680967
169	0xbf0d7ea2	-0.5527135
170	0x3f0df8c3	0.55457705
171	0xbe19b4ec	-0.15010422
172	0xbcf918d9	-0.030407356
173	0xbefef560	-0.4979658
174	0xbe1965a4	-0.14980179
175	0x3ea462c3	0.321066
176	0x3e73ccbf	0.23808573
177	0xbf07608e	-0.52881706
178	0xbed98dfc	-0.42491138
179	0x3d97ba70	0.07408607
180	0x3ed796b5	0.42107168
181	0x3e8e933d	0.2784671
182	0xbedc99a2	-0.43085963
183	0x3d9c6015	0.07635514
184	0xbe990810	-0.29888964
185	0x3e6ac788	0.22927678
186	0xbddb6678	-0.10712904
187	0x3ea02b3c	0.31282985
188	0xbece54ed	-0.40299168
189	0xbea806d1	-0.328177
190	0x3e68c275	0.2273043
191	0x3efde974	0.49592173
192	0x3e82d372	0.25551945
193	0xbd6c880f	-0.057746943
194	0x3e93fe0b	0.28904757
195	0xbef9f4f1	-0.48819688
196	0x3f032eb2	0.51243126
197	0xbc9e0939	-0.019291507
198	0x3e630f8f	0.22173904
199	0x3e86f0a9	0.26355484
200	0xbe19b1da	-0.15009251
201	0x3e5b644f	0.21424983
202	0x3ec3347f	0.3812599
203	0xbe2d4369	-0.16920246
204	0xbf024d72	-0.5089942
205	0xbe75daa7	-0.2400919
206	0xbebd460d	-0.36967507
207	0x3dd0a50d	0.10187731
208	0x3e31c6a1	0.17360927
209	0x3e1fd157	0.156072
210	0x3da3914d	0.07986698
211	0x3e26cd6f	0.16289304
212	0xbeae47ad	-0.3403906
213	0x3ee4461d	0.44584742
214	0xbeb5e3d0	-0.3552537
215	0x3e45e3f2	0.19325235
216	0xbe5ae315	-0.21375687
217	0x3df74006	0.120727584
218	0xbf21c468	-0.6319032
219	0xbf0c106a	-0.54712546
220	0xbe8a9398	-0.2706573
221	0x3f0f7c96	0.5604948
222	0xbea7376c	-0.3265947
223	0x3f11896a	0.568503
224	0x3f00c53c	0.50300956
225	0x3e90d28f	0.28285643
226	0xbeece1b1	-0.4626594
227	0x3e822157	0.2541606
228	0xbeeedaab	-0.46651205
229	0xbf101681	-0.5628434
230	0x3e0a513f	0.13507555
231	0xbee2052c	-0.4414457
232	0xbe67c9ba	-0.22635546
233	0x3e4c962d	0.19979163
234	0x3ec9ce30	0.3941512
235	0xbd71e946	-0.059060358
236	0x3e64bfcb	0.22338788
237	0x3eacb1b9	0.33729342
238	0x3d94e304	0.07269862
239	0x3ed96437	0.4245927
240	0xbee840b6	-0.4536187
241	0xbde903c4	-0.11377671
242	0x3e880e64	0.2657348
243	0xbc88ac4b	-0.016683718
244	0x3d05a193	0.032624792
245	0x3e6146a2	0.219996
246	0xbe22f134	-0.15912324
247	0x3e140d13	0.14458112
248	0xbe7997ee	-0.24374363
249	0xbd1555a3	-0.036458623
250	0x3eb8fe8e	0.3613171
251	0x3c6d1a9b	0.014471675
252	0xbe917ce4	-0.28415596
253	0xbede310e	-0.433968
254	0x3ee9f413	0.45694026
255	0xbe140209	-0.14453901

model.0.bias f4 [100]
0	0x3d86bd06	0.06579022
1	0xbde9bb54	-0.11412683
2	0xbc9f0e6c	-0.019416057
3	0x3eab71b9	0.334852
4	0x3e93d81b	0.28875813
5	0x3e104ecc	0.14092559
6	0xbf0c7042	-0.5485879
7	0x3edc87ed	0.43072453
8	0xbe22a6a4	-0.15883881
9	0x3e4a78c2	0.19772628
10	0x3d3b6068	0.045746237
11	0xbda7fa3a	-0.08202024
12	0x3eba6c81	0.36410907
13	0xbe41c93c	-0.18924421
14	0x3ef48a0d	0.47761574
15	0xbeefd686	-0.46843356
16	0x3ec481aa	0.38380176
17	0xbeaf8fc5	-0.34289375
18	0xbe6b778f	-0.22994827
19	0x3e28c6a9	0.16482033
20	0xbdd9b095	-0.106293835
21	0x3e5c4a2a	0.21512666
22	0x3e7a7d53	0.2446187
23	0xbf133166	-0.5749725
24	0xbecae188	-0.39625192
25	0xbe89acb3	-0.26889572
26	0xb9ab10b5	-0.0003262811
27	0xbd999410	-0.07498944
28	0x3e8f7a27	0.28022882
29	0xbefa0e55	-0.4883906
30	0xbe92b23d	-0.2865161
31	0x3eeb5baa	0.45968372
32	0xbed0f6b2	-0.40813214
33	0xbed9ac37	-0.42514202
34	0x3f0041ef	0.50100607
35	0xbe25927d	-0.16169162
36	0xb9e6433e	-0.00043919118
37	0x3e5f06a4	0.21779877
38	0x3eff64d8	0.49881625
39	0xbf0fd134	-0.56178594
40	0xbe6f471d	-0.23366971
41	0x3daf9589	0.085734434
42	0x3efb8696	0.49126118
43	0xbe4eac2e	-0.20182869
44	0x3adc2abb	0.0016797403
45	0xbef8d72b	-0.4860166
46	0xbf10becc	-0.5654113
47	0xbdbd5174	-0.092440516
48	0xbe9f96e2	-0.31169802
49	0x3efa66b5	0.48906484
50	0x3bec217b	0.0072061396
51	0xbe2ccb6d	-0.16874476
52	0xbea04785	-0.31304565
53	0x3ef8316e	0.48475212
54	0xbf0eac59	-0.5573173
55	0x3d9daf26	0.076994225
56	0xbeb14c91	-0.34628728
57	0x3f0cc46d	0.5498722
58	0xbf0cbc16	-0.54974496
59	0x3ea61ee9	0.32445458
60	0xbde52e39	-0.11190457
61	0x3e2da360	0.16956854
62	0xbee2523e	-0.4420337
63	0x3e9fec20	0.31234837
64	0xbf0dd346	-0.554005
65	0x3f0fb0c9	0.5612913
66	0x3d26659f	0.040624257
67	0x3e6c70c1	0.23089887
68	0xbda27e38	-0.079342306
69	0x3ead3979	0.3383291
70	0xbee053bf	-0.43813893
71	0x3e17a6f8	0.14809787
72	0xbf00f2e6	-0.50370634
73	0xbe719b7b	-0.23594467
74	0xbebe13a3	-0.37124357
75	0xbf09b616	-0.53793466
76	0x3d8a3df5	0.067500986
77	0x3e45412d	0.19263144
78	0x3ec42d42	0.3831578
79	0xbe86add0	-0.26304483
80	0xbf0a2979	-0.5396953
81	0xbdb8165d	-0.089886405
82	0xbeef51f0	-0.467422
83	0xbef3dd3e	-0.47629732
84	0xbe898849	-0.2686179
85	0x3f19eafd	0.6012419
86	0xbe8cbd26	-0.2748806
87	0xbe9901b9	-0.29884127
88	0xbdefe53d	-0.117136456
89	0xbd7e1ba1	-0.062038068
90	0x3eef3ed8	0.46727633
91	0xbe64724d	-0.22309227
92	0x3c34a467	0.011025525
93	0x3e75a258	0.2398771
94	0xbf0b339d	-0.5437563
95	0x3ef8c1dd	0.48585406
96	0xbe842062	-0.25805956
97	0x3e989231	0.29799035
98	0xbed797c0	-0.42107964
99	0x3e23e28e	0.16004393

model.2.weight f4 [200, 100]
0	0xbcf72235	-0.030167678
1	0x3db58e7f	0.088650696
2	0x3d67e9ea	0.056619562
3	0x3d828e0a	0.06374748
4	0x3db0f3b1	0.086402304
5	0x3dd5893e	0.104265675
6	0xbca26d82	-0.019827608
7	0xbdae3180	-0.08505535
8	0x3dcc047e	0.09961794
9	0x3d6f8f3e	0.058486216
10	0xbdaa14af	-0.08304726
11	0x3d9f9e95	0.07793919
12	0xbd5a8be4	-0.053356066
13	0xbd88d15a	-0.06680556
14	0x3d35c43f	0.044376608
15	0x3dc32276	0.09528057
16	0x3b8ddbb1	0.004329168
17	0x3d358bdc	0.044322833
18	0xbd770e8e	-0.060316615
19	0x3cea8ba7	0.028631045
20	0x3ca98a42	0.02069581
21	0xbcee36a8	-0.029078797
22	0x3d9a7e8c	0.07543668
23	0x3c3e3cd9	0.011611187
24	0xbd06b4c6	-0.032887243
25	0xbcb3e8e0	-0.02196163
26	0x3d0e7281	0.03477717
27	0x3d9d173c	0.07670447
28	0x3d1b9082	0.03797961
29	0xbc984cac	-0.018591247
30	0x3d12740c	0.035755202
31	0xba0416bc	-0.0005038788
32	0xbd5d987c	-0.0541005
33	0xbba76f64	-0.0051097143
34	0xbd21b178	-0.039475888
35	0x3d357c50	0.044308007
36	0x3da81878	0.08207792
37	0xbd1abf28	-0.037779957
38	0xbd6fc00a	-0.058532752
39	0xbb9d5b29	-0.004802127
40	0xbd8e5db1	-0.06951464
41	0x3d111570	0.035420835
42	0x3cbfc715	0.02341036
43	0xbce17fb4	-0.027526714
44	0xbd4bf725	-0.049796242
45	0x3d1e8010	0.03869635
46	0xbcba06ea	-0.022708375
47	0x3dcfa16f	0.10138213
48	0xbd41d81a	-0.04732523
49	0xbc5c4036	-0.013443043
50	0x3dbe4116	0.09289758
51	0x3de83525	0.113382615
52	0x3b90e308	0.0044215955
53	0x3d37bc79	0.044857476
54	0xbd963fa2	-0.07336356
55	0xbd81e5a5	-0.06342629
56	0x3d427460	0.047474265
57	0xbd26ce3d	-0.040724028
58	0xbda2d7dc	-0.07951328
59	0x3df052f7	0.11734574
60	0xbcd64c18	-0.026159331
61	0xbd1e09b0	-0.038583457
62	0x3daafaea	0.08348639
63	0xbcf516a5	-0.029918024
64	0x3d9ef23a	0.07761045
65	0x3c75ca4c	0.015001845
66	0x3d865806	0.06559758
67	0xbd3d2c91	-0.04618508
68	0x3a63c8f9	0.000868931
69	0xbc15dc5f	-0.009146779
70	0xbd3e24ed	-0.046421934
71	0xbd81921b	-0.063266955
72	0xbd1e0884	-0.03858234
73	0x3d0468d6	0.03232654
74	0x3db6a2c8	0.08917767
75	0xbced1326	-0.028939795
76	0x3d435b3a	0.047694422
77	0x3d894f3c	0.06704566
78	0x3cbb7ee0	0.022887647
79	0x3d17a646	0.037023805
80	0xbcbfc180	-0.023407698
81	0x3c8f2df7	0.017477972
82	0x3da5d20c	0.08096704
83	0x3d3eaa4e	0.046549134
84	0x3de20b59	0.11037321
85	0x3d3313ae	0.04371994
86	0x3ae57afa	0.0017507963
87	0x3d9d644a	0.07685144
88	0x3ce59d90	0.028029233
89	0x3b3b5c1b	0.0028588835
90	0x3d83b96d	0.064318515
91	0xbc605f25	-0.013694559
92	0xbdbd884d	-0.09254513
93	0xbd002e0e	-0.03129392
94	0x3d3e6a3a	0.046488024
95	0x3cccee07	0.025015844
96	0xbd9347b5	-0.071914114
97	0x3d527375	0.05137964
98	0xbd6c87c2	-0.057746656
99	0x3db5a897	0.088700466
100	0x3c591802	0.013250353
101	0xbdaf9eb8	-0.08575195
102	0x3dbb35f1	0.09141148
103	0x3db5b110	0.088716626
104	0xbda22db7	-0.07918876
105	0xbd143616	-0.036184393
106	0xbd9acb0f	-0.075582616
107	0x3d07a10b	0.033112567
108	0x3d7b663a	0.061376788
109	0xbda59133	-0.08084335
110	0xbc0d2faf	-0.008617326
111	0xbcbc257e	-0.022967096
112	0x3d0d9fba	0.034576155
113	0xbcba127e	-0.022713896
114	0xbc0335b9	-0.008008414
115	0xbc9dff07	-0.019286646
116	0xbc974b61	-0.01846856
117	0xbabeb84f	-0.0014550778
118	0x3dad134d	0.08450947
119	0xbda6a57f	-0.081370346
120	0x3da3d1a9	0.07998974
121	0xbd1a5c37	-0.0376856
122	0x3d5d9da3	0.054105412
123	0xbce330a0	-0.027733147
124	0xbdcf0f0b	-0.10110291
125	0xbcc15a39	-0.023602592
126	0xbc2d0b39	-0.010561758
127	0xba8d6034	-0.0010786117
128	0xbd325c21	-0.043544892
129	0x3dd0ea4f	0.10200941
130	0x3dc8d24b	0.09805735
131	0x3d5308b3	0.051521968
132	0x3c88bfb6	0.016692977
133	0xbd6884c3	-0.056767236
134	0xbd92766e	-0.07151495
135	0xbdb0acef	-0.086267345
136	0x3d8087c8	0.06275898
137	0xbd83e091	-0.06439317
138	0xbc9a9ce8	-0.018873647
139	0x3d6fd3af	0.058551487
140	0x3d47d71f	0.04878914
141	0xbda87936	-0.08226244
142	0xbdaae927	-0.083452515
143	0xbc829f76	-0.015945178
144	0xbd2ace76	-0.041700803
145	0x3c977b26	0.018491339
146	0xbd98163d	-0.074261166
147	0xbd4386cc	-0.047735974
148	0x3d895ebe	0.06707524
149	0x3ab72415	0.0013972545
150	0x3d8d2e48	0.06893593
151	0x3cbffee2	0.023436967
152	0x3d9f8130	0.077883124
153	0xbd8af8b2	-0.06785716
154	0xbc219aed	-0.009863597
155	0xbcb87d96	-0.022520822
156	0x3d35cd9a	0.04438553
157	0xbda3b868	-0.07994157
158	0x3d9fcbca	0.078025416
159	0xbdaf9f8b	-0.08575352
160	0x3d250138	0.040284365
161	0x3d866c1c	0.06563589
162	0x3d4e2806	0.050331138
163	0xbc2b929b	-0.010471965
164	0x3d4f0a1c	0.05054675
165	0xbd534382	-0.051578052
166	0xbd8a6dd0	-0.06759226
167	0x3d977fff	0.0739746
168	0x3c72b27b	0.014813061
169	0xbd831b1d	-0.06401656
170	0xbd84813c	-0.06469962
171	0x3dc600e0	0.09668136
172	0x3d12e0e1	0.035858992
173	0xbdcd2d3d	-0.10018394
174	0x3dae0b1d	0.084982134
175	0x3d1094ab	0.03529803
176	0x3d11bd28	0.035580784
177	0x3d900857	0.07032841
178	0xbdb5544b	-0.08853968
179	0x3d86d03d	0.06582687
180	0xbd3fcd14	-0.046826437
181	0xbbf47149	-0.0074597937
182	0xbd98c41a	-0.074592784
183	0xbdb0e8b9	-0.08638138
184	0xbcfa8da6	-0.030585121
185	0xbd260644	-0.04053332
186	0x3d98361d	0.07432196
187	0xbb379c9c	-0.002801693
188	0xbcbeeba1	-0.023305716
189	0x3acad8bd	0.001547597
190	0x3cd38913	0.025822198
191	0xbd8907b7	-0.066909246
192	0xbda3aa30	-0.07991445
193	0xbb2e3370	-0.0026580952
194	0x3b58ce7d	0.003308206
195	0x3ce6f283	0.02819181
196	0xbd185cb2	-0.037197776
197	0x3d179ac2	0.037012823
198	0x3dbe0058	0.09277409
199	0x3d41e2ce	0.04733544
200	0x3d014fae	0.03157013
201	0xbbfd07b7	-0.007721867
202	0x3de790ef	0.11306941
203	0xbdf89ac4	-0.12138894
204	0xbcfd1d56	-0.030897778
205	0x3d24df8e	0.04025226
206	0x3c9fe6ac	0.019519173
207	0x3d9fe63d	0.07807586
208	0x3d6c7b94	0.05773504
209	0x3d8ffdea	0.07030852
210	0xbd7f0a3d	-0.062265623
211	0x3907eec8	0.00012963556
212	0x3d962541	0.07331324
213	0xbd70236b	-0.058627527
214	0x3d7732b4	0.06035109
215	0xbdbf1647	-0.09330421
216	0xbb9d0ea6	-0.004793006
217	0xbb86d983	-0.004115285
218	0x3d12415b	0.03570686
219	0x3d980da1	0.074244745
220	0x3d772811	0.060340945
221	0x3d1ea029	0.03872696
222	0xbd897e6a	-0.06713565
223	0xbc92e508	-0.017931476
224	0x3dcf06bf	0.101087086
225	0xbdc0b1aa	-0.09408887
226	0xbd5342e7	-0.051577475
227	0xbdab2509	-0.08356673
228	0xbaf48dfc	-0.0018658037
229	0x3d6d8526	0.05798831
230	0x3d6607b8	0.056159705
231	0x3dce5441	0.10074664
232	0xbc83591f	-0.016033707
233	0xbd8b5b36	-0.068045065
234	0x3d4ec3ef	0.050479826
235	0x3d6c4836	0.057686053
236	0x3d35a031	0.044342224
237	0xbcda9ae7	-0.026685191
238	0xbdb7e95a	-0.08980055
239	0x3d30e52f	0.043187317
240	0xbda57d23	-0.080805086
241	0xbbd9c415	-0.0066456893
242	0xbda2b866	-0.079453275
243	0x3dab9927	0.08378821
244	0x3cca64e7	0.024706317
245	0xbda2f589	-0.07956988
246	0x3c313889	0.010816702
247	0x3da1bef9	0.07897753
248	0x3d53ad92	0.0516792
249	0x3c9cd334	0.019143678
250	0xbda4585a	-0.08024664
251	0x3daf37fb	0.08555599
252	0xbc0c2527	-0.00855378
253	0xbd2ce217	-0.042207804
254	0xbdac82b2	-0.08423366
255	0xbc762f8f	-0.015025987

model.2.bias f4 [200]
0	0x3dcefda7	0.10106974
1	0x3db37c58	0.08763951
2	0xbc74945d	-0.014927951
3	0x3d4fdd61	0.050748233
4	0xbd1a9693	-0.037741255
5	0x3d5f84bb	0.05456994
6	0x3d987167	0.07443505
7	0xbbaef5c6	-0.005339357
8	0xbcd7c037	-0.026336772
9	0x3d981df9	0.07427592
10	0xbd048599	-0.03235397
11	0x3cbcd3e9	0.023050265
12	0xbcdc3fc7	-0.02688588
13	0x3d0fc5a5	0.035100598
14	0x3d166b9d	0.03672372
15	0x3d3549fe	0.044260018
16	0x3d73ceb0	0.059523284
17	0x3dc47c81	0.0959406
18	0x3d51fa19	0.051263902
19	0x3dc0bfc5	0.09411577
20	0xbda90b63	-0.08254125
21	0xbc7f3545	-0.015576665
22	0x3d15151e	0.036397092
23	0x3dacebd8	0.08443421
24	0x3c8171fe	0.015801426
25	0xbcb1c1d2	-0.021698866
26	0x3d837645	0.064190425
27	0x3ddc47d5	0.107558884
28	0xbd747160	-0.059678435
29	0xbd071116	-0.03297528
30	0xbce3ce31	-0.02780828
31	0x3c355b3a	0.011069113
32	0x3c8b15a0	0.016978085
33	0xbc7c14f8	-0.015385859
34	0x3d8beb8a	0.06832035
35	0xbc52d2ac	-0.012867611
36	0x3d00ebb0	0.03147477
37	0xbc838c7b	-0.016058197
38	0xbda0d259	-0.07852621
39	0x3d85cdc3	0.065333866
40	0xbd939f55	-0.072081245
41	0x3d9f4802	0.07777406
42	0xbd86c1aa	-0.06579907
43	0xbda814d5	-0.082070984
44	0x3c32b128	0.010906495
45	0x3bbd5666	0.0057781218
46	0xbc3fb3c9	-0.011700579
47	0xbc00ba1a	-0.00785687
48	0x3dc997b6	0.0984339
49	0xbcbb6477	-0.022875054
50	0xbdbe9a6f	-0.093067996
51	0xbd9a7685	-0.07542137
52	0x3d55cc0d	0.05219655
53	0x3dc76770	0.09736526
54	0x3c66c841	0.01408583
55	0xbcab309e	-0.020897206
56	0xbd86d5b2	-0.06583728
57	0x3cfa56d5	0.030558983
58	0xbbb88363	-0.005630897
59	0x3d9709f3	0.073749445
60	0xbd0dcfa8	-0.034621865
61	0x3cea6e6b	0.028617105
62	0x3cda677f	0.026660679
63	0x39963466	0.0002864927
64	0xbd7c26de	-0.061560504
65	0xbd851de1	-0.064998396
66	0xbd6b1c3b	-0.05739997
67	0x3d855729	0.06510765
68	0xbd2dd798	-0.042441934
69	0xbcc0f392	-0.023553643
70	0x3d9c0129	0.07617409
71	0xbd7d8366	-0.06189289
72	0xbd9960dd	-0.07489178
73	0x3db4093f	0.08790826
74	0x3cfecb4b	0.031102797
75	0xbc123468	-0.008923627
76	0xbc5660c6	-0.013084596
77	0x3d37ded7	0.04489025
78	0xbd64ad56	-0.05582937
79	0xbdaa0a57	-0.083027534
80	0x3d69865a	0.057012893
81	0xbda066c1	-0.07832099
82	0xbd388b71	-0.045054857
83	0xbdbff13b	-0.09372183
84	0x3dbc7db5	0.09203664
85	0x3db2c8df	0.08729719
86	0x3d86b3e3	0.065772794
87	0xbd9a4f24	-0.07534626
88	0x3c339fc0	0.01096338
89	0xbb83ec5b	-0.0040259785
90	0xbd659613	-0.056051325
91	0xbd0e2b89	-0.034709487
92	0x3dc3f83d	0.09568832
93	0xbd2b86f2	-0.04187674
94	0x3cb1baec	0.021695577
95	0xbd61cdd5	-0.055127937
96	0xbbb6b09f	-0.005575254
97	0x3da7bc2b	0.08190187
98	0xbd306ecd	-0.043074418
99	0x3d8a4d36	0.06753008
100	0x3d4fd5e8	0.050741106
101	0xbcd30949	-0.025761263
102	0x3d984d0c	0.074365705
103	0x3d9d07da	0.07667513
104	0xbd107180	-0.035264492
105	0xbb656864	-0.0035004849
106	0x3c284d0e	0.0102722775
107	0x3d63ec46	0.05564525
108	0x3dc6e7a3	0.0971215
109	0xbd09e986	-0.03366997
110	0xbd0e8bb2	-0.034801193
111	0xbda9f675	-0.08298961
112	0x3dab9d62	0.08379628
113	0xbd100531	-0.0351612
114	0x3d1a7f45	0.03771903
115	0x3d529ff5	0.05142208
116	0xbd0939ac	-0.033502266
117	0x3b03f3ca	0.0020134323
118	0x3db8beb4	0.09020749
119	0x3b859d06	0.0040775565
120	0xbd9cd91c	-0.07658598
121	0x3cb0bd3c	0.021574609
122	0xbd8eae10	-0.069667935
123	0xbd1cd514	-0.038289145
124	0x3d11f229	0.035631333
125	0x3d6c4c8c	0.05769019
126	0x3cebefdd	0.0288009
127	0xbc4e0300	-0.012573957
128	0xbd7731e2	-0.060350306
129	0xbdd4e705	-0.10395626
130	0x3c9100eb	0.017700633
131	0x3c8ed34d	0.01743474
132	0xbb94b36b	-0.00453799
133	0xbda20452	-0.0791098
134	0x3d79d2b2	0.06099195
135	0x3dd0e7ee	0.10200487
136	0xbab79fd0	-0.001400942
137	0xbd294527	-0.041325714
138	0x3d8b69ed	0.06807313
139	0xbdacaa49	-0.08430917
140	0xbd8e9767	-0.069624715
141	0x3da65be0	0.081229925
142	0x3d9658a6	0.07341127
143	0x3dc8bbfe	0.09801482
144	0xbc8b9428	-0.01703842
145	0x3d8ce146	0.06878905
146	0x3da25a3a	0.079273656
147	0xbd8518e7	-0.0649889
148	0xbd402496	-0.04690989
149	0x3db7c2f2	0.0897273
150	0x3cf36c6f	0.029714791
151	0x3dc06d67	0.09395867
152	0x3d8a1142	0.06741573
153	0x3cf5fd59	0.030028032
154	0xbdad60a1	-0.08465696
155	0xbcb416a9	-0.021983461
156	0xbc992545	-0.01869453
157	0xbdb05c55	-0.08611361
158	0xbdaa5d0b	-0.08318528
159	0x3cadacb7	0.02120052
160	0xbb9d183c	-0.0047941487
161	0x3b8d1ee5	0.0043066614
162	0x36f1d684	7.2073326e-06
163	0x3dba9566	0.09110527
164	0xbc51375e	-0.012769548
165	0xbdd89ad3	-0.105764054
166	0xbb16ccf6	-0.002301035
167	0xbdb6aba6	-0.08919458
168	0x3b1e13a9	0.0024120605
169	0xbd17526d	-0.03694384
170	0x3d5cea4d	0.053934384
171	0xbd76969d	-0.06020223
172	0x3d11a329	0.035555992
173	0x3d75a176	0.059968434
174	0x3cad2311	0.021134885
175	0x3dcbf2c4	0.09958413
176	0x3d3d5215	0.046220858
177	0x3db94849	0.090469904
178	0x3d57952b	0.052632492
179	0xbd8cc4ab	-0.06873449
180	0xbd9c6220	-0.07635903
181	0x3d20ad6f	0.0392279
182	0xbd95d104	-0.07315257
183	0x3cf6cdcc	0.030127428
184	0xbda6f9ff	-0.08153152
185	0x3d150f7f	0.03639173
186	0x3da6cdf6	0.08144753
187	0x3da08a4a	0.078388765
188	0x3c3d3e7c	0.011550542
189	0x3dab7b38	0.083731115
190	0x3db285b9	0.08716912
191	0xbd6638f7	-0.05620667
192	0x3d51b02f	0.051193412
193	0xbcc7596a	-0.024334628
194	0x3daed136	0.085359976
195	0x3da0e73a	0.07856603
196	0xbc000d2b	-0.0078156395
197	0x3c4ccbd8	0.012499772
198	0x3d8f821d	0.07007239
199	0x3d9aa2ea	0.07550605

model.4.weight f4 [300, 200]
0	0x3d32b326	0.04362788
1	0xbd004485	-0.031315345
2	0x3bcd68e3	0.006268607
3	0xbd49fd9d	-0.04931413
4	0x3d8adfab	0.067809425
5	0x3d08da69	0.033411417
6	0xbd285485	-0.04109623
7	0x3c903984	0.01760555
8	0x3d140a52	0.036142655
9	0xbd1443a7	-0.03619733
10	0xbd932fdf	-0.07186865
11	0x3d9c55d1	0.07633556
12	0x3d32ee93	0.043684553
13	0x3d0f1033	0.03492756
14	0x3d93a403	0.07209017
15	0xbc7e3e77	-0.0155178225
16	0xbd16e2bf	-0.036837336
17	0x3c239d12	0.009986179
18	0xbd0116b3	-0.03151579
19	0xbd93e506	-0.07221417
20	0xbd1fda48	-0.03902653
21	0x3c271f5a	0.010200346
22	0xbaac3ec1	-0.0013141261
23	0x3cbf48f1	0.02335021
24	0xbd1d9605	-0.038473148
25	0xbd486cab	-0.04893176
26	0xbdb34852	-0.087540284
27	0x3c38a116	0.011268875
28	0xbc41a817	-0.011819861
29	0x3b6bb0b2	0.0035963473
30	0xbc7487d0	-0.014924958
31	0xbd3568bd	-0.04428934
32	0xbd2c2791	-0.04202992
33	0xbc422bf3	-0.011851299
34	0xbd8668c9	-0.06562955
35	0x3d4ff470	0.050770223
36	0xbd7844ad	-0.06061237
37	0xbd9376da	-0.072004035
38	0x3d299ecb	0.041411202
39	0x3d57f425	0.05272307
40	0x3c71ea57	0.014765344
41	0xbd4e961a	-0.050436117
42	0x3ce0e8d4	0.027454771
43	0x3d803464	0.06259993
44	0x3d80f634	0.062969595
45	0xbd82d324	-0.06387928
46	0x3d8b8501	0.06812478
47	0x3ccf0bce	0.025274184
48	0x3d3097bf	0.043113466
49	0x3cc17952	0.02361742
50	0x3d3a8aca	0.045542516
51	0xbaa81f72	-0.0012826754
52	0x3c4f4be0	0.012652367
53	0xbe0f4dba	-0.13994494
54	0xbc2ee125	-0.010673796
55	0xbd6253b1	-0.055255596
56	0xbd60b15c	-0.054856643
57	0xbceb6b04	-0.028737552
58	0x3cd249bf	0.02566993
59	0xbb1c09d0	-0.002380956
60	0xbc4ed7dd	-0.012624708
61	0xba4a3cb5	-0.00077147345
62	0x3c2c0b5c	0.010500755
63	0x3c9f0659	0.019412206
64	0xbcab4fc2	-0.020912055
65	0x3d46f7b9	0.04857609
66	0x3c10f375	0.008847107
67	0xbd64c00e	-0.05584722
68	0x3d19041f	0.037357446
69	0x3bff0ecd	0.007783747
70	0xbcb3da8f	-0.021954803
71	0xbd8885e5	-0.06666163
72	0x3d4636ed	0.048392225
73	0xbd1c346e	-0.03813594
74	0xbd1cd476	-0.038288556
75	0x3d6335de	0.055471294
76	0x3d4d1362	0.050067313
77	0xbcd8ee9d	-0.026480967
78	0xbd759d32	-0.059964366
79	0xbd01b8df	-0.031670447
80	0xbc51e429	-0.012810745
81	0xb9d7c79b	-0.00041156713
82	0xbbaf120f	-0.005342729
83	0xbd121e7f	-0.035673615
84	0xbd2255b1	-0.039632503
85	0xbcaf2281	-0.021378757
86	0x3d0a5633	0.033773612
87	0xbccbdcae	-0.024885502
88	0xbc18e178	-0.0093311
89	0xbc7f1518	-0.015568994
90	0xbc099e07	-0.008399493
91	0x3d096ef8	0.033553094
92	0xbd806372	-0.06268968
93	0x3d1edd83	0.03878547
94	0x3c9011fc	0.0175867
95	0xbc540ae0	-0.012942046
96	0xbd74c9d8	-0.059762806
97	0x3d8a8caf	0.067651145
98	0x3cc8e9fe	0.024525639
99	0xbcf4c7b5	-0.029880384
100	0x3cbd136c	0.02308055
101	0x3d00f641	0.031484846
102	0x3d57877a	0.052619435
103	0xbc624b85	-0.013811951
104	0x3bebaa8a	0.0071919607
105	0x3d4cfcb4	0.050045684
106	0x3d220fd7	0.039565887
107	0xbd846648	-0.06464821
108	0x3cf62207	0.030045522
109	0xba679cd3	-0.00088353193
110	0xbc0ab930	-0.008467004
111	0xbd1fa80c	-0.03897862
112	0xbd590558	-0.05298361
113	0x3d7d7b9f	0.061885472
114	0xbd4d7340	-0.05015874
115	0x3d219cd3	0.0394562
116	0xbb1a1f3a	-0.0023517148
117	0x3c5d044e	0.013489796
118	0xbc4dcf74	-0.012561668
119	0xbc037037	-0.00802236
120	0xbd7fcea3	-0.062452924
121	0x3cd751f2	0.026284192
122	0x3d5d88ae	0.054085426
123	0x3c7ca3b3	0.015419888
124	0x3ca08fd1	0.019599827
125	0x3d32c436	0.043644153
126	0xbd4aef60	-0.049544692
127	0xbd8153e9	-0.06314833
128	0x3b8f8ad6	0.004380564
129	0xbd5f59f6	-0.054529153
130	0xbc001f9f	-0.007820039
131	0x3c914996	0.017735284
132	0x3c82a02b	0.015945515
133	0x3bd00702	0.0063484916
134	0xbd806280	-0.062687874
135	0x3ceb6c80	0.02873826
136	0x3d58d17e	0.052934162
137	0xbd380fb0	-0.044936836
138	0x3d26398e	0.040582232
139	0x3d0bfb27	0.034175064
140	0xbcd6bb15	-0.026212255
141	0xbcefe463	-0.029283708
142	0x3c814e3b	0.015784374
143	0xbcf38a9a	-0.029729176
144	0xbd68cbaf	-0.056834873
145	0x3cb15e6a	0.021651465
146	0x3d749f11	0.05972201
147	0xbd914f3c	-0.07095191
148	0xbd8d95b4	-0.06913319
149	0x3b8008b1	0.003907286
150	0xbd0aaf9c	-0.03385888
151	0x3d317007	0.04331973
152	0xbd44d11e	-0.048050992
153	0xbcb7a392	-0.022416864
154	0xbc61da64	-0.013784979
155	0x3cce90d6	0.025215548
156	0xbd8293e3	-0.063758634
157	0xbda785d2	-0.08179821
158	0x3bf8d4b6	0.0075937165
159	0x3d00683a	0.0313494
160	0xbd27e594	-0.040990427
161	0xbd14ca4f	-0.03632575
162	0x3cd2bf33	0.025725937
163	0x3c1e6e31	0.009669826
164	0x3d01734a	0.03160409
165	0xbd622f74	-0.055221036
166	0xbd6e7ece	-0.0582264
167	0xbce3a981	-0.027790787
168	0x3d8f3784	0.06993011
169	0x3bf7efd8	0.0075664334
170	0xba9c8072	-0.0011940135
171	0x3d518860	0.051155448
172	0xba529d6f	-0.00080343237
173	0xbd0e85a2	-0.03479541
174	0x3cfe3ffb	0.031036368
175	0x3d190850	0.037361443
176	0xbd457fcc	-0.04821758
177	0xbd6563a4	-0.056003228
178	0xbc1d5639	-0.009603077
179	0x3a84dbc6	0.0010136298
180	0xbce4aa64	-0.02791328
181	0x3c87f75a	0.016597439
182	0x3d1431a3	0.03618015
183	0xbd65e134	-0.056122974
184	0xbd2321df	-0.039827224
185	0x3d77d4e3	0.06050576
186	0xbd0211b0	-0.03175515
187	0x3d5288b3	0.051399898
188	0xbcb78d66	-0.022406291
189	0xbd09bde7	-0.03362837
190	0x3ceaf8ac	0.02868303
191	0xbc653f7f	-0.013992189
192	0xbb8b1903	-0.004244925
193	0x3d1666fd	0.03671931
194	0x38e35bec	0.00010841325
195	0x3cf06784	0.029346235
196	0x3d396d92	0.04527051
197	0x3d132f87	0.035933997
198	0xbd6ac076	-0.05731245
199	0x3c3eee82	0.011653544
200	0xbd60dad1	-0.05489618
201	0xbda626c8	-0.08112866
202	0x3d32368d	0.043509055
203	0xbbd9e179	-0.006649193
204	0xbab89175	-0.0014081436
205	0xbd343ef2	-0.04400534
206	0xbd1e0d3b	-0.038586836
207	0xbd6b3ab8	-0.057429045
208	0xbc63e5b2	-0.013909744
209	0x3bdaa4d8	0.006672483
210	0x3ca60704	0.020267017
211	0xbcdc2d39	-0.026877033
212	0xbcb5a3ca	-0.022172827
213	0xbd806789	-0.06269748
214	0xbd904db3	-0.0704607
215	0x3d2237be	0.03960394
216	0x3c59a3f8	0.013283722
217	0x3d528a99	0.05140171
218	0x3d46aed8	0.048506588
219	0x3d8d32d3	0.068944596
220	0xbd20d0b1	-0.039261524
221	0x3c1fef13	0.00976159
222	0xbce75791	-0.028239997
223	0xbd1d7013	-0.03843696
224	0xbc4a3cb3	-0.012343573
225	0x3be3eda6	0.00695582
226	0xbd79cab7	-0.06098434
227	0xbced44da	-0.028963495
228	0xbd445b41	-0.04793859
229	0x3d24ac89	0.040203605
230	0x3c7c4f46	0.01539976
231	0x3afb8586	0.0019189573
232	0x3ccec87f	0.025242088
233	0x3a348544	0.0006886313
234	0xbda64b3e	-0.0811982
235	0xbd535cdb	-0.051602226
236	0x3cd85c72	0.026411269
237	0xbdb85f6a	-0.09002574
238	0x3d4936ca	0.049124517
239	0x3d505577	0.050862756
240	0x3d793198	0.060838312
241	0x3d246c67	0.040142443
242	0xbd9cefbc	-0.07662913
243	0x3c0cab01	0.008585692
244	0x3b917b19	0.004439723
245	0x3c91eba4	0.017812558
246	0xbd12dae8	-0.035853297
247	0xbd0890b8	-0.03334114
248	0xbd65e5b0	-0.05612725
249	0xbcf7dccc	-0.030256651
250	0x3cdf9524	0.027292795
251	0x3c710dca	0.01471276
252	0xbc322d7e	-0.010875104
253	0xbd9cae1d	-0.07650397
254	0xbd05eb6c	-0.03269522
255	0x3d5c217a	0.053742863

model.4.bias f4 [300]
0	0xbd463807	-0.048393276
1	0x3d3861f5	0.045015294
2	0x3d9e69a3	0.07734992
3	0x3d28626a	0.04110948
4	0xbbf7fc85	-0.0075679445
5	0x3d045a45	0.03231265
6	0x3d78be3e	0.060728304
7	0xbd245149	-0.040116582
8	0x3d9b6f2f	0.07589566
9	0xbc7d14a1	-0.015446813
10	0x3d3985f4	0.045293763
11	0x3c801baf	0.0156382
12	0x3d8f4a0e	0.06996547
13	0x3d924e8a	0.071438864
14	0x3cb0ef4f	0.021598486
15	0xbd67db5c	-0.05660568
16	0x3d166825	0.036720414
17	0x3c6cf2d5	0.014462193
18	0x3c8585a3	0.016299075
19	0x3d83455a	0.06409712
20	0x3d4c72fe	0.049914353
21	0xbd5fb432	-0.054615207
22	0xbd5e2ade	-0.0542401
23	0xbcb7d0ca	-0.022438426
24	0xbd5d2f26	-0.054000042
25	0xbb2ee309	-0.0026685616
26	0x3d5d2ebf	0.05399966
27	0xbd342839	-0.04398367
28	0xbc570c25	-0.013125454
29	0xbd2212b0	-0.039568603
30	0xbc914f7a	-0.017738093
31	0xbd008379	-0.031375382
32	0xbd491777	-0.049094643
33	0x3d1f860a	0.03894619
34	0x3da187c3	0.078872226
35	0x3d72a5d6	0.059240185
36	0xbd78963c	-0.06069015
37	0x3d583efd	0.052794445
38	0x3adf90f4	0.0017056749
39	0xbc56ad8d	-0.013102901
40	0xbd13deaa	-0.03610102
41	0x3d6817af	0.05666321
42	0x3c083434	0.008313227
43	0x3d5b4029	0.053527985
44	0xbcae1e5f	-0.021254716
45	0xbd5017af	-0.050803836
46	0xba22c6b5	-0.0006209419
47	0xbd0c198b	-0.034204047
48	0x3ce7b8e1	0.0282864
49	0x3d06fdff	0.032957073
50	0xbcda96ae	-0.026683178
51	0x3ca66328	0.020310953
52	0x3c874b76	0.016515475
53	0x3d289e81	0.041166786
54	0xbcbf55bc	-0.023356311
55	0x3c6bebbd	0.014399466
56	0x3d43aab8	0.047770232
57	0x3d91f503	0.071268104
58	0xbcc755ea	-0.02433296
59	0x3d884ffd	0.066558816
60	0x3ce0c6d3	0.027438557
61	0xbcee01ce	-0.029053595
62	0xbcf54777	-0.029941304
63	0x3d459781	0.04824019
64	0x3cd52132	0.026016805
65	0x3d67c799	0.056586836
66	0xbd2ed7ed	-0.04268639
67	0x3ced58aa	0.028972942
68	0xbcd941a9	-0.026520567
69	0xbcf4af0d	-0.029868627
70	0xbc06b637	-0.008222154
71	0x3d06e14e	0.03292971
72	0xbd677617	-0.056509104
73	0x3d182f25	0.037154336
74	0x3d588f64	0.052871123
75	0x3ca798dd	0.020458633
76	0x3d1f7aa3	0.038935315
77	0xbcd050b4	-0.025429107
78	0x3ae1f9f8	0.0017240634
79	0xbd8726bb	-0.06599184
80	0xbc90b3fb	-0.017663946
81	0x3c813841	0.015773894
82	0xbcab6302	-0.020921234
83	0xbd8a4ce4	-0.06752947
84	0x3d53d170	0.051713407
85	0x3c6d8324	0.014496598
86	0xbd4f6fec	-0.050643846
87	0xbd4f7469	-0.050648127
88	0xbce73077	-0.028221352
89	0xbd37bb2c	-0.044856235
90	0xbd695eb6	-0.05697509
91	0xbbe8dd1c	-0.0071064364
92	0x3d5f18dd	0.05446707
93	0x3d56fcac	0.05248706
94	0x3d0a50c4	0.03376843
95	0xbcc67607	-0.024226202
96	0x3c4c7f02	0.012481453
97	0x3b813e6d	0.0039442093
98	0xbd488970	-0.048959196
99	0xbcc2ba05	-0.023770342
100	0xbc2672e5	-0.010159229
101	0xbcf889b6	-0.030339103
102	0xbcb43f86	-0.022002947
103	0xbc9096b5	-0.017649988
104	0x3d605d4c	0.054776475
105	0x3cfa7d1a	0.030577231
106	0x3d96abf7	0.073570184
107	0xbd20fcd0	-0.0393036
108	0x3cf1fb11	0.029538663
109	0xb8640262	-5.4361655e-05
110	0x3c2fa278	0.010719888
111	0xbd0d7c27	-0.03454223
112	0xbd935b9a	-0.07195206
113	0x3c2a3a76	0.010389915
114	0xbd304148	-0.043031007
115	0x3d858d67	0.06521111
116	0x3d0c5a8b	0.034266036
117	0x3c1a30ff	0.009411096
118	0x3d099970	0.033593595
119	0xbd131cff	-0.035916325
120	0xbda36a80	-0.07979298
121	0x3bd4cfbf	0.006494492
122	0xbc1ca2e1	-0.009560318
123	0x3cd374a3	0.025812453
124	0xbd2b1c01	-0.041774753
125	0xbd831c3d	-0.064018704
126	0xbc09601c	-0.008384731
127	0xbb3fe1d7	-0.0029278898
128	0x3d9cc0d5	0.07653967
129	0xbd3d3123	-0.04618944
130	0x3d5dbb39	0.054133628
131	0xbc80c2ec	-0.015717946
132	0xbd4f35c5	-0.050588388
133	0x3d7210d9	0.0590981
134	0x3aa843e6	0.0012837618
135	0xbb318b27	-0.0027090998
136	0x3b9ed975	0.0048477002
137	0xbd0e5198	-0.034745783
138	0xbce1a8f0	-0.027546376
139	0xbd0c62a0	-0.034273744
140	0x3d008df2	0.03138537
141	0xbcbc2f58	-0.022971794
142	0xbce8bfa8	-0.028411701
143	0xbcacd18b	-0.021096012
144	0x3c899fa5	0.016799757
145	0x3cdeb3b6	0.027185302
146	0x391c2034	0.00014889316
147	0x3cd925de	0.026507314
148	0x3d2b007c	0.04174851
149	0xbb394fbe	-0.002827629
150	0xbb99cd20	-0.0046936423
151	0x3d6e21fd	0.058137883
152	0xbce25cbb	-0.027632108
153	0x3cbc6339	0.022996532
154	0xbc9b9143	-0.018990165
155	0x3d805cfd	0.06267736
156	0x3d6c1b48	0.057643205
157	0x3d92a26e	0.07159887
158	0x3d4af8cb	0.049553674
159	0xbd691718	-0.05690679
160	0xbd6ba80a	-0.0575333
161	0xbc3b4ad9	-0.011431419
162	0x3d1f76f1	0.03893179
163	0x3cdbb016	0.026817363
164	0x3be3f549	0.0069567305
165	0xb995c56f	-0.00028566594
166	0x3c904164	0.017609306
167	0x3c3aeeaf	0.011409446
168	0x3d90544f	0.070473306
169	0x3d7965d3	0.060888123
170	0x3db676be	0.08909367
171	0x3c8d5eea	0.017257173
172	0x3d447bd8	0.04796967
173	0x3c473b95	0.012160202
174	0x3d035850	0.032066643
175	0xbc45dcde	-0.012076585
176	0x3d9fc7ec	0.07801804
177	0x3c3cf319	0.011532568
178	0xbc5757ec	-0.013143521
179	0xbd204f11	-0.039137904
180	0x3cd6b3ac	0.026208721
181	0x3a163c5a	0.0005731039
182	0xbd7b411b	-0.061341386
183	0x3d3a5dfc	0.045499787
184	0x3d14405a	0.036194183
185	0x3d52a831	0.05142993
186	0x3cb46fa3	0.022025889
187	0x3d01cc9f	0.031689283
188	0xbd3cfec3	-0.046141397
189	0x3d648d50	0.05579883
190	0x3da4f377	0.0805425
191	0x3a0387ad	0.00050174707
192	0x3d05e3f8	0.03268811
193	0xbab0d42b	-0.0013490965
194	0xbcf607c6	-0.030033004
195	0x3d886549	0.066599436
196	0x3d8fa6fc	0.070142716
197	0xbd53cb8a	-0.05170778
198	0xbd18b18b	-0.037278693
199	0x3d417cfb	0.04723833
200	0x3cc4f5cb	0.024042984
201	0xbc564f40	-0.013080418
202	0x3c66de27	0.014091051
203	0xbca63019	-0.020286607
204	0x3d3359fa	0.04378698
205	0xbd125379	-0.035724137
206	0xbaf00a89	-0.0018313687
207	0xbc7e490f	-0.015520348
208	0xbd202ee3	-0.039107215
209	0x3ce06200	0.02739048
210	0x3cad3538	0.02114354
211	0x3d0e7fb8	0.03478977
212	0x3c725d68	0.014792778
213	0x3addfc31	0.0016936121
214	0x3ad9ee01	0.0016626717
215	0x3d6b1b42	0.057399042
216	0x3c7f387a	0.01557743
217	0x3cac859b	0.021059802
218	0x3d5b5246	0.05354526
219	0x3d9e2594	0.07722011
220	0x3d63c8dc	0.055611476
221	0xbd388b96	-0.045054995
222	0xbd16bf4f	-0.03680354
223	0x3d8aa647	0.06769996
224	0xbd8598c3	-0.065232776
225	0x3d8bcf08	0.068265975
226	0x3b9d714f	0.004804767
227	0x3c075f1e	0.008262424
228	0x3cde0cf5	0.027105788
229	0x3d0da670	0.034582555
230	0x3cd4bdb1	0.025969358
231	0x3c15ac10	0.009135261
232	0x3d5b90d6	0.053604923
233	0x3cba8b02	0.022771362
234	0x3cb6cb89	0.02231385
235	0xbd2e2b30	-0.042521656
236	0x3d99fac2	0.075185314
237	0xbd27cdea	-0.04096786
238	0x3d52693b	0.051369887
239	0xbca4f7f1	-0.020137759
240	0xbbc27124	-0.0059338976
241	0x3d8de725	0.06928853
242	0x3d39c9f0	0.0453586
243	0x3d52b518	0.051442236
244	0x3c615f6d	0.013755661
245	0x3d669811	0.056297366
246	0xbd4a1695	-0.049337942
247	0x3d0f419f	0.03497469
248	0x3c60f82d	0.013731045
249	0xbdaae589	-0.083445616
250	0x3d2514b9	0.040302966
251	0xbcc173dc	-0.023614816
252	0x3ca1582c	0.019695364
253	0x3d99f4ae	0.07517372
254	0xbc216969	-0.009851792
255	0x3ccf8dce	0.025336172

model.6.weight f4 [3, 300]
0	0xbcc37cbf	-0.023863195
1	0xbbb688f0	-0.0055705234
2	0xbd436e10	-0.047712386
3	0x3d216ed9	0.039412353
4	0xba0c214f	-0.00053455395
5	0x3d86ea8f	0.06587707
6	0x3cbc6421	0.022996964
7	0xbd735a5c	-0.059412345
8	0xbd272e67	-0.040815737
9	0x3c97d3dc	0.01853364
10	0x3d482c62	0.04887045
11	0xbd054d68	-0.032544523
12	0xbc6518e7	-0.013982988
13	0xbc13a2a9	-0.009010949
14	0xbc382b8b	-0.01124085
15	0x3d413e55	0.047178585
16	0xbca1d0e5	-0.019752929
17	0x3d0a3077	0.033737626
18	0x3c9fd007	0.019508375
19	0x3c151931	0.009100244
20	0xba5cc3bd	-0.0008421501
21	0xbd74349f	-0.059620496
22	0x3bff7ddc	0.007796986
23	0xbd8b2d6e	-0.067957744
24	0x3cc3080e	0.023807552
25	0x3d672aa5	0.056437153
26	0x3d52dd7d	0.05148076
27	0xbc2ed0c5	-0.010669892
28	0xbcf44264	-0.029816814
29	0x3d5f318a	0.054490604
30	0x3d205e4a	0.03915242
31	0x3d52c9a1	0.05146182
32	0x3d854edc	0.06509182
33	0xbc47546e	-0.012166126
34	0xbbaaa7d3	-0.0052079945
35	0x3d221868	0.039574057
36	0xbd02b0a2	-0.03190673
37	0xbce323f4	-0.027727105
38	0x3cf5e2de	0.030015405
39	0xbd4ccfe1	-0.050002936
40	0x3ba0675d	0.0048951344
41	0x3c71c612	0.014756696
42	0xbc2011e1	-0.009769888
43	0x3d46ee44	0.04856707
44	0x3b2c4a12	0.0026289267
45	0x3d385165	0.0449995
46	0xbd00689f	-0.031349774
47	0x3c8ab940	0.016934037
48	0xbd4a49ff	-0.049386974
49	0x3cd8cabe	0.026463863
50	0x3b174567	0.0023082139
51	0xbce29eb5	-0.027663568
52	0x3d6eeb57	0.058329906
53	0xbcce83f7	-0.02520941
54	0xbc10dd41	-0.008841814
55	0xbb7d0421	-0.0038607197
56	0xbd5a8535	-0.053349692
57	0x3c9e8688	0.019351259
58	0x3d4c1393	0.049823355
59	0x3ccc8e25	0.024970124
60	0xbd4f2e4d	-0.050581265
61	0x3d4b8046	0.049682878
62	0x3d1a4fe8	0.03767386
63	0x3cdf13f7	0.0272312
64	0x3ca75a15	0.020428697
65	0xbd58f3ac	-0.05296676
66	0x393a52b8	0.00017769157
67	0xbcfa2ca0	-0.030538857
68	0x3d6c052f	0.05762213
69	0xbd2707b8	-0.040778846
70	0xbd282555	-0.041051228
71	0xbd5130c0	-0.051071882
72	0x3d2ad28e	0.041704707
73	0xbd2e15f5	-0.04250141
74	0x3d323bec	0.043514177
75	0xbd198024	-0.03747572
76	0x3ceb62cb	0.028733632
77	0xbd29ba33	-0.04143734
78	0xbbd389f7	-0.0064556557
79	0x3c0de15c	0.008659687
80	0x3d104820	0.035225034
81	0x3cd6c66c	0.026217662
82	0xbc859e9d	-0.016310984
83	0x3d69061c	0.056890592
84	0xbd633f3c	-0.055480227
85	0x3cc41554	0.023935951
86	0x3c46a891	0.01212515
87	0xbd696070	-0.056976736
88	0x3a6847ba	0.0008860786
89	0x3cb949da	0.022618223
90	0xbc9c4d58	-0.01907985
91	0x3cdd8419	0.027040528
92	0xbc843851	-0.016140135
93	0xbc011308	-0.007878073
94	0x3cab3bd6	0.020902555
95	0xbcbee883	-0.02330423
96	0xbc4f8726	-0.012666499
97	0xbb490f53	-0.00306793
98	0x3d5b2274	0.053499654
99	0xbcc04ff2	-0.02347562
100	0x3d293317	0.04130849
101	0x3d4fba18	0.050714582
102	0x3d513011	0.05107123
103	0x3d2b2119	0.04177961
104	0x3b3cddf1	0.002881881
105	0xbd828aea	-0.06374152
106	0xbd191863	-0.037376773
107	0x3c0a9229	0.008457699
108	0xbd116c6a	-0.035503782
109	0x3c8340df	0.016022144
110	0xbd369e3d	-0.0445845
111	0x3d5a2307	0.05325606
112	0x3ccb4f55	0.024818102
113	0x3c9275fe	0.017878529
114	0xbd24478e	-0.040107302
115	0xbd5afd42	-0.05346418
116	0x3d18d72d	0.037314583
117	0xbd209421	-0.039203767
118	0xbd65ecbb	-0.056133967
119	0xbc363e1d	-0.011123207
120	0xbc3fe69d	-0.011712697
121	0xbd11a42f	-0.03555697
122	0xbd4c704f	-0.049911793
123	0x3d49faf2	0.049311586
124	0x3d47be17	0.04876527
125	0xbc15db0d	-0.009146464
126	0xbd56fee3	-0.052489173
127	0x3d3a8c35	0.045543868
128	0xbb282c16	-0.0025661043
129	0xbd2de545	-0.042454977
130	0xbb49df02	-0.003080309
131	0x3d77409e	0.060364358
132	0x3b9c7280	0.0047743917
133	0x3c637920	0.013883859
134	0xbc262c9e	-0.0101424735
135	0x3c0b5ea8	0.0085064545
136	0x3cd209d4	0.025639452
137	0x3cdd345f	0.027002512
138	0xbbf6ddfa	-0.007533786
139	0xbca0e950	-0.019642502
140	0x3b9a03ce	0.0047001606
141	0x3ceea73b	0.029132476
142	0x3d5aff2a	0.053466
143	0x3d18d06b	0.037308138
144	0x3d3aee9d	0.045637716
145	0x3c27de05	0.010245805
146	0xbcf0a206	-0.029374134
147	0xbd352d47	-0.044232633
148	0x3d5bcb56	0.053660713
149	0xbb74f1b6	-0.0037375516
150	0x3d3c5e62	0.045988448
151	0xbd877b7a	-0.06615348
152	0xbbc1d47a	-0.0059152218
153	0xbd035df4	-0.032072023
154	0x3d552996	0.052041613
155	0xbb8de3d4	-0.0043301377
156	0x3d7ef528	0.062245518
157	0x3d6bc4fa	0.0575609
158	0x3d111974	0.035424665
159	0xbba46a69	-0.005017568
160	0xbd08aef2	-0.033369966
161	0x3c2c0446	0.010499066
162	0x3cf08e42	0.029364709
163	0xbcfea6b9	-0.031085359
164	0x3b463130	0.003024172
165	0x3c660b33	0.014040756
166	0xbd6660a1	-0.056244496
167	0xbbbfb4bc	-0.0058504026
168	0xbd404f27	-0.046950486
169	0x3c816309	0.015794294
170	0xbd5582d6	-0.052126728
171	0xbd5aece2	-0.053448565
172	0xbd10ede8	-0.035383135
173	0x3ccc9220	0.024972022
174	0x3d50e7a2	0.051002152
175	0xbc3a47c8	-0.011369653
176	0xbd28c9ae	-0.04120796
177	0xbd8a5da7	-0.06756144
178	0xbcc9536c	-0.024575911
179	0xbd1a239e	-0.037631623
180	0x3d09d51e	0.03365051
181	0xbc2fa3db	-0.0107202185
182	0xbcba2f1e	-0.022727545
183	0x3c288ade	0.010287015
184	0x3cd08378	0.025453314
185	0xbceca673	-0.028887963
186	0x3ca83f60	0.020538032
187	0x3d811aa8	0.063039124
188	0x3d456425	0.04819121
189	0xbb0ae7a3	-0.0021195195
190	0xbcf1d72a	-0.029521544
191	0xbb86e328	-0.0041164346
192	0x3cd2f3d6	0.025751036
193	0xbd3a0e3e	-0.04542374
194	0xbc9c96e4	-0.019114919
195	0x3d0c42b4	0.0342433
196	0x3d46a0c0	0.048493147
197	0x3ce65891	0.028118404
198	0xbc8fb933	-0.017544365
199	0xbd50658d	-0.050878096
200	0xbaf3717f	-0.0018573253
201	0x3c2dbc00	0.010603905
202	0x3cf18f15	0.029487172
203	0xbcb58911	-0.022160085
204	0xbd1448a8	-0.036202103
205	0xbcfba9c5	-0.0307206
206	0xbc23c163	-0.009994837
207	0xb94eecef	-0.00019733956
208	0xbd220442	-0.03955484
209	0x3d7cb83d	0.06169914
210	0x3c2f7fe2	0.010711642
211	0xbb26f564	-0.0025475854
212	0xbd3fb1ec	-0.04680054
213	0x3d648346	0.055789255
214	0x3a82e6ed	0.0009987034
215	0x3b3cb7ee	0.0028796154
216	0xbcd0ab3f	-0.025472282
217	0x3d095c83	0.03353549
218	0xbd2f1b31	-0.04275054
219	0x3d874325	0.06604604
220	0x3c592795	0.013254066
221	0xbd80fd63	-0.0629833
222	0xbc23cb79	-0.009997242
223	0xbc783829	-0.015150108
224	0xbd172fee	-0.036910944
225	0xbd115ca0	-0.035488725
226	0x3cd1fc04	0.025632866
227	0xbd3ce1ac	-0.046113655
228	0x3d3aaab6	0.04557296
229	0xbc1c4b49	-0.009539434
230	0xbc9b67a5	-0.01897032
231	0xbd009ef6	-0.031401597
232	0x3d2d5bae	0.04232376
233	0x3d2ba9b6	0.041909896
234	0x3d211c99	0.039333913
235	0x3cfe40dd	0.031036789
236	0xbd4272cb	-0.047472756
237	0x3cf3a041	0.029739501
238	0x3b94510c	0.004526263
239	0xbc611ef9	-0.013740295
240	0x3c15d078	0.009143941
241	0xbd493dfe	-0.049131386
242	0xbd705096	-0.058670603
243	0xbd3ff920	-0.046868443
244	0xbd69ccb8	-0.05708
245	0xbd660622	-0.056158192
246	0xbd55c5a8	-0.052190453
247	0xbd014661	-0.03156126
248	0x3d84e8eb	0.06489738
249	0xbcab6dc3	-0.020926362
250	0xbc980c9d	-0.018560702
251	0x3d095ecb	0.033537667
252	0x3d565a9d	0.05233251
253	0xbd44ff69	-0.04809514
254	0xbca14ead	-0.019690836
255	0x3d05d86b	0.032677095

model.6.bias f4 [3]
0	0x3d1a4e2f	0.037672218
1	0xbc47ee43	-0.012202802
2	0xbd247d0c	-0.040158316
