models/basic_lossv0_model_1.pth (torch_old, 328601 bytes, 8 tensors)

model.0.weight f4 [100, 3]
0.33402407 0.39540666 -0.17172208 -0.2159927 -0.16645171 -0.40440002 -0.46242222 0.41496333
0.30855918 0.42436934 0.316121 -0.43809474 0.20413612 -0.19271944 0.4391594 0.07527217
-0.21348487 -0.47256857 0.39169696 0.2603671 0.034129206 0.47031713 -0.10364078 0.05977597
-0.36141488 -0.2521168 -0.46908173 -0.5328436 0.48112783 -0.6285513 0.2529643 -0.30089584
0.42225108 0.12822011 0.27918047 -0.51564765 0.44794318 -0.26522127 0.43844816 0.07241119
-0.08681853 -0.42748863 0.5114203 -0.10901402 -0.28865248 -0.3399023 -0.53206813 0.21191382
-0.47914252 0.45683503 0.40845767 -0.20598318 0.09819438 0.4548334 -0.1298646 -0.25157952
0.544511 0.47748548 0.07330924 0.5566204 0.5272202 -0.1354616 0.35221505 -0.35729912
-0.22234583 -0.46558085 0.40271622 0.38314626 0.1376676 -0.5069728 0.4507365 0.44993502
0.055135686 0.02729406 0.51658905 0.15843134 0.15262632 -0.014723558 0.46261355 0.32504204
0.27220094 -0.03757808 -0.35903138 0.1290715 -0.0626956 0.09562945 0.35841727 -0.1582832
-0.3816206 -0.49138033 0.5205693 0.28487566 -0.2424613 -0.12508358 0.47684723 0.10549813
0.33305746 0.08194162 0.16892658 0.21141906 0.4634266 -0.41228443 0.29310983 0.114259616
0.13662004 0.50743264 0.1516032 -0.47922635 -0.29817122 -0.4789851 -0.60318667 0.31885654
-0.50222635 0.07704093 -0.0816158 -0.50151026 0.5110085 -0.40262586 -0.07084022 0.0070263837
0.48914278 0.29732883 0.54899544 -0.07344453 -0.28791016 -0.43568224 -0.013721979 0.04569642
0.06910696 -0.16437395 0.15665872 -0.3549843 -0.37637922 0.2447219 0.14063068 0.29540834
-0.41561845 -0.15492561 0.2765003 -0.029155424 -0.4126443 -0.44951403 -0.54252076 0.307736
0.43535063 0.37994576 -0.31854677 -0.113074094 0.21780045 0.41598392 -0.44590938 -0.31498408
-0.31115255 -0.2475444 0.15336393 0.14021704 0.49826613 -0.13643555 -0.32297754 -0.043030027
0.2143298 0.1888555 -0.10446077 0.10307082 -1.1110796 -0.0044222767 -0.52730757 -0.23203841
0.3183555 -0.5537116 0.5494691 -0.11751184 -0.023147028 -0.62603843 -0.12810726 0.30225384
0.20974386 -0.5186608 -0.41473094 0.103592776 0.41432163 0.27217153 -0.41544306 0.055161037
-0.27187893 0.21100985 -0.093216814 0.30668876 -0.40784052 -0.32531565 0.22732073 0.4810846
0.24286012 -0.059891526 0.27395725 -0.4758257 0.50369436 -0.015330231 0.21520361 0.2614863
-0.14747515 0.20098133 0.3812928 -0.15863262 -0.50125706 -0.22731073 -0.38070205 0.08364102
0.17216626 0.13354473 0.07431738 0.16247356 -0.36017078 0.43536296 -0.35380477 0.1795021
-0.19987838 0.1169238 -0.8065208 -0.54311407 -0.27423927 0.5563804 -0.32632425 0.56307584
0.49349722 0.26633677 -0.4512821 0.24592523 -0.452992 -0.5554414 0.15115863 -0.43302047
-0.2229725 0.2044363 0.3764247 -0.04989541 0.20766191 0.32638377 0.07918118 0.41481495
-0.44720986 -0.10904532 0.262179 -0.015952157 0.030980736 0.19388944 -0.13765441 0.1156017
-0.3608564 -0.017848365 0.356558 -0.0063402103 -0.28915408 -0.429755 0.4380482 -0.14010327
00000000: 3405 ab3e be72 ca3e ead7 2fbe 312d 5dbe
00000010: 5172 2abe 850d cfbe 9bc2 ecbe 1376 d43e
00000020: 78fb 9d3e f046 d93e 9dda a13e f44d e0be
00000030: 0f09 513e 3f58 45be 80d9 e03e 4c28 9a3d
00000040: c79b 5abe 82f4 f1be 818c c83e d64e 853e
00000050: 11cb 0b3d 68cd f03e 9e41 d4bd a6d7 743d
00000060: 5f0b b9be 7415 81be 7b2b f0be 7068 08bf
00000070: 6356 f63e bde8 20bf 8984 813e 050f 9abe
00000080: 4b31 d83e 224c 033e bef0 8e3e 7c01 04bf
00000090: cf58 e53e 15cb 87be 477c e03e 514c 943d
000000a0: eacd b1bd cadf dabe 71ec 023f be42 dfbd
000000b0: 42ca 93be ad07 aebe 9e35 08bf f0ff 583e
000000c0: 2b52 f5be 48e6 e93e 5d21 d13e 41ed 52be
000000d0: 231a c93d ecdf e83e 3afb 04be 08cf 80be
000000e0: 1365 0b3f fa78 f43e 2823 963d ad7e 0e3f
000000f0: e7f7 063f 72b6 0abe 8855 b43e e9ef b6be
00000100: a0ae 63be 9d60 eebe d230 ce3e bf2b c43e
00000110: bcf8 0c3e f8c8 01bf efc6 e63e e25d e63e
00000120: f5d5 613d cb97 df3c 2e3f 043f d33b 223e
00000130: 134a 1c3e 143b 71bc afdb ec3e e96b a63e
00000140: ec5d 8b3e 79eb 19bd f6d2 b7be 522b 043e
00000150: 8d66 80bd 60d9 c33d 7882 b73e fe14 22be
00000160: c663 c3be 3496 fbbe 0844 053f 39db 913e
00000170: c647 78be e915 00be 5225 f43e 670f d83d
00000180: 8286 aa3e 02d1 a73d 17fb 2c3e 3d7e 583e
00000190: 4046 ed3e f216 d3be 7e12 963e f200 ea3d
000001a0: 20e6 0b3e 1be7 013f df3d 1b3e 285d f5be
000001b0: e6a9 98be 893d f5be 716a 1abf 2a41 a33e
000001c0: e891 00bf a3c7 9d3d 2f26 a7bd fa62 00bf
000001d0: 74d1 023f fa24 cebe ad14 91bd 943d e63b
000001e0: ec70 fa3e 7c3b 983e f78a 0c3f 166a 96bd
000001f0: f668 93be be11 dfbe 27d2 60bc 2b2c 3b3d
00000200: f387 8d3d a551 28be 256b 203e 81c0 b5be
00000210: c7b4 c0be 6198 7a3e 7d01 103e c33f 973e
00000220: f1cb d4be d2a4 1ebe 7391 8d3e 5bd7 eebc
00000230: 1d46 d3be b426 e6be a4e2 0abf 938f 9d3e
00000240: 47e6 de3e 4088 c23e 9018 a3be 6493 e7bd
00000250: 1507 5f3e d8fb d43e 3c4e e4be 9845 a1be
00000260: 634f 9fbe 477c 7dbe 6f0b 1d3e 0e95 0f3e
00000270: bd1c ff3e c3b5 0bbe 505d a5be 4140 30bd
00000280: 4579 5b3e 5663 413e 87ef d5bd cb16 d33d
00000290: db37 8ebf bfe8 90bb a1fd 06bf 7a9b 6dbe
000002a0: 7eff a23e 0bc0 0dbf 02aa 0c3f 0caa f0bd
000002b0: d69e bdbc 0e44 20bf 8d2e 03be 04c1 9a3e
000002c0: 18c7 563e f4c6 04bf 9d57 d4be 7328 d43d
000002d0: f721 d43e 115a 8b3e f4b4 d4be 8af0 613d
000002e0: b733 8bbe f712 583e 75e8 bebd 4f06 9d3e
000002f0: 79d0 d0be c68f a6be c4c6 683e b850 f63e
00000300: 53b0 783e d150 75bd 2044 8c3e 6d9f f3be
00000310: 1df2 003f a62b 7bbc 565e 5c3e 88e1 853e
00000320: ba03 17be 0dce 4d3e cf38 c33e 9770 22be
00000330: 6252 00bf 25c4 68be 61eb c2be fc4b ab3d
00000340: 5a4c 303e f3bf 083e b633 983d 785f 263e
00000350: 4e68 b8be e5e7 de3e e625 b5be 66cf 373e
00000360: ebac 4cbe bf75 ef3d 2678 4ebf 8609 0bbf
00000370: 1769 8cbe f26e 0e3f f913 a7be bd25 103f
00000380: abab fc3e 4b5d 883e 730e e7be d3d3 7b3e
00000390: 91ee e7be 6831 0ebf 54c9 1a3e dcb4 ddbe
000003a0: e752 64be c057 513e bdba c03e 215f 4cbd
000003b0: 53a5 543e c61b a73e be29 a23d a062 d43e
000003c0: b1f8 e4be 2753 dfbd 533c 863e 19ae 82bc
000003d0: 50cb fd3c f48a 463e 47f5 0cbe 96c0 ec3d
000003e0: 2cc2 b8be bc36 92bc c58e b63e 8ac1 cfbb
000003f0: 010c 94be d908 dcbe db47 e03e 3b77 0fbe

model.0.bias f4 [100]
0.053248387 -0.12521677 -0.024817338 0.3202835 0.26590493 0.1274065 -0.57382876 0.4073592
-0.1679777 0.18780176 0.039468877 -0.06695889 0.35322186 -0.18515459 0.45924562 -0.47332415
0.38053203 -0.33711457 -0.21495487 0.14756237 -0.12229672 0.20633107 0.24031056 -0.58878905
-0.40242407 -0.2720075 -0.0047466788 -0.09573186 0.2640268 -0.48533368 -0.30290478 0.44553393
-0.44182938 -0.42940688 0.4853833 -0.16126947 -0.0044465624 0.20782794 0.49032158 -0.5729763
-0.23184672 0.081881374 0.4744106 -0.20809123 -0.005901721 -0.49238476 -0.5631698 -0.092081286
-0.31020927 0.46562955 0.0049948865 -0.17838475 -0.31536105 0.46764234 -0.5418586 0.07250261
-0.3436901 0.5304031 -0.5813204 0.31500214 -0.118429914 0.1358009 -0.43241704 0.30247858
-0.5644014 0.55427045 0.041071817 0.23163424 -0.08038044 0.3304871 -0.4303439 0.12954381
-0.4918995 -0.2378913 -0.37302676 -0.5477205 0.06356441 0.18670775 0.34328684 -0.27363142
-0.5449422 -0.07581186 -0.4554236 -0.46599752 -0.27104414 0.5965074 -0.27839902 -0.31913015
-0.105450846 -0.06245848 0.45525104 -0.22189836 0.00052035425 0.23593628 -0.543817 0.47965032
-0.27164736 0.2837917 -0.43213296 0.16146049
00000000: fb1a 5a3d d338 00be bb4d cbbc 33fc a33e
00000010: b124 883e d976 023e 71e6 12bf 6391 d03e
00000020: 5902 2cbe 1b4f 403e 1eaa 213d be21 89bd
00000030: 7fd9 b43e 2a99 3dbe 3e22 eb3e 8b57 f2be
00000040: 18d5 c23e 489a acbe 211d 5cbe 971a 173e
00000050: b476 fabd 7448 533e f913 763e e1ba 16bf
00000060: 870a cebe 9144 8bbe 078a 9bbb 110f c4bd
00000070: 852e 873e a87d f8be 5616 9bbe 061d e43e
00000080: 7637 e2be 38db dbbe 2984 f83e d323 25be
00000090: 78b4 91bb d9d0 543e 6e0b fb3e 93ae 12bf
000000a0: 3a69 6dbe 6cb1 a73d f2e5 f23e de15 55be
000000b0: 3963 c1bb db19 fcbe e52b 10bf 1d95 bcbd
000000c0: c0d3 9ebe ff66 ee3e 25ac a33b 7eaa 36be
000000d0: 0177 a1be d16e ef3e 3fb7 0abf 407c 943d
000000e0: 26f8 afbe 7fc8 073f 6ad1 14bf f647 a13e
000000f0: 628b f2bd 640f 0b3e c465 ddbe 79de 9a3e
00000100: 9c7c 10bf abe4 0d3f ec3a 283d 8731 6d3e
00000110: 809e a4bd 9b35 a93e 0956 dcbe 22a7 043e
00000120: 40da fbbe c799 73be 5dfd bebe 6937 0cbf
00000130: 0f2e 823d 5130 3f3e 4bc3 af3e 6b19 8cbe
00000140: 5581 0bbf 4043 9bbd 482d e9be 3a97 eebe
00000150: 4cc6 8abe b5b4 183f 518a 8ebe 0765 a3be
00000160: 9df6 d7bd 77d4 7fbd aa16 e93e 5339 63be
00000170: 6268 083a 4899 713e 9737 0bbf ba94 f53e
00000180: 5d15 8bbe 254d 913e 8840 ddbe e655 253e

model.2.weight f4 [200, 100]
-0.028569255 0.09507753 0.055404887 0.0682726 0.08590866 0.10467578 -0.023644578 -0.08410968
0.10632837 0.058594607 -0.08368603 0.07719969 -0.054281935 -0.07025837 0.048378363 0.10098195
0.004598515 0.045904934 -0.05593064 0.026393836 0.017803527 -0.02101889 0.06995205 0.01002506
-0.03225335 -0.027571075 0.029793669 0.08055569 0.036437016 -0.016853468 0.03506067 -0.005057804
-0.057912555 -0.0045540645 -0.040675387 0.051135123 0.08802315 -0.040026158 -0.054146834 0.0025689194
-0.07173292 0.039594688 0.025670359 -0.027580667 -0.04827648 0.032667935 -0.038946953 0.10987041
-0.04461619 -0.018564647 0.10020493 0.11454616 -0.004110341 0.039738297 -0.06834931 -0.060373124
0.0460663 -0.033495065 -0.082573615 0.12419517 -0.019610643 -0.03708272 0.07851556 -0.029197747
0.07264608 0.015442986 0.066618845 -0.0476745 0.0087616015 -0.015342374 -0.03593632 -0.06593058
-0.034216374 0.041783653 0.08509486 -0.032159947 0.054596562 0.07520744 0.023359623 0.03551418
-0.014141479 0.016479157 0.08052147 0.040277056 0.1181494 0.048429724 -0.0015922731 0.08028193
0.027300727 0.009503965 0.06755645 -0.01764336 -0.09394365 -0.029096534 0.03992858 0.02602666
-0.07585009 0.05063642 -0.05995574 0.08761816 0.0017320368 -0.08617935 0.08216655 0.07950092
-0.09182328 -0.045114867 -0.08931671 0.022065585 0.059622914 -0.094792515 -0.022138502 -0.028184002
0.022881076 -0.036532793 -0.017953342 -0.021465387 -0.027229622 -0.009175176 0.079235606 -0.094577745
0.067497276 -0.037657794 0.041549385 -0.03167111 -0.11332045 -0.033977345 -0.023344552 -0.0109841535
-0.05519644 0.09674787 0.08560146 0.04133674 0.0017343027 -0.063032754 -0.08462288 -0.09860244
0.061939824 -0.073465265 -0.026305325 0.0373398 0.035605542 -0.0856399 -0.093548365 -0.03504566
-0.045159686 0.007483691 -0.08648962 -0.050608564 0.05794715 -0.0089031365 0.06896235 0.024576962
0.06900623 -0.07908301 0.01680536 -0.030427745 0.030108992 -0.0719501 0.070752755 -0.08669394
0.028954385 0.053151686 0.038742673 -0.01747931 0.034985524 -0.06180783 -0.07757274 0.06450252
0.009644063 -0.07706601 -0.072233394 0.08606545 0.03629882 -0.1084181 0.07748299 0.021669121
0.03372952 0.06736966 -0.100566156 0.051388934 -0.051339123 -0.018975958 -0.06673674 -0.09735599
-0.03539797 -0.0463718 0.062750995 -0.0037963553 -0.032496374 0.0006033114 0.018361295 -0.07518053
-0.09085065 -0.018999694 -0.0069086947 0.019646047 -0.049116783 0.027875984 0.079079814 0.038067356
0.02547857 -0.009595254 0.116567045 -0.13218439 -0.034657333 0.0384404 0.016268535 0.07511527
0.056443788 0.070417635 -0.065466054 -0.0020566091 0.07026721 -0.029822543 0.09011566 -0.09419597
-0.002969875 -0.0024989978 0.034736626 0.071440555 0.057011183 0.03840082 -0.07294483 -0.014434325
0.09926996 -0.09633282 -0.05675667 -0.087268546 -0.0029698396 0.051974375 0.046428345 0.099815845
-0.022074014 -0.07231711 0.044661812 0.048744775 0.043163992 -0.033539165 -0.09354085 0.045402553
-0.08410147 -0.008149291 -0.08271921 0.08324725 0.026795434 -0.06895389 0.107664905 0.079526946
0.04203558 0.01817766 -0.08131041 0.08875482 0.044401556 -0.04378906 -0.08233749 -0.014237506
00000000: 120a eabc 02b8 c23d 3cf0 623d 81d2 8b3d
00000010: e1f0 af3d 4160 d63d 46b2 c1bc b241 acbd
00000020: b0c2 d93d e600 703d 9563 abbd df1a 9e3d
00000030: bc56 5ebd 9fe3 8fbd 6428 463d a0cf ce3d
00000040: 24af 963b d006 3c3d 8717 65bd e337 d83c
00000050: b4d8 913c cf2f acbc 0543 8f3d 2640 243c
00000060: 171c 04bd bcdc e1bc da11 f43c 62fa a43d
00000070: fb3e 153d 4910 8abc c79b 0f3d efbb a5bb
00000080: b735 6dbd 433a 95bb 3c9b 26bd 1073 513d
00000090: 7b45 b43d 78f2 23bd 12c9 5dbd 515b 283b
000000a0: b6e8 92bd 0a2e 223d a54a d23c daf0 e1bc
000000b0: 8fbd 45bd d0ce 053d d786 1fbd bd03 e13d
000000c0: 77bf 36bd e314 98bc 3e38 cd3d 2d97 ea3d
000000d0: 0ab0 86bb a0c4 223d b9fa 8bbd cf49 77bd
000000e0: 04b0 3c3d 1f32 09bd 5b1c a9bd 0a5a fe3d
000000f0: 80a6 a0bc 0de4 17bd c4cc a03d 1d30 efbc
00000100: 78c7 943d 9404 7d3c 766f 883d 5646 43bd
00000110: d28c 0f3c 955e 7bbc f631 13bd 9d06 87bd
00000120: 7826 0cbd 5625 2b3d 3746 ae3d 26ba 03bd
00000130: a5a0 5f3d 5c06 9a3d ae5c bf3c 5177 113d
00000140: a9b1 67bc 4cff 863c 71e8 a43d 8ef9 243d
00000150: 50f8 f13d 3f5e 463d d2b3 d0ba da6a a43d
00000160: c6a5 df3c 85b6 1b3c 095b 8a3d cf88 90bc
00000170: 8765 c0bd db5b eebc 278c 233d dd35 d53c
00000180: 4b57 9bbd 2268 4f3d 2694 75bd 2671 b33d
00000190: 8305 e33a cd7e b0bd f046 a83d 61d1 a23d
000001a0: d80d bcbd 5eca 38bd aeeb b6bd e3c2 b43c
000001b0: 2837 743d 9422 c2bd ce5b b5bc 23e2 e6bc
000001c0: 1871 bb3c 69a3 15bd e312 93bc 2ed8 afbc
000001d0: a810 dfbc 7a53 16bc 4746 a23d fab1 c1bd
000001e0: 033c 8a3d 0f3f 1abd b02f 2a3d 91b9 01bd
000001f0: 8d14 e8bd d42b 0bbd 133d bfbc e1f6 33bc
00000200: aa15 62bd bf23 c63d d14f af3d b750 293d
00000210: 8b51 e33a 5117 81bd c34e adbd 13f0 c9bd
00000220: 9db4 7d3d f574 96bd 447e d7bc 9ef1 183d
00000230: 1ed7 113d f963 afbd 4996 bfbd 0a8c 0fbd
00000240: 5df9 38bd c039 f53b 7821 b1bd ed4a 4fbd
00000250: fe59 6d3d 76de 11bc 223c 8d3d a055 c93c
00000260: 2353 8d3d 46f6 a1bd 65ab 893c 9b43 f9bc
00000270: 22a7 f63c 935a 93bd d2e6 903d 988c b1bd
00000280: bf31 ed3c 95b5 593d a3b0 1e3d c530 8fbc
00000290: fb4c 0f3d 352a 7dbd 75de 9ebd e619 843d
000002a0: 2202 1e3c c9d4 9dbd 1aef 93bd 1543 b03d
000002b0: 12ae 143d 4f0a debd 67af 9e3d 7183 b13c
000002c0: f727 0a3d 1bf9 893d a1f5 cdbd 347d 523d
000002d0: f948 52bd 7873 9bbc 46ad 88bd 9462 c7bd
000002e0: 76fd 10bd 5bf0 3dbd 9883 803d 46cc 78bb
000002f0: eb1a 05bd 8b27 1e3a 6d6a 963c 40f8 99bd
00000300: e80f babd 3fa5 9bbc 5562 e2bb bff0 a03c
00000310: ae2e 49bd 2d5c e43c 99f4 a13d 84ec 1b3d
00000320: 6fb8 d03c 6a35 1dbc b4ba ee3d 585b 07be
00000330: d9f4 0dbd ae73 1d3d 9745 853c 09d6 993d
00000340: 9a31 673d 1f37 903d 1113 86bd 2dc8 06bb
00000350: 41e8 8f3d 684e f4bc 8f8e b83d d1e9 c0bd
00000360: 3ca2 42bb 3ac6 23bb fe47 0e3d 6d4f 923d
00000370: 8f84 693d 2e4a 1d3d 1964 95bd f27d 6cbc
00000380: 0c4e cb3d 244a c5bd af79 68bd dab9 b2bd
00000390: a4a1 42bb 15e3 543d a62b 3e3d 406c cc3d
000003a0: 90d4 b4bc fe1a 94bd 4eef 363d 9aa8 473d
000003b0: bacc 303d 5d60 09bd 5892 bfbd 07f8 393d
000003c0: 643d acbd 9b84 05bc b068 a9bd 897d aa3d
000003d0: 1982 db3c b237 8dbd 6b7f dc3d 06df a23d
000003e0: 802d 2c3d 51e9 943c 1286 a6bd 16c5 b53d
000003f0: 68de 353d 285c 33bd 8fa0 a8bd 6e44 69bc

model.2.bias f4 [200]
0.10543733 0.07953717 -0.019349266 0.031923685 -0.031953607 0.09502867 0.07008444 -0.0065588155
-0.028280761 0.059000418 -0.035698604 0.025076069 -0.035928007 0.026917042 0.020619554 0.047739483
0.047653463 0.09960608 0.049267616 0.093089886 -0.08444391 -0.021072065 0.041066065 0.08443421
0.017742807 -0.022228057 0.07014197 0.11415236 -0.07412269 -0.011284454 -0.033526324 0.010795822
0.013932287 -0.023547675 0.068482056 -0.010150499 0.023366716 -0.026991919 -0.07852621 0.06398343
-0.06984774 0.075985834 -0.06579907 -0.094215356 0.008402644 0.0067778435 -0.0036771079 -0.00785687
0.097741984 -0.029408615 -0.09754072 -0.08010016 0.054548685 0.116785385 0.010719239 -0.020897206
-0.07248715 0.02862235 0.011349528 0.07186515 -0.039774828 0.029684417 0.02779579 0.0043158997
-0.061630987 -0.064960316 -0.063952 0.060336053 -0.045081094 -0.041389845 0.07273705 -0.06397779
-0.07651502 0.10532893 0.031931534 -0.008923627 -0.02820116 0.033721484 -0.06314552 -0.083027534
0.037503596 -0.07882291 -0.047254845 -0.09729554 0.09126416 0.087899044 0.052836966 -0.073790126
0.012765088 -0.009772568 -0.05722892 -0.031123562 0.0954525 -0.04187674 0.021695577 -0.055127937
-0.010519105 0.07509637 -0.044220585 0.052392237 0.05148887 -0.031155031 0.06485384 0.10970083
-0.03914943 -0.011098908 0.015051179 0.057033233 0.09924121 -0.034175638 -0.029292215 -0.08348123
0.08074973 -0.05429444 0.04394875 0.047823027 -0.047953073 0.0032382198 0.09271889 -0.0033071688
-0.094219886 0.05923612 -0.076897345 -0.033304773 0.03746266 0.057062086 0.030561198 -0.013818704
-0.06814348 -0.114091516 0.014668905 0.018715492 -0.009667316 -0.07410817 0.056447025 0.10407652
-0.009731281 -0.05512687 0.06661064 -0.08565774 -0.07985537 0.07899537 0.07223556 0.10439892
-0.015053058 0.06912112 0.0809907 -0.06919546 -0.05612371 0.09201411 0.030590475 0.088805966
0.049528874 0.021340588 -0.10042507 -0.026736539 -0.02270189 -0.08611361 -0.08318528 0.02075245
-0.0012615094 0.0041034375 -0.0027718812 0.09303313 -0.038249362 -0.105764054 -0.0014720946 -0.08628448
-0.0069408515 -0.03694384 0.036674585 -0.050296225 0.024339823 0.053462554 0.013196699 0.10249153
0.046491798 0.09457074 0.04401359 -0.06859486 -0.07802664 0.040884707 -0.07644036 0.030127428
-0.095501155 0.036064725 0.073951565 0.0741258 0.013944251 0.058845304 0.086169794 -0.06698476
0.034500193 -0.020173017 0.104343615 0.070084594 -0.010092986 0.010913269 0.077713385 0.074870706
00000000: 87ef d73d 62e4 a23d 5a82 9ebc 69c2 023d
00000010: c9e1 02bd 649e c23d 6e88 8f3d 55eb d6bb
00000020: 0ead e7bc 6caa 713d b338 12bd 546c cd3c
00000030: 3f29 13bd 2181 dc3c 57ea a83c 7a8a 433d
00000040: 4730 433d 46fe cb3d d7cc 493d e9a5 be3d
00000050: eef0 acbd 539f acbc e434 283d d8eb ac3d
00000060: 5d59 913c 9d17 b6bc 98a6 8f3d b6c8 e93d
00000070: a3cd 97bd 6ee2 38bc e652 09bd f6e0 303c
00000080: 3f44 643c 0ee7 c0bc 5240 8c3d 474e 26bc
00000090: 8e6b bf3c 281e ddbc 59d2 a0bd bf09 833d
000000a0: 550c 8fbd 769e 9b3d aac1 86bd fbf3 c0bd
000000b0: 3eab 093c ac18 de3b a2fb 70bb 1aba 00bc
000000c0: f32c c83d 56ea f0bc 6ec3 c7bd 8d0b a4bd
000000d0: 716e 5f3d 2d2d ef3d bf9f 2f3c 9e30 abbc
000000e0: 2574 94bd 6b79 ea3c 5ff3 393c 092e 933d
000000f0: eeea 22bd bc2c f33c ffb3 e33c 646c 8d3b
00000100: c670 7cbd ea09 85bd 44f9 82bd f022 773d
00000110: f4a6 38bd 6688 29bd 2af7 943d ca06 83bd
00000120: e8b3 9cbd b2b6 d73d a4ca 023d 6834 12bc
00000130: 1e06 e7bc 8a1f 0a3d 7052 81bd 570a aabd
00000140: 5f9d 193d e86d a1bd 4c8e 41bd e242 c7bd
00000150: b4e8 ba3d 6a04 b43d 936b 583d 471f 97bd
00000160: a924 513c 1f1d 20bc df68 6abd d7f6 febc
00000170: 9a7c c33d f286 2bbd ecba b13c d5cd 61bd
00000180: 5358 2cbc 20cc 993d a520 35bd 3e99 563d
00000190: fee5 523d d638 ffbc 17d2 843d d4aa e03d
000001a0: 275b 20bd 32d8 35bc 3899 763c ae9b 693d
000001b0: fa3e cb3d c1fb 0bbd 3af6 efbc 35f8 aabd
000001c0: 1d60 a53d d963 5ebd 9b03 343d 14e2 433d
000001d0: 716a 44bd 5038 543b 67e3 bd3d 16bd 58bb
000001e0: 5bf6 c0bd 93a1 723d 5b7c 9dbd 966a 08bd
000001f0: 7272 193d efb9 693d 7a5b fa3c d867 62bc
00000200: cf8e 8bbd d0a8 e9bd d955 703c 3b51 993c
00000210: aa63 1ebc 06c6 97bd ff34 673d 1226 d53d
00000220: f36f 1fbc b6cc 61bd 296b 883d 536d afbd
00000230: 368b a3bd 53c8 a13d 3df0 933d 1acf d53d
00000240: 1aa1 76bc 608f 8d3d 74de a53d 59b6 8dbd
00000250: fae1 65bd e571 bc3d e098 fa3c e7df b53d
00000260: cade 4a3d 75d2 ae3c a9ab cdbd 9606 dbbc
00000270: 50f9 b9bc 555c b0bd 0b5d aabd 0b01 aa3c
00000280: 3b59 a5ba 2176 863b 73a8 35bb 2788 be3d
00000290: 5dab 1cbd d39a d8bd 4cf3 c0ba ebb5 b0bd
000002a0: 1570 e3bb 6d52 17bd 1738 163d 6a03 4ebd
000002b0: 4f64 c73c 8dfb 5a3d f836 583c 14e7 d13d
000002c0: 2f6e 3e3d 4eae c13d 9847 343d 767b 8cbd
000002d0: 6ecc 9fbd b976 273d c38c 9cbd cccd f63c
000002e0: 1c96 c3bd 9bb8 133d eb73 973d 44cf 973d
000002f0: 6e76 643c c607 713d ca79 b03d 4e2f 89bd
00000300: 1350 0d3d e241 a5bc 1bb2 d53d 8388 8f3d
00000310: 0d5d 25bc 91cd 323c 3228 9f3d d055 993d

model.4.weight f4 [300, 200]
0.034025818 -0.03380851 -0.00025222512 -0.07586184 0.061131105 0.018233575 -0.04109623 0.0017643262
0.02504436 -0.045686506 -0.050684083 0.06911463 0.044087846 0.05206132 0.04719623 -0.026642183
-0.012094216 0.0047079674 -0.03998623 -0.07967879 -0.04854023 0.0044292966 -0.028339464 0.02335021
-0.043989155 -0.055467732 -0.07365695 -0.01309697 -0.016928362 -0.0040385365 -0.016278274 -0.050994065
-0.047624595 -0.028590502 -0.08063974 0.064635 -0.061276633 -0.06888837 0.041411202 0.044657815
0.0047931545 -0.05925701 0.027454771 0.04249927 0.055327374 -0.066799134 0.060972203 0.025274184
0.032981206 0.031876214 0.04619851 -0.0072587924 0.0030623039 -0.19552511 -0.035218507 -0.055255596
-0.07623701 -0.03499908 0.029607506 -0.002380956 -0.011807519 -0.004497532 0.003998709 0.012103136
-0.030677134 0.04013733 0.0054547098 -0.043740954 0.027732925 0.006072973 -0.0023257295 -0.073859945
0.040964168 -0.05446886 -0.06326192 0.055471294 0.028203353 -0.026101511 -0.13497844 -0.031670447
-0.0064022047 -0.007880611 -0.018352835 -0.043568946 -0.049062494 -0.089055195 0.033962253 -0.033740215
-0.009447918 -0.02697869 0.011946608 0.025496606 -0.07059545 0.03878547 0.0175867 -0.012942046
-0.07481326 0.059525486 -0.0025646768 -0.04631011 -0.0055804863 0.0076405364 0.041936804 -0.015886797
0.0025632223 0.03476809 0.02828579 -0.0800445 0.02055442 -0.03274533 -0.030443454 -0.04942003
-0.06110434 0.0431785 -0.06326802 0.031941555 -0.020591354 0.0012945975 -0.015740234 -0.0093015665
-0.08045326 0.033937324 0.041689318 0.00744056 0.0073400815 0.032406997 -0.054875813 -0.06777719
-0.00087225 -0.059919663 -0.007841215 0.010099437 0.008373987 -0.0026701898 -0.092487805 0.027014833
0.03096772 -0.033430465 0.025849476 0.03929991 -0.13983549 -0.036469817 0.010205622 -0.056695163
-0.06751536 0.04398715 0.04303419 -0.07232916 -0.012276089 -0.005644585 -0.053974997 0.040050022
-0.06638747 -0.040120415 -0.024268094 0.00520858 -0.06982778 -0.08179821 0.0075937165 0.037024334
-0.049103778 -0.029176652 0.013481835 -0.004855852 0.024599763 -0.055221036 -0.076871924 -0.037435237
0.05869593 0.0075664334 -0.0037749377 0.045583308 0.010408624 -0.030188277 0.020474529 0.028675826
-0.05246495 -0.06982048 -0.01122844 -0.003868115 -0.039737586 0.004283075 0.064973205 -0.056122974
0.024723161 0.049490742 -0.038180564 0.045076817 -0.037213385 -0.061780635 0.01773304 -0.053539075
-0.03128547 0.027421134 -0.033784807 0.02379653 0.040558748 0.035933997 -0.019063413 0.0068802824
-0.067807324 -0.08446427 0.030261302 -0.019498844 -0.011481438 -0.062555745 -0.038586836 -0.07231007
-0.027171988 -0.0059740026 0.02372131 -0.039332125 -0.02947677 -0.061326317 -0.08899389 0.025791839
0.007469492 0.04736684 0.0352192 0.05651164 -0.049466677 0.0029791393 -0.03694701 -0.03843696
-0.01785493 0.01753863 -0.07363462 -0.032308813 -0.050697826 0.037798557 0.012756886 -0.004277918
0.015812019 -0.016449658 -0.06386102 -0.05423597 0.02861547 -0.09610874 0.049124517 0.03767484
0.048568107 0.03139705 -0.07662913 -0.0072727925 -0.0048319893 0.012129827 -0.048460394 -0.03334114
-0.069740534 -0.025108598 0.015977254 0.0023703473 -0.020251067 -0.07364873 -0.03679272 0.053742863
00000000: a85e 0b3d cb7a 0abd 153d 84b9 745d 9bbd
00000010: 9c64 7a3d 945e 953c 8554 28bd f740 e73a
00000020: d429 cd3c c621 3bbd 1d9a 4fbd f98b 8d3d
00000030: 7595 343d 403e 553d d650 413d b540 dabc
00000040: d226 46bc 4b45 9a3b 9ac8 23bd a22e a3bd
00000050: 1fd2 46bd a223 913b 2a28 e8bc f148 bf3c
00000060: f92d 34bd 2232 63bd 74d9 96bd ac94 56bc
00000070: 59ad 8abc b355 84bb 045a 85bc 27df 50bd
00000080: 0212 43bd a136 eabc 7326 a5bd 5b5f 843d
00000090: 35fd 7abd 5915 8dbd cb9e 293d 1deb 363d
000000a0: e50f 9d3b 7bb7 72bd d4e8 e03c b713 2e3d
000000b0: f59e 623d fccd 88bd fdbd 793d ce0b cf3c
000000c0: 4d17 073d a290 023d a63a 3d3d 2adb edbb
000000d0: efb0 483b bc37 48be 4841 10bd b153 62bd
000000e0: 2622 9cbd 325b 0fbd 718b f23c d009 1cbb
000000f0: 5374 41bc 0860 93bb 9a07 833b 3b4c 463c
00000100: 9d4e fbbc 0a67 243d 6cbd b23b b729 33bd
00000110: 2930 e33c caff c63b 446b 18bb e243 97bd
00000120: 0bca 273d bd1a 5fbd 778f 81bd de35 633d
00000130: b80a e73c d6d2 d5bc ca37 0abe dfb8 01bd
00000140: 96c9 d1bb ae1d 01bc af58 96bc 5a75 32bd
00000150: c1f5 48bd 9262 b6bd 011c 0b3d 2e33 0abd
00000160: 71cb 1abc 6a02 ddbc b5bb 433c 42de d03c
00000170: 5994 90bd 83dd 1e3d fc11 903c e00a 54bc
00000180: b237 99bd ffd0 733d 2314 28bb abaf 3dbd
00000190: 83dc b6bb 775d fa3b edc5 2b3d 0725 82bc
000001a0: bcfb 273b fc68 0e3d 9ab7 e73c 5fee a3bd
000001b0: be61 a83c f81f 06bd 8d64 f9bc a86c 4abd
000001c0: 8b48 7abd f0db 303d aa92 81bd 26d5 023d
000001d0: 33af a8bc 7caf a93a aaf1 80bc 9965 18bc
000001e0: aec4 a4bd dd01 0b3d 6bc2 2a3d f1cf f33b
000001f0: 1185 f03b 33bd 043d 76c5 60bd c4ce 8abd
00000200: b5a7 64ba 526e 75bd 7078 00bc 1c78 253c
00000210: 0c33 093c 5afe 2ebb 3f6a bdbd 364e dd3c
00000220: 04b0 fd3c 62ee 08bd 48c2 d33c f1f8 203d
00000230: 0931 0fbe 6061 15bd 7b35 273c 3039 68bd
00000240: 7e45 8abd df2b 343d 9e44 303d 5021 94bd
00000250: a621 49bc 36f6 b8bb e314 5dbd 7e0b 243d
00000260: 27f6 87bd 4e55 24bd e2cd c6bc bcac aa3b
00000270: de01 8fbd d285 a7bd b6d4 f83b d4a6 173d
00000280: 0b21 49bd e003 efbc eae2 5c3c d71d 9fbb
00000290: 7185 c93c 742f 62bd 076f 9dbd b155 19bd
000002a0: 256b 703d d8ef f73b f264 77bb 90b5 3a3d
000002b0: ef88 2a3c 684d f7bc 33ba a73c 91e9 ea3c
000002c0: 7de5 56bd 0afe 8ebd 7ef7 37bc 3380 7dbb
000002d0: e1c3 22bd 0a59 8c3b ac10 853d 34e1 65bd
000002e0: 3a88 ca3c ceb6 4a3d 3963 1cbd 78a2 383d
000002f0: 106d 18bd b10d 7dbd e144 913c ca4b 5bbd
00000300: 3125 00bd 49a2 e03c f061 0abd f1f0 c23c
00000310: ee20 263d 872f 133d e02a 9cbc fe73 e13b
00000320: 91de 8abd 9afb acbd 8de6 f73c 0abc 9fbc
00000330: a41c 3cbc 3a1d 80bd 3b0d 1ebd 4d17 94bd
00000340: ca97 debc 91c1 c3bb 3153 c23c b91a 21bd
00000350: 4479 f1bc 4e31 7bbd 6e42 b6bd 6849 d33c
00000360: a4c2 f43b bb03 423d 0242 103d c078 673d
00000370: 929d 4abd aa3d 433b bf55 17bd 1370 1dbd
00000380: 8144 92bc 2cad 8f3c bfcd 96bd 3f56 04bd
00000390: 86a8 4fbd a9d2 1a3d 4202 513c c72d 8cbb
000003a0: 3588 813c 6fc1 86bc 91c9 82bd 8926 5ebd
000003b0: fd6a ea3c a9d4 c4bd ca36 493d ef50 1a3d
000003c0: 5aef 463d 319a 003d bcef 9cbd 9b50 eebb
000003d0: aa55 9ebb 2fbc 463c 687e 46bd b890 08bd
000003e0: 20d4 8ebd 8cb0 cdbc bbe2 823c d457 1b3b
000003f0: 91e5 a5bc 25d5 96bd f7b3 16bd 7a21 5c3d

model.4.bias f4 [300]
-0.05416013 0.033772774 0.08048909 0.03954373 -0.012643677 0.034766052 0.067491226 -0.03344589
0.08443066 -0.0283727 0.04788012 0.02036466 0.058025006 0.07562953 0.026709903 -0.05660568
0.041967478 0.01956569 0.019716399 0.072367735 0.04555347 -0.04860172 -0.05744653 -0.018050231
-0.0549888 -0.0019228042 0.055913407 -0.04398367 0.0014681908 -0.038408324 -0.012292322 -0.026051974
-0.049868762 0.04872909 0.1004442 0.059240185 -0.06069015 0.058216654 -0.0012760563 -0.0088754315
-0.039223246 0.0569199 0.008313227 0.05755321 -0.04167671 -0.050803836 0.005853551 -0.037173506
0.0282864 0.032561377 -0.030038692 0.026098829 0.021267142 0.03416748 -0.01735728 0.018129772
0.055351414 0.07727125 -0.026213204 0.06842353 0.024440767 -0.031452373 -0.03367966 0.051739737
0.03585712 0.061505754 -0.044095784 0.028168244 -0.0249886 -0.024751553 -0.0042967293 0.034197576
-0.0595662 0.033052918 0.058422 0.027314112 0.042005222 -0.027857712 -0.0001314524 -0.06599184
-0.012668568 -0.0013078825 -0.01491877 -0.06752947 0.048626475 0.013777297 -0.047663547 -0.043963376
-0.033209473 -0.042225085 -0.058420584 -0.0052301786 0.05446707 0.05248706 0.040588103 -0.020067994
0.021434665 0.00084318523 -0.04445648 -0.014149452 -0.015619383 -0.024583604 -0.02142241 -0.010916057
0.056907777 0.034367602 0.07956539 -0.042394143 0.037711393 0.0041053393 0.010719888 -0.03454223
-0.075011045 0.012256432 -0.043031007 0.08085558 0.034266036 0.011313928 0.030440891 -0.035916325
-0.08120729 0.006112185 -0.010939727 0.025110438 -0.043984205 -0.0667949 -0.007417612 -0.006068877
0.07051675 -0.04259596 0.056116216 -0.011072936 -0.0739918 0.0640483 -0.0148520935 -0.00035036082
-0.005236965 -0.033184174 -0.02089654 -0.03441241 0.03138537 -0.020457165 -0.020215271 -0.016155448
0.015515518 0.027185302 0.0026098401 0.02446709 0.04174851 -0.0039467765 -0.0046936423 0.06331484
-0.020504158 0.0337387 -0.017104562 0.060738556 0.060656026 0.08123332 0.052757107 -0.05690679
-0.0575333 -0.009795507 0.040415175 0.027708173 0.0015690103 -0.012360643 0.02199726 0.016044516
0.08312878 0.053057052 0.099897355 0.02400697 0.051431984 0.014617163 0.029463768 -0.016192485
0.07730243 0.016215319 -0.013143521 -0.039147917 0.026208721 -0.0073994896 -0.05471764 0.047228873
0.036859825 0.05080055 0.018124864 0.035576627 -0.043211237 0.05270022 0.0841609 -0.012201508
0.03268811 0.006632677 -0.023273332 0.06343094 0.07297434 -0.052503016 -0.038392734 0.052068625
0.02686686 0.006552165 0.0139621105 -0.017195018 0.05142508 -0.03166145 -0.00036860336 -0.019087771
-0.033207353 0.030498765 0.018451905 0.03478977 0.014792778 0.003241092 0.006436375 0.058657777
0.017285155 0.014181191 0.053433064 0.08312756 0.05239311 -0.04396245 -0.03437907 0.07320904
-0.065232776 0.07178198 0.0034774572 0.009914946 0.030202003 0.03703543 0.029771445 0.009135261
0.058108483 0.0243312 0.02116865 -0.033481065 0.08188393 -0.037347045 0.051369887 -0.015246145
-0.004924525 0.06928853 0.05581572 0.057141762 0.017389651 0.06710783 -0.053276166 0.035182204
0.022104893 -0.09650105 0.051806867 -0.023614816 0.025442498 0.07740954 -0.0048509086 0.033500817
00000000: 03d7 5dbd 5255 0a3d 77d7 a43d 9bf8 213d
00000010: 6d27 4fbc d966 0e3d d738 8a3d 8ffe 08bd
00000020: fbe9 ac3d dd6d e8bc f21d 443d cad3 a63c
00000030: a1ab 6d3d a8e3 9a3d bace da3c 5cdb 67bd
00000040: 17e6 2b3d 3a48 a03c 4984 a13c 8935 943d
00000050: 4696 3a3d 9912 47bd 0d4d 6bbd 14de 93bc
00000060: f03b 61bd 9a06 fcba 7505 653d 3928 34bd
00000070: 4f70 c03a 0c52 1dbd bc65 49bc f36a d5bc
00000080: 3043 4cbd 2798 473d b0b5 cd3d d6a5 723d
00000090: 3c96 78bd 9674 6e3d 5841 a7ba 426a 11bc
000000a0: 8ea8 20bd d724 693d 3434 083c eabc 6b3d
000000b0: 33b5 2abd af17 50bd 25cf bf3b 3f43 18bd
000000c0: e1b8 e73c 145f 053d b413 f6bc 36cd d53c
000000d0: 6e38 ae3c 33f3 0b3d db30 8ebc e384 943c
000000e0: 2ab8 623d 6440 9e3d 13bd d6bc a321 8c3d
000000f0: 0138 c83c 34d4 00bd aff3 09bd 0ced 533d
00000100: eade 123d 75ed 7b3d c89d 34bd 17c1 e63c
00000110: e4b4 ccbc c5c3 cabc 94cb 8cbb c212 0c3d
00000120: b0fb 73bd 7f62 073d e84b 6f3d d8c1 df3c
00000130: ab0d 2c3d db35 e4bc 7cd6 09b9 bb26 87bd
00000140: d38f 4fbc 416d abba db6d 74bc e44c 8abd
00000150: 8e2c 473d 2cba 613c da3a 43bd f112 34bd
00000160: a806 08bd 36f4 2cbd 6c4a 6fbd eb61 abbb
00000170: dd18 5f3d acfc 563d b63f 263d a265 a4bc
00000180: c097 af3c 3409 5d3a ff17 36bd 1ad3 67bc
00000190: 71e8 7fbc 8e63 c9bc 0d7e afbc 43d9 32bc
000001a0: 2118 693d 0bc5 0c3d 2ef3 a23d 7ba5 2dbd
000001b0: 4377 1a3d 1586 863b 78a2 2f3c 277c 0dbd
000001c0: 649f 99bd 34cf 483c 4841 30bd 9c97 a53d
000001d0: 8b5a 0c3d 0e5e 393c 2d5f f93c ff1c 13bd
000001e0: 0250 a6bd b948 c83b 8a3c 33bc 68b4 cd3c
000001f0: c828 34bd c4cb 88bd 700f f3bb 6edd c6bb
00000200: 166b 903d 1a79 2ebd 1eda 653d 426b 35bc
00000210: 0389 97bd c12b 833d 3256 73bc a2b0 b7b9
00000220: d99a abbb 21ec 07bd 382f abbc 07f4 0cbd
00000230: f28d 003d c995 a7bc 7f9a a5bc 6e58 84bc
00000240: cd34 7e3c b6b3 de3c da09 2b3b 356f c83c
00000250: 7c00 2b3d f653 81bb 20cd 99bb 36ab 813d
00000260: 56f8 a7bc 9731 0a3d de1e 8cbc fec8 783d
00000270: 7472 783d a85d a63d d617 583d 1817 69bd
00000280: 0aa8 6bbd 567d 20bc 628a 253d 40fc e23c
00000290: 40a7 cd3a 4b84 4abc 9933 b43c ca6f 833c
000002a0: 6c3f aa3d 5a52 593d fc96 cc3d 44aa c43c
000002b0: 58aa 523d d37c 6f3c 005e f13c 1aa6 84bc
000002c0: bd50 9e3d fdd5 843c ec57 57bc 9159 20bd
000002d0: acb3 d63c 6b77 f2bb 9b1f 60bd 1073 413d
000002e0: 54fa 163d 3d14 503d 987a 943c ccb8 113d
000002f0: 44fe 30bd 30dc 573d 8d5c ac3d d5e8 47bc
00000300: f8e3 053d ed56 d93b b7a7 bebc 15e8 813d
00000310: 9273 953d 670d 57bd b341 1dbd e945 553d
00000320: e417 dc3c 8bb3 d63b 56c1 643c 91dc 8cbc
00000330: 1ba3 523d 70af 01bd 1b41 c1b9 f55d 9cbc
00000340: 6f04 08bd 8cd8 f93c 7328 973c b87f 0e3d
00000350: 685d 723c 8068 543b 3ae8 d23b 2343 703d
00000360: 9999 8d3c 3a58 683c a1dc 5a3d c83e aa3d
00000370: 289a 563d f811 34bd 11d1 0cbd 9fee 953d
00000380: c398 85bd 6e02 933d 0de6 633b 4c72 223c
00000390: 316a f73c 77b2 173d 3fe3 f33c 10ac 153c
000003a0: 2903 6e3d 3a52 c73c e069 ad3c 7123 09bd
000003b0: c3b2 a73d 37f9 18bd 3b69 523d f8ca 79bc
000003c0: e95d a1bb 25e7 8d3d 069f 643d 7b0d 6a3d
000003d0: be74 8e3c d46f 893d 1c38 5abd 371b 103d
000003e0: 5215 b53c 58a2 c5bd 7033 543d dc73 c1bc
000003f0: c96c d03c e588 9e3d 5ff4 9ebb 2738 093d

model.6.weight f4 [3, 300]
-0.0072776764 -0.0013969218 -0.04322111 0.035570085 -7.784793e-05 0.06685332 0.024352323 -0.058498688
-0.036442276 0.01583402 0.04895929 -0.027730374 -0.0063659153 -0.009756266 -0.012265335 0.047178585
-0.011911357 0.031430263 0.021024685 0.0054301824 0.0015568245 -0.057925276 0.0054173083 -0.07144305
0.027986962 0.053536423 0.051399533 -0.010669892 -0.023182744 0.05175413 0.038136255 0.049046308
0.064274974 -0.013274246 0.0024570394 0.039574057 -0.03190673 -0.024598612 0.029972851 -0.04673073
0.007975829 0.008039816 -0.009769888 0.046090346 -0.0018372228 0.0449995 -0.023369648 0.017033672
-0.049386974 0.018088622 0.00086971227 -0.022453014 0.054819796 -0.016182614 -0.00332972 -0.0048878514
-0.04971168 0.016229 0.04957858 0.022461405 -0.05069283 0.04365202 0.034992605 0.027842445
0.011812125 -0.053549383 0.0044207387 -0.030842377 0.056728337 -0.04385584 -0.03495947 -0.046985004
0.018415332 -0.037497614 0.042554792 -0.031889256 0.031696882 -0.03904356 -0.0044953837 0.008659687
0.029737597 0.009924153 -0.011896584 0.056890592 -0.053535517 0.024274891 0.012533581 -0.052336153
0.0066518313 0.018776137 -0.018547632 0.02443269 -0.016140135 -0.007878073 0.021426322 -0.025768664
-0.009791188 -0.0029770136 0.05161362 -0.025679633 0.041178104 0.041994944 0.05033188 0.04453943
0.00056087546 -0.06474912 -0.03593419 0.010077889 -0.03024177 0.010213874 -0.0445845 0.05325606
0.027284034 0.018654983 -0.040107302 -0.057951644 0.037314583 -0.031580683 -0.056227457 -0.011123207
-0.0066701127 -0.032207146 -0.022559902 0.04676968 0.048401415 -0.0063485564 -0.05630484 0.044738542
-0.0007527185 -0.039853737 -0.004994248 0.055481095 0.00049308373 0.015262922 -0.0005497312 0.0098747
0.0034186763 0.02713909 -0.0075652134 -0.01790828 0.0047001606 0.028415943 0.04768795 0.034991086
0.04572649 0.010245805 -0.027408484 -0.040820923 0.053660713 -0.0020189385 0.045988448 -0.06265059
-0.005183354 -0.032357555 0.051972713 -0.0025292449 0.060672265 0.05588109 0.033358417 -0.005017568
-0.033369966 0.0065155113 0.026119359 -0.028086921 0.003488224 0.012617455 -0.053269215 -0.003869172
-0.04472258 0.008974511 -0.049967043 -0.048843455 -0.03195381 0.019886352 0.04613282 -0.0068983273
-0.041678313 -0.07168173 -0.024575911 -0.035171244 0.03365051 -0.0016688735 -0.013626084 0.009772519
0.015382983 -0.024765396 0.017613363 0.061831854 0.044913087 -0.003758419 -0.029887 -0.0033187426
0.025751036 -0.045544088 -0.016288482 0.033709016 0.04744998 0.028584562 -0.014151029 -0.047650184
-0.0025775663 0.0059581073 0.030026097 -0.018362941 -0.033555146 -0.03271477 -0.011896059 0.0003760004
-0.038511 0.05628962 0.011245993 -0.0025475854 -0.04680054 0.053919632 0.0016321586 0.00381268
-0.026045198 0.014256812 -0.04401647 0.066377886 0.008089685 -0.059948437 -0.008115049 -0.01606204
-0.036910944 -0.029896826 0.02247613 -0.04432807 0.040779967 -0.0088635385 -0.018036844 -0.031401597
0.04308296 0.042923495 0.034680124 0.030618291 -0.04641888 0.028035078 0.004526263 -0.011696294
0.006532148 -0.049131386 -0.05750654 -0.04343908 -0.05475399 -0.055861533 -0.05344337 -0.032023985
0.06340674 -0.018705623 -0.018208887 0.033537667 0.053430192 -0.046339005 -0.017952273 0.033129744
00000000: 9379 eebb eb18 b7ba 9e08 31bd f0b1 113d
00000010: 4a42 a3b8 65ea 883d 867e c73c 529c 6fbd
00000020: 7f44 15bd 59b6 813c 8989 483d cf2a e3bc
00000030: 2b99 d0bb bfd8 1fbc 8bf4 48bc 553e 413d
00000040: da27 43bc 05bd 003d f63b ac3c acef b13b
00000050: 5d0e cc3a 0e43 6dbd ad83 b13b bc50 92bd
00000060: ea44 e53c 0249 5b3d 5188 523d c5d0 2ebc
00000070: bde9 bdbc 23fc 533d c334 1c3d c8e4 483d
00000080: 99a2 833d 397c 59bc 4806 213b 6818 223d
00000090: a2b0 02bd 0783 c9bc a089 f53c b968 3fbd
000000a0: 0dad 023c 6fb9 033c e111 20bc 3bc9 3c3d
000000b0: f8ce f0ba 6551 383d b471 bfbc 338a 8b3c
000000c0: ff49 4abd 972e 943c 67fd 633a 62ef b7bc
000000d0: b98a 603d 6791 84bc 6f37 5abb 452a a0bb
000000e0: 799e 4bbd aef2 843c e912 4b3d fb00 b83c
000000f0: 49a3 4fbd 76cc 323d 6854 0f3d d715 e43c
00000100: a587 413c 9956 5bbd d8db 903b 27a9 fcbc
00000110: f95b 683d 2ea2 33bd a931 0fbd 5973 40bd
00000120: c0db 963c 1997 19bd ef4d 2e3d 4f9e 02bd
00000130: 97d4 013d 24ec 1fbd 034e 93bb 5ce1 0d3c
00000140: 439c f33c ea98 223c e4e9 42bc 1c06 693d
00000150: 0f48 5bbd 23dc c63c a659 4d3c 6f5e 56bd
00000160: 9bf7 d93b 6ad0 993c 34f1 97bc 1127 c83c
00000170: 5138 84bc 0813 01bc 4186 af3c ce18 d3bc
00000180: 386b 20bc 001a 43bb ce68 533d 185e d2bc
00000190: 5faa 283d e402 2c3d cd28 4e3d fa6e 363d
000001a0: b707 133a 309b 84bd bb2f 13bd bb1d 253c
000001b0: 97bd f7bc 1858 273c 3d9e 36bd 0723 5a3d
000001c0: c482 df3c 56d2 983c 8e47 24bd b45e 6dbd
000001d0: 2dd7 183d bf5a 01bd c34e 66bd 1d3e 36bc
000001e0: f690 dabb a4eb 03bd 8bcf b8bc 9091 3f3d
000001f0: 9040 463d 8d07 d0bb e79f 66bd c33f 373d
00000200: 1552 45ba ac3d 23bd caa6 a3bb 2540 633d
00000210: 4a42 013a 5611 7a3c d61b 10ba 7ec9 213c
00000220: df0b 603b cc52 de3c 9ce5 f7bb 63b4 92bc
00000230: ce03 9a3b 8dc8 e83c 7154 433d d052 0f3d
00000240: b34b 3b3d 05de 273c c287 e0bc d733 27bd
00000250: 56cb 5b3d 2b50 04bb 625e 3c3d f44e 80bd
00000260: 20d9 a9bb 5b89 04bd 57e1 543d b0c1 25bb
00000270: 7b83 783d 92e3 643d d6a2 083d 696a a4bb
00000280: f2ae 08bd 1280 d53b 44f8 d53c 8b16 e6bc
00000290: b09a 643b 71b9 4e3c d230 5abd ef91 7dbb
000002a0: 062f 37bd d409 133c 3eaa 4cbd 1310 48bd
000002b0: 00e2 02bd b4e8 a23c c5f5 3c3d 5d0b e2bb
000002c0: e1b6 2abd dfcd 92bd 6c53 c9bc b90f 10bd
000002d0: 1ed5 093d 1abe daba f03f 5fbc ea1c 203c
000002e0: e808 7c3c cde0 cabc e649 903c 6643 7d3d
000002f0: c9f6 373d cf4f 76bb 95d5 f4bc 437f 59bb
00000300: d6f3 d23c 708c 3abd 6c6f 85bc 7712 0a3d
00000310: e95a 423d 2c2a ea3c b8d9 67bc d72c 43bd
00000320: 63ec 28bb 3a3c c33b 4af9 f53c e16d 96bc
00000330: 1f71 09bd ecff 05bd b0e7 42bc eb21 c539
00000340: b6bd 1dbd f28f 663d 1d41 383c 64f5 26bb
00000350: ecb1 3fbd d5da 5c3d 28ee d53a 28de 793b
00000360: bd5c d5bc 6795 693c 9d4a 34bd 21f1 873d
00000370: 998a 043c 7e8c 75bd fcf4 04bc 8a94 83bc
00000380: ee2f 17bd 30ea f4bc dc1f b83c 5a91 35bd
00000390: e508 273d 6038 11bc 01c2 93bc f69e 00bd
000003a0: c277 303d 8cd0 2f3d bf0c 0e3d 36d3 fa3c
000003b0: b921 3ebd d2a9 e53c 0c51 943b d0a1 3fbc
000003c0: a10b d63b fe3d 49bd fa8b 6bbd 2ded 31bd
000003d0: b845 60bd 10cf 64bd 6fe7 5abd 952b 03bd
000003e0: 65db 813d 893c 99bc ce2a 95bc cb5e 093d
000003f0: 9ed9 5a3d f8cd 3dbd a510 93bc 0eb3 073d

model.6.bias f4 [3]
0.036500245 -0.011169255 -0.04172007
00000000: 4881 153d 40ff 36bc aae2 2abd
